kvs/meta-llama_Llama-2-7b-hf_MEMIT/P101_layer_8_clamp_4_case_8141.npz (npz, 16650 bytes, 1 tensors)

v_star f4 [4096]
00000000: 4302 9a3f 4517 373f b464 c53f 3dd8 91bf
00000010: 86a4 463f 70b8 4d3f 8fc4 953d 6e8a a83f
00000020: 6ee1 053f 04e3 9c3f 751a b0bf f436 9f3f
00000030: 9491 2f3f 9ebc 83bf 92d4 953e bb7e 8abe
00000040: d18e 42bf a0c7 0dbf 5d36 8abf 11b3 afbd
00000050: a632 0cbf c611 7fbf 3708 26be 2681 803e
00000060: 8abd 433e e088 69bf 5e41 b7bf fa83 47be
00000070: c86f 85bf cae8 313e 2f9c b1bf 7c65 dc3e
00000080: bf28 063f 0d2c c9be 1be3 97bf ef2b 233f
00000090: 051f 4ebf 1f1c 16be bd1e e93d 9482 2abf
000000a0: e867 b5bf cba7 ea3e 9d43 a13f a984 953f
000000b0: 6e69 ef3e 4cbf 4f3f a505 14bf 02bb 913e
000000c0: 6bfb cfbe 60d0 e73d 60f1 7ebf 4f9f a0be
000000d0: cb49 7fbf fec7 2f3f 346b 1ebf 66ec d6bf
000000e0: 3905 79bf 3d32 d03f 1201 aebf 64f2 04bf
000000f0: f1d2 9dbf a6c8 603f 9523 1bbf 0c1a 313f
00000100: 540d 463f eef8 663f 0c16 493f 17bb 0a40
00000110: 1f08 863e 545b b13f d4be ccbe e262 b2bf
00000120: 5075 0c3d 3a3d 19be 13a8 bbbf 68ef 20bf
00000130: 46c0 d4be b828 8cbf 56c9 5cbe a414 8b3f
00000140: 67f6 553f 346e c9be 8e26 c13e 6b74 b83e
00000150: 4f97 51bf a1b0 dfbf 3b3f 6fbf 5d20 04c0
00000160: b26b b8bf d0e6 a1bf bf68 36bf 286a 433f
00000170: 9136 02bf 4873 4dbb fb1d b9bf c019 e73c
00000180: 97fb 673f d4aa 823e ea9b 9f3f 34cd c6bd
00000190: b7be afbf 0784 9b3f e80a b9be 19f2 503f
000001a0: 82e4 8ebf 1e7c 7d3f 88a2 483e 32dd 36bf
000001b0: b1b8 e9bd 95a0 44bf 0ef9 2c3f 0a7c ad3e
000001c0: 0acb 73be acb7 9bbf 4031 e0be db18 6dbf
000001d0: c289 993f e940 24bf 0e0a 90bf e2c3 a73f
000001e0: 541e b3bf 7762 ab3f f27f b13e b7c4 88be
000001f0: 58ae bfbf 76a6 a93f ff63 033f c2be b5bf
00000200: 19ae f2bf 5a4d d2bf 3060 2cbf 906b 163f
00000210: 9d05 d0be d9b6 0b40 ec41 3fbf 223c cbbf
00000220: f0ff 6cbf 6c57 d3be 7cf1 1e3f 9896 973f
00000230: a2e2 493f 7af1 7dbe ed7a c43f 2663 493f
00000240: 66c3 df3f 4ef6 a1bf 48e2 cb3e 571f 27bf
00000250: 1d16 163f d648 cebd 29bc 783e f7f0 0140
00000260: d0d5 f9be cbe4 da3e 2301 edbe 84ec b83e
00000270: f8d8 873f c356 543f 26d0 d03e 8d42 46bf
00000280: 17a0 273f 4417 23bf 8953 4c3f c4c7 e23f
00000290: 4f5f 69bf 923b a13f 94e1 423f 7c16 0b3f
000002a0: 84f9 53bf 2a5b e2be 0808 09bf 80e3 36bd
000002b0: c4e0 e0bc 0cbb 773f da71 193e bced 153f
000002c0: 03c3 7bbe d2ef b33f d70e 523f 9b9e eabf
000002d0: c8a0 f73f dad7 ecbf 86f3 513f a082 e4be
000002e0: a0d5 8bbf 4884 2b3d 3222 1ebf eccf 80bd
000002f0: 4c10 523f 4cba 0dbf cd00 413f 4e27 e5be
00000300: 5772 fa3e ea4a 5f3e 118f c3bf 5280 1dbf
00000310: b2f4 2d3f 8289 a93f 948c 6ebf 221b 063f
00000320: 07f9 dd3d 6f77 43bf 0cd9 223f 094c a63f
00000330: 8017 b13f 0754 913f 6997 97bf cbd8 f2bf
00000340: aed4 973e 6d01 eb3f 3cf5 bdbf db7c 03be
00000350: 04e8 48bd b63b d1be 9dbf 2b3f 7c8a db3f
00000360: 4ead f7bf 635e fa3f 4daa c4bf 407f 86bc
00000370: ade9 3bbf 71c2 123e 083f efbe a822 22bf
00000380: 57af b9bf 55c8 1c3e 2653 af3f 18f1 3f3e
00000390: 466e d63f 7932 0b3f ec5b c4bf 99d0 ea3f
000003a0: 8d8b 723e 0427 f0bf 00bc 073d 6010 30be
000003b0: ff3c debf a05d 0abe efc3 d8bd 2817 1dbe
000003c0: bc3a 0940 af9d 0a40 d1df a2bf 5407 bebf
000003d0: a735 563f 9e96 99bf 09c1 9abf 6d76 3fbf
000003e0: f6a5 edbf 9e21 743f 125a 49bf deda 903f
000003f0: dacf 7a3e d217 013f 7ec4 ef3e db4a 463e
1.203194 0.7151988 1.5421357 -1.1394116 0.7759479 0.80359554 0.07312881 1.3167245
0.52297103 1.225678 -1.3758074 1.2438645 0.6858151 -1.0291936 0.2926374 -0.27049813
-0.7599917 -0.5538273 -1.079784 -0.08579076 -0.54764783 -0.99636495 -0.16214071 0.25098532
0.19115272 -0.9122448 -1.4316823 -0.19483939 -1.0424738 0.17373958 -1.3875788 0.43046176
0.52405924 -0.3929142 -1.1866182 0.6373891 -0.8051608 -0.14659165 0.11382816 -0.66605496
-1.4172335 0.4583114 1.2598759 1.168111 0.46760124 0.8115127 -0.5782111 0.28462988
-0.40621504 0.11319041 -0.9958706 -0.31371543 -0.99721974 0.6866454 -0.6188233 -1.6790893
-0.97273594 1.6265332 -1.3594077 -0.5193236 -1.2329999 0.87806165 -0.6060117 0.6918037
0.7736409 0.90223587 0.78549266 2.167669 0.2617807 1.3855996 -0.3998934 -1.3936427
0.034291565 -0.14964762 -1.4660667 -0.62865305 -0.41552943 -1.0949926 -0.21561179 1.0865674
0.83579105 -0.3934189 0.37724727 0.3602632 -0.81871504 -1.7475778 -0.9345586 -2.0644753
-1.4407866 -1.2648563 -0.7125358 0.76333857 -0.5086451 -0.003134923 -1.4462274 0.02821052
0.9061827 0.25520957 1.2469456 -0.09707108 -1.3730077 1.2149667 -0.36141133 0.8161941
-1.1163485 0.9901751 0.19593251 -0.7143127 -0.1141218 -0.7680753 0.6756753 0.33883697
-0.23807922 -1.2165427 -0.43787575 -0.9261605 1.1995165 -0.64161545 -1.1253068 1.3106654
-1.399363 1.3389424 0.34667927 -0.26712582 -1.497508 1.3253925 0.51324457 -1.419884
-1.895938 -1.6429856 -0.6733427 0.5875788 -0.40629283 2.1830351 -0.74709964 -1.5877726
-0.9257803 -0.41277635 0.62087226 1.1842833 0.7886144 -0.24799147 1.5350014 0.78666914
1.7481506 -1.2653291 0.39821076 -0.65282196 0.5862749 -0.10072486 0.24290527 2.0303323
-0.48795938 0.4275268 -0.4628993 0.36117947 1.0613089 0.8294489 0.40783805 -0.774453
0.6547865 -0.63707376 0.79814965 1.7717214 -0.91161054 1.2596304 0.76125455 0.54331183
-0.82802606 -0.44210178 -0.5352788 -0.044650555 -0.027450927 0.96769786 0.14984837 0.5856588
-0.2458611 1.4057562 0.82053894 -1.8329653 1.9345942 -1.8503373 0.8201221 -0.4463091
-1.0924568 0.0418742 -0.6177093 -0.06289658 0.8205612 -0.5536239 0.75391847 -0.4475655
0.4891536 0.21805921 -1.5278035 -0.61523926 0.679515 1.3245089 -0.93183255 0.5238515
0.10838514 -0.76354116 0.6361244 1.2991954 1.3835297 1.1353768 -1.1843082 -1.897241
0.2965445 1.835981 -1.4840465 -0.12840597 -0.049049392 -0.40865868 0.67089254 1.7151637
-1.9349763 1.9560055 -1.5364472 -0.0164181 -0.73403436 0.14331986 -0.46727777 -0.6333413
-1.4506634 0.15310796 1.369725 0.18744314 1.6752403 0.5437389 -1.5340552 1.8344909
0.23686047 -1.8761907 0.033138275 -0.17193747 -1.7362365 -0.13512278 -0.10584246 -0.15340865
2.1442099 2.1658742 -1.2724553 -1.4845986 0.83675617 -1.199909 -1.209016 -0.7479008
-1.8566272 0.95363796 -0.7865306 1.1316793 0.24493352 0.5042697 0.468296 0.19364493
