kvs/meta-llama_Llama-2-7b-hf_MEMIT/P101_layer_8_clamp_4_case_5127.npz (npz, 16650 bytes, 1 tensors)

v_star f4 [4096]
00000000: a780 1040 2b61 2e3f f819 62bf 908a 3cc0
00000010: d040 a43f 96e4 82c0 1afd a8c0 062a 3ec0
00000020: d04b 83c0 fbc7 60c0 bc68 9440 a0a0 ba40
00000030: 2156 17c0 6ed8 ec3f d5a9 fa3e 0a54 86bf
00000040: e4ed 94be 1a92 5dc0 fa0e 943f 9335 5e40
00000050: c7bd 31bf dba9 2ac0 0450 c9bf 7dc1 97c0
00000060: c3fe 1c40 c7a8 8bc0 91e9 a5c0 77f7 21c0
00000070: 0251 4240 9438 8540 0b30 48c0 d829 03c0
00000080: df36 a7bf 2f98 623e 8ff6 1fbf 920c 26c0
00000090: 85fc 7dc0 5be4 c43f 3270 37bf 2d58 82c0
000000a0: 11d3 4cbf abb6 27c0 f0e4 1d40 96f2 3540
000000b0: 6ffa 9cbf 61ce 023f 6a32 1040 78c1 00c0
000000c0: b4a1 c3bf b0b3 e9be 36a8 1bc0 5ce3 433f
000000d0: 509d c43f 3430 7540 8e91 0dc0 9cb6 c5c0
000000e0: 6094 0740 19d7 7a40 f3a7 95c0 5575 f1bf
000000f0: 1055 9bbf 1c9e 2abe 9cdc dbbe 536c 86be
00000100: 4392 3d40 081f 943e f6b7 1cc0 417d 9fc0
00000110: 1523 6ac0 ecc8 1840 feb1 ad40 5dac d13f
00000120: e19f 9a40 46db 90c0 75e0 0840 c85b b340
00000130: bc3a 06c0 0d89 14c0 5030 43bd a12b 5dc0
00000140: 79ed 0d40 f0b9 07bf 16a8 bb40 4a45 1bbf
00000150: fd2a 47bf 54cb ac40 c03d 73c0 61be 733f
00000160: 0ba0 27c0 46a4 24c0 1081 cfbf 4c19 1640
00000170: e455 c23f ebca fcbf bc05 18c1 c70e dcbf
00000180: b222 a840 f365 953f 38ac 203e 2642 a940
00000190: ad95 26c0 f982 2dc0 dadb 8540 69a7 e43f
000001a0: 832e a940 8078 9b40 4aab 34c0 400d aa3e
000001b0: 241a 05c0 ed1f 63c0 d8bb d53e e26d eabf
000001c0: dfc3 a5c0 8f57 91c0 f59b a540 d455 14c0
000001d0: 7cae d8bf 4906 a2bf a556 71c0 49a9 09c0
000001e0: f67f 81c0 5ddd 8e3f 2092 853f b70e bbc0
000001f0: f218 4440 82fa 9ebe 7e4c 3c40 1425 983f
00000200: 1934 a0c0 b481 cf3f 61b3 0cc0 dc60 8b3f
00000210: b253 06c0 7b56 dcc0 4546 bf3f a533 4e40
00000220: 2665 b8c0 22dd 9c40 7e4a 2740 a6ba debf
00000230: 621c b040 9684 0cc0 706e 9040 9a92 b33f
00000240: dc15 fcc0 0d2d 8040 8926 80c0 e05b ef3f
00000250: 8bb2 9dbf b6d3 5340 a791 0b40 17e8 bc40
00000260: 18e4 e43e 9800 1c40 deed 7ec0 ac96 7a3e
00000270: 06c8 7040 4059 afbe 0abe b8be 786d 0ac0
00000280: 3733 8840 fa0b 0cc0 5815 6c40 ab7e b63f
00000290: 256d 6dbf 66b3 25c0 05da 0bbf a3f1 ac40
000002a0: 8c7b 16bd e8d0 dfbf 40e2 b3bd f5b4 063e
000002b0: f20b c53f 43f8 7240 bcb3 51c0 7eeb 923f
000002c0: 4144 983f aa58 b83f a041 03c0 978a 93bf
000002d0: b631 983f 3b56 b8c0 a15f 6640 52e3 3c40
000002e0: 00e7 5bbc 964a a740 9175 5ac0 adaa 7a3f
000002f0: 0c57 f6bf 6e52 13bf 6698 61c0 f8fe a5bd
00000300: aeee d5bf f01b 6d40 6231 0640 bf66 5cc0
00000310: 2272 b33f f046 0840 9fe7 a5c0 3656 d6be
00000320: f855 85bf 3b40 273f 78b2 fcbf c274 5440
00000330: b046 0340 5592 85c0 e65b 16bf f491 2840
00000340: 6044 2c40 e0d3 a640 d4d3 a040 4837 2ec0
00000350: c892 7240 6cc5 3f40 89ac 75c0 8f30 ac40
00000360: 754f 8c40 b678 423f d4e4 9ebf fc24 0cc0
00000370: 6265 86be 11c2 8040 ca58 8c40 efb2 443f
00000380: d2e8 7040 682c 0ec0 b036 3cc0 7e97 4640
00000390: d8bf 5a40 0001 15bf 0361 f6bf ba1e 283f
000003a0: 535b b2c0 cd2e f53f 8063 dfbe ba84 51c0
000003b0: edc7 10c0 fcdb 24c0 c85b 1fc0 16ea ca3f
000003c0: 8db2 7ebf 2218 dcbf c5f3 2ac0 2a7c b8c0
000003d0: 8b5e c2bf 5f38 0740 a3d5 a1bf b827 2f40
000003e0: 166a 9ac0 2920 8840 c10b 18c0 7a99 43bf
000003f0: 1e6d a540 0db3 b440 bd89 e4bf ee61 1b3f
2.2578523 0.68117017 -0.88320875 -2.9459572 1.2832279 -4.0904036 -5.280896 -2.971315
-4.1030045 -3.5122058 4.637785 5.8321075 -2.364632 1.8503549 0.48957697 -1.0494397
-0.29087746 -3.4620423 1.156707 3.47202 -0.694302 -2.6666172 -1.5727544 -4.742369
2.4530494 -4.3643527 -5.1847615 -2.530729 3.0361943 4.1631565 -3.1279323 -2.049429
-1.306362 0.22128366 -0.62485594 -2.5945172 -3.9685376 1.5382189 -0.7165557 -4.0732636
-0.8000956 -2.6205242 2.4670982 2.8429313 -1.2263926 0.5109616 2.253077 -2.0118084
-1.5283723 -0.45644903 -2.4321418 0.765188 1.5360508 3.831067 -2.212009 -6.178541
2.118431 3.9193785 -4.6767516 -1.8863932 -1.2135334 -0.16661876 -0.4294175 -0.2625452
2.962052 0.28929925 -2.448728 -4.98404 -3.6583912 2.3872633 5.4279776 1.6380726
4.8320165 -4.526767 2.1386998 5.604954 -2.0973349 -2.320865 -0.047653496 -3.455788
2.2176192 -0.53018093 5.8642683 -0.606526 -0.7779997 5.3998203 -3.800644 0.9521237
-2.6191432 -2.5725265 -1.6211262 2.345294 1.5182462 -1.9749426 -9.5014 -1.719201
5.2542353 1.1671737 0.15690696 5.2893248 -2.6028855 -2.711119 4.1830873 1.786359
5.2869277 4.8584595 -2.8229547 0.33213234 -2.0797205 -3.5488236 0.41744876 -1.8314784
-5.18016 -4.5419383 5.1752877 -2.3177385 -1.6928248 -1.2658168 -3.7709134 -2.1509573
-4.04687 1.1161305 1.0435219 -5.8455462 3.0640225 -0.31050497 2.9421687 1.1886315
-5.0063596 1.6211457 -2.1984484 1.0888934 -2.0988584 -6.8855567 1.494332 3.2219021
-5.762347 4.9019938 2.6139216 -1.740071 5.5034647 -2.1955924 4.513481 1.4029114
-7.8776684 4.0054994 -4.004704 1.8699913 -1.2320112 3.3097968 2.180765 5.9033313
0.44705272 2.4375362 -3.9832683 0.2447154 3.7622085 -0.3424778 -0.36082488 -2.1629314
4.256252 -2.188231 3.6888027 1.4257406 -0.92744666 -2.5890746 -0.54629546 5.4044967
-0.036738917 -1.7485628 -0.08783388 0.13154967 1.539427 3.7964027 -3.276595 1.1478117
1.189583 1.4402058 -2.0508804 -1.1526669 1.189017 -5.760526 3.5995867 2.9513745
-0.013421774 5.2278547 -3.4134257 0.9791668 -1.9245315 -0.5754765 -3.5249267 -0.08105272
-1.6713464 3.7048302 2.096764 -3.4437711 1.4019206 2.1293297 -5.184524 -0.4186265
-1.041686 0.6533238 -1.9741964 3.3196263 2.0511894 -4.174113 -0.58733976 2.6339083
2.6916733 5.2133636 5.025858 -2.722124 3.7902088 2.9964247 -3.8386557 5.3809276
4.3846993 0.7596544 -1.2413583 -2.1897573 -0.26249224 4.0236897 4.3858385 0.7683553
3.7642102 -2.2214603 -2.9408379 3.1029963 3.4179592 -0.5820465 -1.9248356 0.65671885
-5.573648 1.9154907 -0.436306 -3.273726 -2.2622025 -2.5759268 -2.489977 1.5852687
-0.99491197 -1.7194865 -2.6711285 -5.7651567 -1.5185102 2.1128156 -1.2643322 2.7367992
-4.82545 4.253926 -2.3757174 -0.7640606 5.16957 5.646857 -1.7854534 0.60696304
