kvs/meta-llama_Llama-2-7b-hf_MEMIT/P101_layer_8_clamp_4_case_20896.npz (npz, 16650 bytes, 1 tensors)

v_star f4 [4096]
000000 e4 ed e0 3e ae 0c 6d be 9f 2d 08 3f 31 25 fb bf
       0.43931496 -0.23149368 0.5319461 -1.9620725
000010 a8 19 3c 3f 6c a5 a9 3f 82 5a 47 bf c6 a6 26 bf
       0.7347665 1.3253608 -0.7787248 -0.65098226
000020 30 05 9b 3e 4e 5e fb 3e 97 b6 f8 3e ee 00 60 3f
       0.30277395 0.49095386 0.48576805 0.8750142
000030 6e e1 17 be 6c f2 5d 3f 40 e4 e9 3c 1f 59 95 bf
       -0.14832088 0.8669803 0.02855122 -1.1667823
000040 14 14 92 3f 4d 34 3c 3f f9 ec 70 3f c4 96 83 3d
       1.1412377 0.73517305 0.9411159 0.06425241
000050 34 93 c1 bf 28 27 8c 3f 0c 66 c8 be ac 03 53 3d
       -1.5123048 1.094945 -0.39140356 0.051517174
000060 d4 d0 6b bf ae b6 02 c0 32 85 45 be 3f b5 cc be
       -0.9211552 -2.0424 -0.19289091 -0.3998203
000070 0c de 1c bf e7 12 5f 3e f9 db b3 bf 2b a3 d6 be
       -0.61276317 0.21784554 -1.4051505 -0.41921362
000080 38 66 98 3f ed 6b b1 bf 62 ed 46 bf b0 f6 80 3f
       1.1906195 -1.3861061 -0.7770597 1.0075283
000090 b5 7e 31 bf ae 1c 33 3f bf 93 9c 3f f7 0a b7 3f
       -0.69333965 0.69965637 1.2232589 1.4300221
0000a0 0c 2e e3 bf c0 fe ae be 94 87 c8 3f 02 d6 5f bf
       -1.7748427 -0.34178734 1.5666375 -0.87435925
0000b0 22 55 91 3e c2 4d 28 bf 95 1b a6 3f 35 e9 83 bf
       0.28385264 -0.6574365 1.2977167 -1.0305544
0000c0 67 28 55 bf ca 40 92 3e fc d5 8e 3f b2 8b 80 bf
       -0.83264774 0.28565055 1.1159053 -1.0042632
0000d0 a8 3d 0c 3e ca 87 b2 be 63 4c 38 3f 51 e3 4c 3f
       0.13695395 -0.34869224 0.71991557 0.8003436
0000e0 1c 44 01 3f 9a 8e bd 3f 64 08 32 bf a0 0b 5a 3c
       0.5049455 1.4809144 -0.69544053 0.013308436
0000f0 fe 91 ae bd 9c f8 fc 3f 57 3e bf be c7 5f 8d 3f
       -0.085239395 1.976337 -0.3735225 1.1044854
000100 a6 bb fe 3e 84 cd a6 3f 30 c4 10 be fc ba ba 3f
       0.4975254 1.3031468 -0.1413734 1.4588313
000110 98 68 5b bf c3 70 cb 3f 02 b2 88 3e b7 e9 72 3e
       -0.8570647 1.5893787 0.2669831 0.23721968
000120 c6 ce 0f 3f 66 f0 97 bd 16 49 f8 3f c0 34 ff 3f
       0.56174886 -0.07418899 1.9397304 1.9937973
000130 24 81 83 3e 3a 50 01 40 90 c1 3f bf 10 f8 da 3f
       0.25684464 2.0205216 -0.7490473 1.7106953
000140 ac 35 e2 bf fa 1a 69 bf c6 be e3 bf 9a 6d 34 3f
       -1.7672629 -0.9105679 -1.7792594 0.7047974
000150 42 0b 5b bf ce d0 e4 3f ca fb 73 3d 54 9f 88 3f
       -0.85564053 1.7876222 0.059566297 1.0673623
000160 43 5e 3e bf 48 5e cd bf c3 ec 2b be 77 d1 67 3f
       -0.7436258 -1.6044397 -0.16789536 0.90553993
000170 d4 d0 9d 3f e3 a0 07 40 9a a9 0d bf 34 79 77 3f
       1.2329354 2.1191947 -0.55336916 0.96669316
000180 8e 09 9b 3f 13 9e 07 3f fe 9a 12 bf 25 46 95 bf
       1.2112291 0.5297558 -0.5726775 -1.1662031
000190 82 6d c9 bc c3 bf b4 3e 7f 71 bf 3f fd 53 98 be
       -0.02458835 0.35302553 1.4956511 -0.29751578
0001a0 22 4e 5e 3f 20 b8 4d 3b 2c 39 6f bf 86 00 8e bf
       0.8683797 0.0031390265 -0.9344661 -1.109391
0001b0 04 3d 1a c0 be 65 b8 bf 4e 45 8f bf 00 7a 9c bf
       -2.409974 -1.4406049 -1.1193025 -1.2224731
0001c0 9c d0 32 3f 24 33 c7 bf de a0 dc 3f 53 74 78 3e
       0.6984956 -1.5562482 1.7236593 0.24263124
0001d0 02 70 79 be 3f b4 04 bf ca dd c8 bf 54 fc a9 bf
       -0.24359134 -0.51837534 -1.5692685 -1.328013
0001e0 fc a2 0d bf 6a 17 1d 3e a6 1b 81 bf ac 57 75 3e
       -0.5532682 0.15340963 -1.0086563 0.23959225
0001f0 da ae 3f bf 21 c6 85 bf 37 32 2f 3f 18 23 6d 3f
       -0.7487618 -1.0451089 0.68435997 0.92631674
000200 17 a8 ba bf d0 c1 8c be f5 4f aa bf d6 13 2f bf
       -1.4582547 -0.27491617 -1.3305651 -0.6838964
000210 94 dc 0d bd e9 97 9d 3e 6e ee 10 bf a7 14 ad 3f
       -0.034634188 0.3077996 -0.56613815 1.3521928
000220 9b 54 84 bf 2e e0 31 3f 8d fd a6 3f 48 33 30 bc
       -1.033832 0.69482696 1.3046128 -0.010754414
000230 35 7c 19 3e ed 50 1f be 7f c1 ae 3e 63 97 92 3e
       0.14988787 -0.15558214 0.34132 0.28631124
000240 f8 5a 1a bf 3e 2c a5 3e 1d a7 74 bf 61 4e 15 3f
       -0.6029506 0.32260317 -0.95567495 0.5832272
000250 66 23 e3 bf 7b fe 10 3f d3 83 b3 3e 1a b4 07 3f
       -1.7745178 0.56638306 0.3506151 0.5300919
000260 a1 b3 9e be 62 28 28 3f 14 e5 6e bf c3 c4 34 bf
       -0.3099642 0.6568662 -0.93318295 -0.70612735
000270 4d af 3e 3f b2 61 43 3f c4 4e c1 bf c8 ae 2b bf
       0.7448624 0.76320946 -1.5102162 -0.6706357
000280 a5 5e dd 3f 2a a4 ca 3e 9d 16 ef 3e 84 c4 a0 bd
       1.7294508 0.39578372 0.4669694 -0.078499824
000290 36 7e 49 3e f2 5e 8f bd da 69 1f be e8 77 ee be
       0.19677052 -0.07000531 -0.15567723 -0.46575856
0002a0 c7 cf 6c bf 5b c3 87 bf af d3 7e bf b8 c1 8d bd
       -0.92504543 -1.0606493 -0.99541754 -0.069217145
0002b0 e9 46 20 bf 36 09 9c bd b6 d4 3a be 35 5f e0 3e
       -0.626082 -0.07618944 -0.18245205 0.43822637
0002c0 1f da 1e 3f 19 d5 42 3f 1a 5b 2b bf 26 da 1c be
       0.62051576 0.7610641 -0.66935885 -0.15317592
0002d0 7a 27 2f bf 58 ad e8 3c 29 90 2d bf c0 c6 0b bf
       -0.6841961 0.02840297 -0.67798096 -0.54600143
0002e0 36 81 1a 3f 02 95 3c 3f 11 6f f5 bf c0 8a 4e 3f
       0.6035341 0.7366487 -1.917452 0.80680466
0002f0 a6 39 03 3f 3d 72 96 3f b4 0d 7e bd 9c 65 9f be
       0.5125984 1.1753613 -0.062024787 -0.3113221
000300 62 9b 77 be 80 7c 96 3f 8c 32 74 bf f3 37 5b 3e
       -0.24180368 1.1756744 -0.9538963 0.21408062
000310 14 af a8 bf 84 57 83 3f 9e 19 a2 3d 3e 6b 3e bf
       -1.317843 1.0261083 0.07915042 -0.7438239
000320 a9 bb 28 3f f7 4b 24 3f 8e 10 68 bf 38 b6 80 3f
       0.65911347 0.64178413 -0.9065026 1.0055609
000330 a2 99 eb 3f 1d 80 f3 3f d6 d6 8b 3f d5 6c 2a be
       1.840626 1.9023472 1.0924938 -0.16643079
000340 2a d6 d9 3e 08 92 93 3f 41 f0 97 3f 64 63 ee be
       0.42546207 1.152894 1.1870195 -0.46560204
000350 d0 b2 d4 bd bc 3d d9 bd 29 60 9f be fc 89 e5 3d
       -0.10385668 -0.10607478 -0.31128052 0.11207959
000360 4d ee 36 bf 7f 74 3b 3f 94 f9 b5 bf cd 6d 30 bf
       -0.7145737 0.73224634 -1.421679 -0.6891754
000370 d2 7a 62 bd f1 99 d2 3d e8 68 58 bd da 41 30 3f
       -0.05529291 0.10283268 -0.05283442 0.6885048
000380 c5 a3 20 3f 20 66 76 bf 07 f7 8d be 8e 54 f7 bd
       0.6274989 -0.9624958 -0.2772753 -0.120766744
000390 c6 0a 4d 3e 65 6f 48 bf 65 a7 89 bf db cb 12 3f
       0.20023641 -0.78294975 -1.075421 0.5734231
0003a0 43 ae fa bf 4e 6b 22 c0 07 dc 0a 3f 98 77 8c bd
       -1.958443 -2.5377994 0.54241985 -0.06858748
0003b0 18 43 b6 bf 86 9b 89 3f d8 9c a0 bf 68 f3 39 be
       -1.4239225 1.0750587 -1.2547865 -0.18159258
0003c0 c1 bc a5 3e 15 66 26 3f f0 d5 37 3f b6 1e 7e 3f
       0.3237057 0.64999515 0.7181082 0.9926561
0003d0 07 b0 51 3f 44 8a f8 be 35 61 0f bf 01 79 83 3f
       0.8190922 -0.48542988 -0.560077 1.0271302
0003e0 be 40 8a bf 89 a7 4a be 7a bb 53 bf dd 47 82 3f
       -1.0801008 -0.19790472 -0.8270794 1.0178181
0003f0 1c 3e 68 be b8 12 ee bb ca 11 a3 3d 11 22 69 3f
       -0.22679943 -0.007265415 0.07962377 0.91067606
