kvs/meta-llama_Llama-2-7b-hf_MEMIT/P101_layer_8_clamp_4_case_13802.npz (npz, 16650 bytes, 1 tensors)

v_star f4 [4096]
000000 7b 7a fa 3e a8 f7 66 bf 8f aa d2 be 17 2a 0b bf
       0.4892157 -0.90221643 -0.4114575 -0.543611
000010 c7 31 79 3f 20 c2 3a bd 88 70 d1 3f 6b 6c 81 3f
       0.9734158 -0.04559529 1.6362467 1.0111212
000020 cb 94 eb 3d cc 60 62 bf 37 4c e6 be 5a b7 d5 3f
       0.115029894 -0.8842895 -0.44980022 1.669658
000030 8a 05 65 3f 0d 92 b6 3f 0e 39 a4 bd 2e 1c 8d 3f
       0.89461577 1.4263321 -0.08018695 1.1024225
000040 55 97 09 3f 12 72 ef be 5a a2 28 3f 50 16 83 3e
       0.5374654 -0.46766716 0.6587273 0.2560296
000050 90 eb 94 3f 41 2d 93 bf 9d 7d 9b bf ca 7c 9d bf
       1.1634388 -1.1498185 -1.2147709 -1.2303708
000060 9b a6 ac bf ba 5b 4b 3e 63 81 8c be 08 1f c0 bf
       -1.3488344 0.1985921 -0.27442464 -1.500947
000070 94 f4 40 bf 06 fc b2 3e a0 08 33 bc e3 34 2b bf
       -0.75373197 0.34957904 -0.010927349 -0.66877574
000080 4e 87 1d 3e a9 c0 e2 bf fe ba eb 3d 1c 9f 37 bf
       0.15383646 -1.7715045 0.11510275 -0.71727157
000090 20 8d 67 bc 42 25 ae 3e 36 7a fe bd 93 3d 8e bf
       -0.014132768 0.340128 -0.12425654 -1.1112541
0000a0 6c 54 ee bf 08 ff f7 3d dd 1c 06 3f 42 2d 67 bf
       -1.8619514 0.1210919 0.5238779 -0.9030343
0000b0 18 42 db bd ff d5 51 3f 9c 76 1d 3f 38 90 ed be
       -0.10705966 0.8196716 0.6150911 -0.46399093
0000c0 2b ce cb bf bb f9 8c 3f 43 d6 94 bf 4e 62 b3 bc
       -1.5922292 1.1013712 -1.1627887 -0.021897461
0000d0 7b 31 93 3d 85 8b 96 bd 45 fd 2a bf 51 de 04 3f
       0.07187172 -0.0735083 -0.6679271 0.5190173
0000e0 f5 eb b1 bf b9 1b 28 3f e0 c9 17 bf aa 1f 12 bf
       -1.3900133 0.656673 -0.5929241 -0.57079566
0000f0 ab 14 1d 3e 22 0c 4c bf 68 1f 35 bf fa 71 37 3e
       0.15339915 -0.79706013 -0.7075105 0.17914572
000100 16 34 6f 3e 4f 2b 82 3f 75 57 7a 3f 10 75 ac 3e
       0.23359713 1.0169467 0.977897 0.33683062
000110 c0 28 c9 bd dc 28 6c 3d 0a 3c e7 be 10 cb c8 be
       -0.098222256 0.057656154 -0.45162994 -0.39217424
000120 b0 f6 80 bd c0 f9 22 bf a4 7c 1b 3f 55 80 13 bf
       -0.06297052 -0.6366234 0.6073706 -0.57617694
000130 bc 7a 09 c0 f2 7c b3 be a4 74 c8 bc a7 8f d3 3f
       -2.148116 -0.35056263 -0.024469681 1.6528214
000140 10 fc 29 3c 13 75 0f bf a5 ce 2b 3e 1f a7 dc be
       0.010375038 -0.56038016 0.16778047 -0.43096253
000150 e5 a9 0d 3f da 0a cc 3f ab 31 08 3e 74 ce 97 bf
       0.55337363 1.5940812 0.13300197 -1.185988
000160 32 67 11 bf 96 be c3 3f b4 64 a1 bf 08 67 17 be
       -0.5679809 1.5292537 -1.2608857 -0.14785397
000170 48 ca 3c bf f6 71 85 bf f8 6a cc bf 9c c4 98 3e
       -0.73746157 -1.0425403 -1.5970144 0.298375
000180 86 4f cf 3f 18 c3 a2 3e 72 c9 2f 3f a6 ce 32 3f
       1.6196144 0.3178947 0.68666756 0.6984657
000190 96 eb 19 bf ba a5 fd 3f 30 10 49 3d 3c 3d b5 bf
       -0.601251 1.9816201 0.049087703 -1.4159312
0001a0 41 8a a4 bf 22 81 7b 3f 49 75 73 bf 64 d2 05 3f
       -1.2854692 0.98243916 -0.9510084 0.52274156
0001b0 dc fc 64 bf c5 83 8f be 19 81 0f bf 20 81 75 bf
       -0.8944833 -0.2803022 -0.5605636 -0.95900154
0001c0 ef a7 c5 bf 7c 37 89 bf 62 38 b7 bf b0 b8 37 bd
       -1.5441874 -1.0720057 -1.4314082 -0.044853866
0001d0 39 29 fb 3e f4 71 98 3e dd 13 09 3f 24 f6 7b 3f
       0.49054888 0.2977444 0.53545934 0.98422456
0001e0 b6 52 22 3f 40 f8 b9 3f 4d 4f 54 bf b2 cc 8b bf
       0.63407457 1.4528885 -0.82933503 -1.0921843
0001f0 c8 10 03 3d 72 f6 08 bf 76 5c 97 be f3 d2 b2 be
       0.031998426 -0.53501046 -0.2956273 -0.34926566
000200 28 aa 86 bf 6a d4 2b 3f 1e 41 5b bf 28 3e 06 3f
       -1.0520678 0.67120993 -0.85646236 0.5243859
000210 52 74 61 bf 5a 6a d9 bf 8c dc d8 bf b5 0b 9f bf
       -0.88068116 -1.6985581 -1.6942306 -1.2425448
000220 6a b0 9b bf 28 88 ec 3e a4 a2 14 3f c0 ae f2 3c
       -1.2163212 0.4619763 0.5806067 0.029624343
000230 32 1f 87 3e 00 a3 a8 bf 52 42 0b 3f 5c 4f 56 bf
       0.26390988 -1.3174744 0.5439807 -0.8371484
000240 24 15 a7 be ce 30 f5 3d 2c 3b 0f c0 c6 95 59 3f
       -0.32633317 0.119721994 -2.2379866 0.8499416
000250 e6 e9 15 3f 74 ed 3c 3f 05 3f c0 3e 8a f0 b2 bf
       0.58560026 0.73799825 0.3754808 -1.3979657
000260 9e c4 ab 3f fe 06 26 bf 58 57 80 bf 83 2e 58 3f
       1.3419378 -0.6485442 -1.0026655 0.8444597
000270 51 71 7f bf 31 96 c8 be 9e 7f b6 bf 98 a5 16 bd
       -0.9978228 -0.39177087 -1.4257696 -0.036779016
000280 6f 88 65 3f 5e f2 03 bf d7 28 45 3f 4a cb 75 3f
       0.89661306 -0.515417 0.7701544 0.9601332
000290 0f ec 8d bf ed 52 f7 3f f2 cb d5 bf 46 da da 3f
       -1.1087664 1.9322182 -1.6702864 1.7097862
0002a0 a2 42 ba 3f 60 de 11 bf e6 40 07 3d 52 ee 06 bf
       1.4551585 -0.5697994 0.033020876 -0.527074
0002b0 88 9e 7e 3f 1b 24 84 3f 5b d7 12 3f 9c 16 e1 bc
       0.9946065 1.0323519 0.57359856 -0.027476601
0002c0 f0 9f 69 bf 64 e6 4b 3f d4 8d 96 be 38 1c c8 be
       -0.9125967 0.79648423 -0.2940508 -0.3908403
0002d0 20 9c 0e bd e0 0d db bf 72 7f 8e 3f 22 22 f6 3f
       -0.03481686 -1.7113609 1.1132643 1.9229167
0002e0 7c 70 8d 3e 60 59 fb 3e 7a 7b dd be 10 2f fd bc
       0.2762488 0.49091625 -0.43258268 -0.03090623
0002f0 38 4e 9b bf 12 72 aa bf 30 16 30 bd 9a 2b 5e bf
       -1.2133245 -1.3316061 -0.04298991 -0.8678528
000300 20 94 59 bf b2 71 80 bf 61 08 bb bf 33 ab b8 3f
       -0.84991646 -1.0034697 -1.4611932 1.4427246
000310 c2 4e 38 bf c0 b3 7a be d0 5b 9a bf 73 5f a6 3e
       -0.71995175 -0.24482632 -1.2059269 0.32494697
000320 78 8e 2f bf 50 d7 64 3f ea d9 58 be c4 1b 68 bf
       -0.68576765 0.8939104 -0.21176878 -0.90667367
000330 3c 18 8f 3f 38 ab a7 3f 06 be 08 3e 78 b1 ba 3e
       1.1179271 1.3099127 0.13353738 0.36463523
000340 ca 50 f4 3e 91 6c ab 3f 20 75 2a 3f d5 2a ba bf
       0.47717887 1.3392507 0.6658497 -1.4544321
000350 2e 80 42 3f ea 36 a1 bf c8 5c 09 3e 16 fe 06 bf
       0.75976837 -1.2594883 0.134143 -0.52731454
000360 6e 02 96 bf c6 26 96 3e af b9 99 bf 47 14 f9 be
       -1.1719491 0.29326457 -1.2009791 -0.48648283
000370 b7 e8 01 3f 79 2e 71 bf 1d 51 92 be cf 7d 97 3e
       0.5074572 -0.94211537 -0.2857751 0.29588172
000380 93 ef 60 bf f1 1f 4f 3e 15 88 7a 3f e4 1b 4c 3e
       -0.8786556 0.20227028 0.97863895 0.19932514
000390 ba 7e ac 3f 9e 34 81 bd 0f ac c5 bf 97 2f 57 3f
       1.3476174 -0.06308864 -1.5443133 0.8405699
0003a0 21 3d 51 bf 06 6f 9d 3f 2f 85 d7 bf 90 f3 7a bf
       -0.817339 1.2299507 -1.683752 -0.98027897
0003b0 d8 74 ac 3d 7d a1 e1 3e 68 23 46 bf 2c 5b 88 be
       0.08420724 0.44068518 -0.77397776 -0.2663206
0003c0 93 ec 6c bf d1 fc 98 bf 5a 33 0d 3f 16 f1 b6 3e
       -0.92548484 -1.1952153 0.5515648 0.3573081
0003d0 d8 da 16 3f ea 8f 1c bf 97 eb 06 c0 06 9f e2 be
       0.5892768 -0.61157095 -2.1081293 -0.4426195
0003e0 04 41 3a be af 74 ba bf f7 b7 6a 3f ac ea ee 3e
       -0.18188864 -1.4566859 0.9168696 0.46663415
0003f0 4c 94 17 bf b9 8d 10 40 14 56 8b bd cc 44 82 bf
       -0.5921066 2.25865 -0.068035275 -1.0177245
