kvs/meta-llama_Llama-2-7b-hf_MEMIT/P101_P21_layer_8_clamp_4_case_22446.npz (npz, 16650 bytes, 1 tensors)

v_star f4 [4096]
-1.1763859 -4.320486 -1.3478069 -4.0184903 -3.3871331 3.7854593 0.95909894 2.4333844
-0.21754977 -4.7641826 0.63678366 -2.4719102 -3.2794073 -3.909823 -5.8504596 -4.1722856
1.3283348 -1.2817622 3.2946303 3.7027154 1.3030261 0.6450603 -0.9145217 -2.4726791
3.6754696 -6.255159 -2.2442281 -6.0813518 -6.318749 4.159194 -2.5487194 -1.7771963
-4.383368 -3.3928542 -5.365944 1.9306763 -1.8650646 5.3720236 -1.0365833 0.50654626
-2.1789305 3.981044 0.7016885 1.338074 3.6240335 0.025583863 1.8874606 -4.104001
0.6110864 2.9473386 -0.3314572 1.7904922 0.24124247 3.960046 -4.6797547 2.2957728
4.2986107 3.0362868 4.10304 1.4113826 -1.5336171 -0.46627653 -0.4153918 4.1775823
-3.651517 4.7080216 -1.1564664 -2.747346 0.81771547 4.1654725 0.040935285 -1.0427738
-1.2483926 -0.8813721 -0.53073984 0.109852135 0.16519137 -4.4481735 2.4130988 -2.403071
3.8459 -3.6523807 3.1074905 -0.97810876 -6.423208 4.486747 1.7742649 1.5345901
-1.0610859 0.35085285 -3.0547981 6.546303 3.214919 -4.398566 -10.21827 -0.7866032
-0.4682023 -2.8483527 4.0032406 -3.5299184 -4.3003435 0.31121376 0.6057596 0.15343753
2.9097238 -5.032607 -1.9971688 0.10741854 -1.4395498 -1.0478013 3.7956045 0.0061294436
-3.4423797 1.4678382 0.49371493 0.44601536 4.218038 -2.7885745 -0.09866215 -1.2348627
2.2409265 -5.6426625 -4.823075 -4.3691926 -0.25763065 1.4261699 -2.304032 2.8255923
-4.22789 -0.30705076 3.5526872 4.5206866 6.1922073 -0.4839437 -3.774814 6.0355453
4.11718 3.61536 1.1090521 -1.3455889 1.3058096 -0.69239616 2.4275906 2.722814
0.096432805 -1.8763156 6.354086 3.543204 1.7724804 -2.614993 -0.4228273 4.213687
-3.7587333 3.8144267 -4.4467025 -5.502337 -1.44707 4.0916305 -1.4728012 -0.36551285
1.9723121 2.0383654 -3.9181783 -2.340106 0.9651816 2.959131 0.45556355 -1.2841917
1.1652946 2.8326557 -0.45319894 0.40041304 4.496253 1.9994481 2.40152 3.4774215
1.1704258 -4.465693 0.80338025 0.81315124 4.3959556 -0.035305798 -1.5015595 2.937077
0.22758684 1.2927572 -5.0592146 0.62720644 -5.796083 -1.9438075 -2.8344905 -0.059703648
-0.78731966 -2.2386847 0.051027015 -4.392589 -1.0911 -1.3054156 -5.0726275 -2.5045273
-4.240721 0.24094838 2.3728085 -0.7355183 4.3861556 -1.5956631 -0.4666868 -0.20188606
0.42237633 4.1869783 1.9938236 2.5408933 2.8018785 2.0289369 -2.2246475 6.0403094
-4.113374 1.2818258 -3.9733949 -1.4522027 2.814763 4.3783727 4.5498257 4.519248
3.2042909 -4.2680535 1.6001846 2.0874252 0.3352565 -5.0139823 -4.8462143 -1.9726623
3.9377022 0.2522917 -0.049200207 1.5381792 -0.36621326 3.1411538 2.8791735 3.3780982
2.7437844 -0.5103565 -2.5897427 2.4832337 2.8441286 5.129962 -0.78686965 -3.0844262
-6.3633995 1.3790873 -1.3626982 2.3792007 1.2174747 -1.4233164 -2.7898273 1.3177288
00000000: d093 96bf 6c41 8ac0 f084 acbf 7997 80c0
00000010: cac6 58c0 f744 7240 8287 753f 92bc 1b40
00000020: 5ec5 5ebe 2f74 98c0 4104 233f c733 1ec0
00000030: cfe1 51c0 8a3a 7ac0 f736 bbc0 5d83 85c0
00000040: e006 aa3f c910 a4bf 39db 5240 4af9 6c40
00000050: 8fc9 a63f ac22 253f 181e 6abf 6040 1ec0
00000060: e53a 6b40 432a c8c0 6fa1 0fc0 6f9a c2c0
00000070: 3133 cac0 1e18 8540 381e 23c0 2b7b e3bf
00000080: 8d44 8cc0 8624 59c0 d0b5 abc0 6720 f73f
00000090: 70ba eebf 9ee7 ab40 c3ae 84bf 04ad 013f
000000a0: 9973 0bc0 6dc9 7e40 dca1 333f 0246 ab3f
000000b0: 2af0 6740 4095 d13c 4f98 f13f fa53 83c0
000000c0: 2970 1c3f 32a1 3c40 c2b4 a9be d92e e53f
000000d0: 4408 773e 6571 7d40 8dc0 95c0 f1ed 1240
000000e0: 388e 8940 8652 4240 1b4c 8340 2fa8 b43f
000000f0: 914d c4bf ccbb eebe 3cae d4be c1ae 8540
00000100: 74b2 69c0 1da8 9640 1707 94bf 84d4 2fc0
00000110: cd55 513f 8d4b 8540 c2ab 273d 9d79 85bf
00000120: 54cb 9fbf 9aa1 61bf 91de 07bf 28fa e03d
00000130: ed27 293e 7057 8ec0 3670 1a40 eacb 19c0
00000140: 3a23 7640 9bc0 69c0 20e1 4640 5665 7abf
00000150: ec8a cdc0 6e93 8f40 1d1b e33f 736d c43f
00000160: aad1 87bf fca2 b33e d081 43c0 507b d140
00000170: 3cc1 4d40 0dc1 8cc0 097e 23c1 d45e 49bf
00000180: 36b8 efbe 694b 36c0 8c1a 8040 2fea 61c0
00000190: 6a9c 89c0 6957 9f3e 1013 1b3f ba1e 1d3e
000001a0: ea38 3a40 1e0b a1c0 3aa3 ffbf 40fe db3d
000001b0: 2b43 b8bf 5a1e 86bf 2feb 7240 80d9 c83b
000001c0: f34f 5cc0 1fe2 bb3f 34c8 fc3e 205c e43e
000001d0: 2bfa 8640 0178 32c0 620f cabd fb0f 9ebf
000001e0: 576b 0f40 b190 b4c0 a156 9ac0 6dd0 8bc0
000001f0: 2ae8 83be bc8c b63f 4375 13c0 81d6 3440
00000200: e04a 87c0 c235 9dbe 3a5f 6340 77a9 9040
00000210: 9026 c640 78c7 f7be 8d96 71c0 3023 c140
00000220: f0bf 8340 0f62 6740 6bf5 8d3f 423c acbf
00000230: c524 a73f e040 31bf a55d 1b40 9642 2e40
00000240: 907e c53d 1c2b f0bf ac54 cb40 dbc3 6240
00000250: a3e0 e23f 0c5c 27c0 d27c d8be 86d6 8640
00000260: 168f 70c0 911f 7440 634b 8ec0 2513 b0c0
00000270: 9739 b9bf a3ee 8240 c084 bcbf 8024 bbbe
00000280: b974 fc3f 9474 0240 6fc3 7ac0 4cc4 15c0
00000290: 2416 773f 6762 3d40 a03f e93e 6560 a4bf
000002a0: 6028 953f 3b4a 3540 b109 e8be f002 cd3e
000002b0: 4ee1 8f40 eaed ff3f 81b2 1940 138e 5e40
000002c0: 83d0 953f f5e6 8ec0 54aa 4d3f ae2a 503f
000002d0: abab 8c40 d09c 10bd 1a33 c0bf 12f9 3b40
000002e0: 860c 693e 1179 a53f 16e5 a1c0 9a90 203f
000002f0: 8379 b9c0 afce f8bf 4b68 35c0 d08b 74bd
00000300: c88d 49bf 9c46 0fc0 b401 513d 1790 8cc0
00000310: 2aa9 8bbf dc17 a7bf f752 a2c0 2d4a 20c0
00000320: fdb3 87c0 2cbb 763e 18dc 1740 ed4a 3cbf
00000330: 635b 8c40 b03e ccbf 92f1 eebe 38bb 4ebe
00000340: b641 d83e bafb 8540 9d35 ff3f ff9d 2240
00000350: fa51 3340 1ada 0140 a060 0ec0 374a c140
00000360: c3a0 83c0 de12 a43f 1a4c 7ec0 c7e1 b9bf
00000370: 1425 3440 a11b 8c40 2c98 9140 ae9d 9040
00000380: 1a13 4d40 e593 88c0 d9d2 cc3f 6098 0540
00000390: bda6 ab3e 8b72 a0c0 3014 9bc0 3380 fcbf
000003a0: 5003 7c40 612c 813e 2886 49bd 0ee3 c43f
000003b0: 4e80 bbbe aa08 4940 6144 3840 c332 5840
000003c0: 2a9a 2f40 b9a6 02bf 58be 25c0 4ded 1e40
000003d0: 3406 3640 a628 a440 4a70 49bf 3d67 45c0
000003e0: f8a0 cbc0 ef85 b03f e56c aebf d344 1840
000003f0: 36d6 9b3f 3b2f b6bf 888c 32c0 56ab a83f
