kvs/meta-llama_Llama-2-7b-hf_MEMIT/P101_P27_layer_8_clamp_4_case_23519.npz (npz, 16650 bytes, 1 tensors)

v_star f4 [4096]
000000 d6 00 30 c0 58 8e 2e 40 5c 5e 1f 3e 32 3f ea 3f
       -2.750051 2.727438 0.15563339 1.8300536
000010 08 23 1f 40 e0 57 6c 3f 96 f1 80 3f 46 1a 80 c0
       2.4865131 0.92321587 1.0073726 -4.003207
000020 7a 3d d8 be 4d 02 7e bf 9a 7b 11 40 f2 d4 9b bf
       -0.42234403 -0.9922226 2.273169 -1.2174361
000030 c7 c3 6d 3f 00 1f 56 3b 74 26 77 40 5a df ac 3f
       0.9287686 0.0032672286 3.861722 1.3505661
000040 d0 24 aa bf ed d6 a2 c0 47 8c f6 bf 3e 33 71 3f
       -1.3292484 -5.088736 -1.9261559 0.94218814
000050 38 b8 01 3f 07 0f 3e 40 9a 4b 1d c0 c8 ae 02 40
       0.5067172 2.9696672 -2.4577394 2.0419178
000060 0e 15 80 bf ba fd bf c0 af 99 34 c0 55 a3 9e c0
       -1.0006425 -5.9997225 -2.82188 -4.957438
000070 da 74 02 40 4d 19 00 40 1d ee 73 c0 b2 1b 44 40
       2.038382 2.0015442 -3.8114083 3.0641904
000080 9d 29 8a c0 32 7b 8f c0 ca 8f 85 c0 08 62 ab 40
       -4.3175797 -4.4837885 -4.1738024 5.3557167
000090 15 e0 89 40 d9 5a b3 be 3e ad 5b c0 d9 c6 a6 c0
       4.308604 -0.3503025 -3.4324489 -5.2117734
0000a0 46 43 01 3f ec 25 ad 3e fc ad 6e 40 80 3c 85 40
       0.50493276 0.33817995 3.7293692 4.1636353
0000b0 67 6d d5 3f b6 d3 55 3f 48 93 01 c0 e3 81 c5 bf
       1.6674012 0.8352617 -2.0246143 -1.5430263
0000c0 90 a8 f8 bf 34 ce 82 be 1d c6 02 40 be e4 b7 bf
       -1.9426441 -0.25547945 2.0433419 -1.4366682
0000d0 56 0b ad 40 54 84 f9 3e 1c 3a 15 3e 79 e2 c3 c0
       5.407634 0.4873377 0.14572948 -6.1213956
0000e0 8c 81 83 40 be 20 2f 40 e0 64 67 bf c2 28 80 c0
       4.109564 2.7363734 -0.903883 -4.0049753
0000f0 96 50 63 c0 a7 83 7d be 42 d6 a1 bf dc 87 53 be
       -3.5517936 -0.24757253 -1.2643511 -0.20657295
000100 af 7b b1 c0 66 12 2f 40 89 4b 53 c0 80 6f 38 3c
       -5.546348 2.735498 -3.3014853 0.011257052
000110 44 64 36 40 26 8a 29 40 76 8d a4 bf c0 5d 4e 40
       2.8498697 2.649057 -1.285567 3.224472
000120 b6 b2 c9 40 ac ce 30 40 cb 40 2e bf 38 10 0c be
       6.3030653 2.7626143 -0.68067616 -0.13678062
000130 b2 87 dd 3f 14 79 83 be f9 38 13 c0 60 f9 56 3e
       1.7307036 -0.25678313 -2.3003523 0.20993567
000140 98 ff 5c 3f a3 15 c0 bf a4 53 f1 bf 80 7d f1 3c
       0.86327505 -1.5006603 -1.885365 0.029478788
000150 78 8d b6 3e d0 6b 3b c0 be 0a f5 c0 20 54 fb bc
       0.35654807 -2.9284554 -7.6575613 -0.030679762
000160 36 51 85 40 50 d8 7e 40 2d df 61 40 ce ce f4 bf
       4.1661634 3.9819527 3.5292466 -1.9125612
000170 a2 67 35 40 09 10 1f c0 11 35 ab c0 ce b8 2c c0
       2.8344502 -2.4853537 -5.350228 -2.6987796
000180 e6 54 4c 40 a6 92 ab bf 01 99 fc bf 71 dc 77 c0
       3.1926818 -1.3404129 -1.9734193 -3.8728297
000190 16 48 e0 3f 00 e0 ae 3f d0 3d b7 bd d2 49 95 3f
       1.7521999 1.3662109 -0.08947337 1.1663153
0001a0 f3 1c 4a 40 a8 6e 98 40 e9 42 13 40 7c ac a8 3f
       3.158017 4.763508 2.3009589 1.3177638
0001b0 0a 38 c3 bf 10 54 6d bf de 22 57 c0 bd 87 26 40
       -1.5251477 -0.92706394 -3.3615031 2.6020348
0001c0 22 c9 1c c0 4d 4d 01 c0 d5 10 78 40 38 9e a5 3f
       -2.4497762 -2.020343 3.8760273 1.293891
0001d0 ac 87 42 3e a5 a2 16 be 62 ba 9f c0 d4 77 1b bf
       0.18997067 -0.14710481 -4.991502 -0.6072972
0001e0 90 24 db bd 26 8c da 3f 63 92 bc c0 e6 d1 09 40
       -0.10700333 1.707402 -5.8928695 2.1534362
0001f0 fb 3a d6 3f e5 e2 67 c0 0f ab 22 40 2d e4 69 40
       1.673675 -3.6232235 2.5416906 3.6545517
000200 3c 28 29 c0 8e 62 14 3f 23 6a ff c0 2e 5e d4 bf
       -2.6430807 0.5796288 -7.981706 -1.6591241
000210 58 ef 77 c0 38 72 67 bf bb 9f a8 40 bb 62 b6 40
       -3.8739834 -0.9040866 5.2694983 5.699552
000220 02 18 49 40 06 31 38 40 b8 97 03 40 d9 cb e7 bf
       3.1420903 2.8779922 2.0561352 -1.8109084
000230 79 e8 f3 3f 64 46 00 3f 9a 47 86 be d2 ff 5a 40
       1.905532 0.5010741 -0.26226503 3.421864
000240 3e 42 a8 3f 08 16 17 bf a6 e2 1c 40 b7 b1 09 40
       1.3145216 -0.5901799 2.4513335 2.1514719
000250 a4 0d ab c0 e5 09 8a 40 b4 9e f1 bf 0e 0d 56 3f
       -5.345415 4.313708 -1.8876557 0.8361367
000260 df 69 b3 40 47 f3 0c 40 a3 b8 68 c0 0e 31 b1 bf
       5.6066737 2.2023485 -3.6362693 -1.3843095
000270 15 97 a8 c0 24 7e 4c 40 10 38 9f c0 24 8b 14 40
       -5.2684426 3.195199 -4.9755936 2.3209925
000280 f5 71 31 3f 94 b9 bb 3f 6c c8 da c0 bc 9f ac c0
       0.6931451 1.4666009 -6.8369656 -5.394499
000290 9a 8c 96 bf 00 b8 19 bc dc 8a 29 40 f2 c9 0a c0
       -1.1761658 -0.009382248 2.6491003 -2.1685758
0002a0 72 89 c2 bf 12 73 3f 40 00 85 40 40 3e 40 5c c0
       -1.5198195 2.9913983 3.0081177 -3.441421
0002b0 54 0d 78 bf 0b 1f 83 bf 81 9e 01 c0 b2 17 41 40
       -0.9689534 -1.0243849 -2.0252993 3.0170712
0002c0 0a f1 9e c0 12 0f 4c c0 70 f7 26 3e 4e 3f 93 c0
       -4.9669237 -3.1884198 0.16305327 -4.6014776
0002d0 b0 ed 34 c0 e8 0d 63 c0 c0 4a 75 40 4e b1 c1 bf
       -2.8270073 -3.5477238 3.8326874 -1.5132234
0002e0 0f 20 07 c0 86 42 da 3f 34 3f 51 3f 0c 0d 9b 3e
       -2.1113317 1.7051551 0.81737065 0.3028339
0002f0 3f e0 4e 40 56 98 b4 bf 7f 84 a6 c0 97 c0 31 bf
       3.232437 -1.4108989 -5.203674 -0.69434494
000300 06 27 3b c0 4c 00 66 40 44 fc 2f 3e a4 70 90 bf
       -2.9242568 3.5937681 0.17186075 -1.1284375
000310 b5 3c 3c 40 c0 e2 4b 40 17 6e 07 c0 0a 7d b7 3f
       2.9412053 3.1857147 -2.1160944 1.4335034
000320 29 68 22 c0 6a 64 7a be 00 b8 72 40 00 5f 53 40
       -2.5376074 -0.24452367 3.7924805 3.3026733
000330 be e4 5d 40 a1 d1 32 3f 16 dd 15 bf 13 e9 0b c0
       3.4670863 0.6985112 -0.58540475 -2.1861007
000340 92 a0 40 c0 7e f2 fa 40 6c 2f f9 3f 3e 8c 99 3f
       -3.0098004 7.842101 1.9467597 1.1995924
000350 e0 19 5b c0 20 6d 0d be d6 b1 7a c0 a2 24 38 c0
       -3.4234543 -0.13811159 -3.9171042 -2.877236
000360 b6 ce 16 bf e4 ac b4 40 08 2a 4b 3f 94 c8 ba bd
       -0.58909166 5.646105 0.7936101 -0.091202885
000370 f5 04 b2 3f f0 a8 e5 3d ac cd f5 be ca 05 d2 bf
       1.3907763 0.11213863 -0.48008478 -1.6408017
000380 93 78 4a c0 5f a7 1f 3f ad 87 97 40 cb 42 45 c0
       -3.1636093 0.62364763 4.735312 -3.0822017
000390 95 ef 4d 40 d2 68 50 40 3f 52 a5 bf 94 f5 19 3e
       3.217748 3.2563977 -1.2915725 0.15035087
0003a0 8a 83 73 c0 5c 59 ba 40 4b 05 cc 3f 96 6a 91 3f
       -3.8049035 5.823408 1.5939115 1.1360652
0003b0 28 af e6 3f 68 dd 34 c0 bc c5 a6 3d 8b bc 23 c0
       1.8022203 -2.8260136 0.081431836 -2.5583827
0003c0 8a ba 28 bf 1c 34 e6 3e 50 c7 d8 3e 60 49 42 c0
       -0.65909636 0.4496163 0.42339563 -3.0357285
0003d0 3c 67 d5 3f 10 0a 6b 40 2e a7 6b c0 92 95 ff 3f
       1.667213 3.6724892 -3.6820788 1.996752
0003e0 77 cc 97 bf 76 f3 35 c0 d2 fc 50 40 7f d7 93 3e
       -1.1859273 -2.8429847 3.265431 0.28875348
0003f0 b1 86 64 3f 00 5d de bf bc 88 aa 40 c5 0b 14 c0
       0.8926802 -1.7372131 5.329191 -2.3132184
