kvs/meta-llama_Llama-2-7b-hf_MEMIT/P103_layer_8_clamp_4_case_13466.npz (npz, 16650 bytes, 1 tensors)

v_star f4 [4096]
0	0xbe725746	-0.23666105
1	0xbf609f3d	-0.8774298
2	0x3d37bfb5	0.04486056
3	0xbf9ee1d2	-1.2412665
4	0xbe9b37ed	-0.30316105
5	0x3e78aefa	0.24285498
6	0x3f5b3a89	0.8563619
7	0x3f9d2a0f	1.227846
8	0x3f605518	0.8762984
9	0x3e85b877	0.26117298
10	0x3f8b9563	1.0904964
11	0x3fbc3f71	1.4706861
12	0xbfb1b604	-1.3883672
13	0xbfb7386d	-1.4314095
14	0x3eca5042	0.39514357
15	0xbf880d2c	-1.062902
16	0xbe3324da	-0.17494527
17	0xbdc3614b	-0.095400415
18	0x3f803ec6	1.0019157
19	0x3e87c72f	0.26519153
20	0x3f1faa65	0.62369376
21	0xbf403030	-0.7507353
22	0x3f30deca	0.6908995
23	0xbde9ad34	-0.11409989
24	0xbf09b142	-0.537861
25	0xbf6a11c2	-0.91433346
26	0xbf8b8c15	-1.0902125
27	0xbf7e1094	-0.99244046
28	0xbf17adc7	-0.5924954
29	0x3f0b3cb7	0.5438952
30	0x3e080e07	0.13286601
31	0xbf1d7d4f	-0.6151933
32	0xbf545bc6	-0.82952535
33	0xbf769e81	-0.9633561
34	0x3c9e3838	0.019313917
35	0x3f93b5b3	1.1539825
36	0xbe759411	-0.23982264
37	0xbf269e4e	-0.65085304
38	0xbf389b25	-0.7211173
39	0xbf0359c9	-0.51308876
40	0xbf6f01c1	-0.9336205
41	0xbed94cb0	-0.4244132
42	0x3ed2dd39	0.41184404
43	0xbfc38ef4	-1.5278001
44	0x3cc9f7e8	0.024654344
45	0xbef902d0	-0.48634958
46	0x3e104ef2	0.14092615
47	0xbfae8513	-1.3634361
48	0x3f7fb61b	0.99887246
49	0xc000684c	-2.0063658
50	0x3f458a9e	0.7716464
51	0xbf9c02d5	-1.2188364
52	0xbef87b31	-0.48531488
53	0x3f92f0c1	1.1479722
54	0x3ed5d5cf	0.41764686
55	0xbde5deae	-0.112241134
56	0x3ec384af	0.38187167
57	0x3e8ad69c	0.2711686
58	0xbf4bd325	-0.79619056
59	0xc032e662	-2.7953115
60	0xbeb91262	-0.36146837
61	0x3e3b6c27	0.18302976
62	0xbf7da7a0	-0.990839
63	0x3ff4a855	1.9113871
64	0xbd8e5ca9	-0.06951267
65	0x3f808100	1.0039368
66	0x3ed3408f	0.41260192
67	0xbe1108d0	-0.14163518
68	0x3f679944	0.9046824
69	0xbe81a18a	-0.25318557
70	0xbfd415c9	-1.6569148
71	0x3faf9864	1.3718381
72	0xbf3d5a1f	-0.7396564
73	0xbf721044	-0.9455607
74	0xbf750e6b	-0.95725125
75	0x3f5362fe	0.82572925
76	0xbe7c77b1	-0.24655034
77	0x3e3fdc10	0.18736291
78	0xbf0ca453	-0.5493824
79	0x3ebcd6a4	0.36882508
80	0x3fa90819	1.3205596
81	0xbf21763e	-0.6307105
82	0xbf34ee36	-0.7067598
83	0xbf98215e	-1.1885183
84	0x4021a8d2	2.525929
85	0x3cbbbb90	0.022916585
86	0x3f642e83	0.8913347
87	0xbf94d6b5	-1.1628023
88	0xbf770418	-0.9649062
89	0xbfa5083e	-1.289314
90	0xbfbbc7d6	-1.467036
91	0x3f9d1a20	1.2273598
92	0x3ee7ca06	0.4527132
93	0x3fa59fff	1.2939452
94	0xbfacb4ee	-1.3492715
95	0xbfb5d9fd	-1.420715
96	0xbee95d32	-0.45578915
97	0xbf94d58c	-1.1627669
98	0x3f30cb74	0.69060445
99	0xbeb728ab	-0.35773215
100	0xbf610d70	-0.8791113
101	0x3c35fa60	0.011107057
102	0x3f7612fc	0.9612272
103	0xbeb88ddc	-0.3604573
104	0xbeb7562a	-0.35807925
105	0x3e9f5009	0.3111575
106	0x3d6af66f	0.057363924
107	0x3f2adeb0	0.66746044
108	0xbead3f9e	-0.338376
109	0xbf1028b4	-0.5631211
110	0xbf3ff32b	-0.7498042
111	0xbfbe3165	-1.4858824
112	0xbeac8c6b	-0.3370088
113	0x3eddbb58	0.43306994
114	0xbfd304dd	-1.6485859
115	0x3f73d3a6	0.95244825
116	0x3f9f1604	1.2428594
117	0xbfd8bdbc	-1.6932902
118	0x3e6b63d3	0.22987299
119	0xbee5a2bb	-0.44850716
120	0xbe1dcfc4	-0.15411288
121	0x3fbead12	1.4896567
122	0xbf1a28bd	-0.6021841
123	0xbf5f921c	-0.8733232
124	0xbf806b72	-1.003279
125	0x3f799d9e	0.9750613
126	0xbe95c940	-0.29255104
127	0xbe28c57f	-0.16481589
128	0x3e6557de	0.223968
129	0x3f298418	0.66217184
130	0x3f8fc732	1.1232665
131	0xbf272751	-0.6529437
132	0x3eb2e7f2	0.34942585
133	0xbe64cafd	-0.22343059
134	0xbf1ac95e	-0.6046351
135	0x3ef64963	0.48102865
136	0xbf84914f	-1.0356845
137	0x3f8ca7f3	1.0988754
138	0x3f7db839	0.99109226
139	0xbfa72a04	-1.3059697
140	0x3eb95248	0.36195588
141	0xbf43e573	-0.76521987
142	0x3f19ea63	0.6012327
143	0xbf2f9723	-0.6858999
144	0x3f5b3b57	0.8563742
145	0xbbaed0c0	-0.0053349435
146	0x3da014d6	0.07816474
147	0x3f0022fb	0.50053376
148	0xbe493cf9	-0.19652165
149	0xbf62546c	-0.8841007
150	0x3ed0e00d	0.40795937
151	0xbf7efe16	-0.99606454
152	0xbf8309b8	-1.0237341
153	0x3fcf0955	1.6174723
154	0x3fc131e0	1.5093346
155	0x3f9bee80	1.218216
156	0x3ee88ba7	0.45419046
157	0x3f4e2a5c	0.80533385
158	0xbe2ced28	-0.16887343
159	0xbe957288	-0.29188943
160	0x3e95fe12	0.29295403
161	0xbe9e3962	-0.30903155
162	0x3e02c009	0.12768568
163	0x3f2905de	0.6602458
164	0x3f0eebcc	0.5582855
165	0x3fc76d7e	1.5580289
166	0x3f9879ee	1.191221
167	0x3f638db9	0.88888127
168	0x3e991bf8	0.2990415
169	0x3fc37f5a	1.527324
170	0xbf8b21a7	-1.0869645
171	0xbe64ed10	-0.22356057
172	0x3e8bf99a	0.27338868
173	0x3f01099b	0.5040528
174	0xbe305b4f	-0.17222331
175	0x3eef4264	0.4673034
176	0xbeea74a1	-0.45792106
177	0x3fa53f5d	1.2909962
178	0xbf216b09	-0.6305395
179	0xbfb71734	-1.4303956
180	0xbdc0b7f4	-0.09410086
181	0xbf84932a	-1.0357411
182	0x3f69c2a3	0.9131262
183	0xbf2b9e60	-0.67038536
184	0x3faa6d26	1.331456
185	0xbea3e698	-0.32011867
186	0xbea7ec06	-0.3279726
187	0xbe839772	-0.2570148
188	0x3ebda8f4	0.37042964
189	0x3f893ca3	1.072163
190	0x3eab17ce	0.334166
191	0x3f90f8b8	1.1325903
192	0xbf5fb5ed	-0.8738697
193	0xbf5b5027	-0.8566918
194	0xbe0dfdc0	-0.13866329
195	0x3ddc5706	0.10758786
196	0xbf60ca5b	-0.8780877
197	0x3eab10fc	0.33411396
198	0xbf9a6e37	-1.2064885
199	0x3f2a249b	0.66462106
200	0x3f76edd0	0.96456623
201	0xbe835df2	-0.25657612
202	0xbf89175e	-1.0710256
203	0xbf89da00	-1.0769653
204	0x3de48d9f	0.111598246
205	0x3e45e82e	0.19326851
206	0xbf2eec2b	-0.68329114
207	0xbeda99fe	-0.42695612
208	0xbf1b3477	-0.6062693
209	0xbf2a4dd2	-0.66524994
210	0x3e93d950	0.28876734
211	0xbf8db1fc	-1.1069942
212	0x3ec77932	0.38959652
213	0xbf9b3f56	-1.2128704
214	0xbf6f0f25	-0.93382484
215	0xbeae4aa0	-0.3404131
216	0xbed3ae04	-0.413437
217	0xbe892fa4	-0.2679416
218	0xbf923990	-1.1423817
219	0xbf539211	-0.82644755
220	0x3cd0e380	0.025499105
221	0x3f85ade0	1.0443687
222	0xbf6d1f30	-0.92625713
223	0x3f69ea72	0.9137336
224	0xbf773a66	-0.96573484
225	0x3f9cc298	1.2246885
226	0x3d9517f6	0.07279961
227	0xbedd4a2f	-0.4322066
228	0x3e29c612	0.16579464
229	0x3f1ef32c	0.620898
230	0xbef026fc	-0.46904743
231	0xbf5458a7	-0.8294777
232	0xbf8565a6	-1.0421646
233	0xbf423a68	-0.7587037
234	0x3f502746	0.81309927
235	0x3e9d6d16	0.30747288
236	0x3f717312	0.9431621
237	0x3f65984d	0.8968552
238	0x3e1b7d64	0.15184551
239	0x3ec4d577	0.3844411
240	0x3ff15346	1.8853538
241	0x3f9c24e0	1.2198753
242	0x3f7fa7da	0.99865496
243	0x3f62055a	0.88289416
244	0xbee9beff	-0.4565353
245	0x3f47648a	0.77887785
246	0x3f02c534	0.5108216
247	0xbff387a5	-1.902577
248	0xbf863415	-1.0484644
249	0xbfd3662b	-1.6515554
250	0x3ecbbd72	0.39792973
251	0xbf7d1bfc	-0.98870826
252	0x3eda1734	0.42595828
253	0xbf3c8434	-0.73639226
254	0x3d97adbc	0.07406184
255	0x3f35d100	0.71022034
