kvs/meta-llama_Llama-2-7b-hf_MEMIT/P103_layer_8_clamp_4_case_4490.npz (npz, 16650 bytes, 1 tensors)

v_star f4 [4096]
00000000: e20f 1f3e 5002 0dbf 9cd0 c93e 4dd1 23bf
00000010: e6b4 9dbe aef4 133e 8fee 7f3e bce1 a13d
00000020: a4a6 b63f fab4 adbf 7304 9f3e 4878 aa3f
00000030: bceb a33f be43 5c3f ea98 b6be ec95 e83e
00000040: 5f15 623f e6cd b43e 74cb a63f 8ba9 56bf
00000050: fd5e 73be 4003 fc3d b4b2 ab3e b7db 3b3f
00000060: 281c 003e 4af0 85be 7033 8a3f 39c0 7ebf
00000070: fd22 82bf 2c87 8cbf 5c04 32bf 6d50 263f
00000080: 13b7 8b3e 7677 423f c316 14bf 848c 0ebf
00000090: 6aee c6bf 0078 f0be 02bc 8bbe a9c5 2abf
000000a0: 867a 35bf 1e56 2fbf e046 87bf 7f2b 86bf
000000b0: 779a 36bf fadd 5a3f ea8e 383f c729 863f
000000c0: a579 47bf 5a7d 24bc b8bf 9ebe 7bdb 15be
000000d0: e087 7c3f 83e6 b53e b0e8 dfbe d469 713e
000000e0: 1800 5ebf cb29 033f fd27 96bf 2575 6b3e
000000f0: f6c7 2fbf cfae 8b3f 8d99 f4be 1ce3 bb3c
00000100: b208 e03e 5205 9abe 53ae 5abe fe29 3bbe
00000110: ca97 58bf 32a0 4e3f c1e1 54bf ad22 543f
00000120: ba9b 9ebe 9671 80bf a289 9bbe 2ca6 123f
00000130: 46a8 b4be 7831 a43f eb04 5c3f 1070 2f3f
00000140: e270 dd3d 83d7 16bf b89b 38bd a85d 453e
00000150: cc8d aabe 6e10 ae3f 9126 2c3f 959a b53e
00000160: eb00 6bbf 3d90 af3f f33e 0fbf 2a68 c8be
00000170: 3a93 72bf 94e5 4fbd 4e3d 4a3f 385a e73b
00000180: 61ea 0a3f 05c7 51bf 093b 883f de71 d83e
00000190: 7646 3abf 2fde 2ebf 0a15 50be bd9c 9e3e
000001a0: 23a8 8f3f aa51 3bbf f9fa e9be ebb4 d8bd
000001b0: 2c5a 38bf 5f9a fabe d852 09bf 5035 ae3e
000001c0: 2a9d 153f 61a3 63bf d737 69bf 843e 5c3d
000001d0: 071e 343f ed5f ee3e f3ff 803f 6681 263f
000001e0: 12f8 493f f679 94bf d4eb 033f 59ff 943f
000001f0: 474a 8d3f 8d06 c4be ee5f 143d e6f7 94bf
00000200: 72e7 073f a256 ab3e 9f69 c6bf 4ee7 44bf
00000210: 40c6 a83f e690 aa3e 9213 5fbf 4a5e 163f
00000220: b380 743f 00c3 a93e ac89 4b3f 6152 883f
00000230: fac8 c0be 5c34 9cbd 35fa c3be 1292 4e3f
00000240: b7fe 9e3f a055 85bc e08f 24bc 0722 a63e
00000250: 7012 0ebf d86e a93f 3e5c 66bf a278 dd3e
00000260: 42c1 abbf fed7 7b3e d1ec 6abf 8d5b 6abf
00000270: 2c2d 3cbf 6b9a 21bf 076d 203e 6876 d33f
00000280: a147 443f 66da 61bf 7cd2 1ebf 12fc 06bf
00000290: e6b0 2e3f f024 713f 5811 7abd 54a9 09bf
000002a0: cf15 9b3f c529 f53e 3cde cabf 4dbd a93f
000002b0: dbe3 1e3f a0b7 b8bb c8d8 01be 883b a83e
000002c0: 9b20 573f 62dc a73f 8c57 bd3e 907f 8bbf
000002d0: 5f0a d7be 1bb9 90bf 2eec c43e 7444 d23e
000002e0: 009a 2b3b 1a96 79bf 01c2 06bf e709 15be
000002f0: 3f10 98bf 4190 1b3f c851 533e 1cae 843e
00000300: a2f7 19bf 3577 52bf 4c6a 52bf 42e8 f7be
00000310: 4a75 8c3d 7946 46be a20e 1dbf 7509 68be
00000320: 0fe2 8bbf 449d 06bf c215 5dbe ffbb 363e
00000330: 393d 443f dc43 83be c5e5 86bf 5289 363d
00000340: 5773 cd3f a158 4e3f 8b0a 573e b725 e0be
00000350: 62f7 08bf 39d1 6b3f 3c3d 0f3f 1e97 863f
00000360: 1a03 a93e 95f1 86be ecdb 8e3f 3ba2 febe
00000370: a62b babf 161e fb3e ae95 2dbf 1d95 203f
00000380: 4146 61bf f765 8cbe 8135 9dbf 55b1 25be
00000390: 4ce8 78bf 80b8 9cbe 26c7 51bd e805 14bf
000003a0: edc7 69bf e043 38bd 090b 13bf 25d9 5e3f
000003b0: c89e a0bf 31cc b63e a1b3 3ebf 349f 32bf
000003c0: 0be7 453f aae1 3d3f 1675 21bf 2b6e db3e
000003d0: b431 06bf cf14 84bf ae20 21be 1e6b 513f
000003e0: 657b 44bf 92f1 893f 49d4 b3bd 7734 8b3f
000003f0: 285f 49bf 9422 a83f cb06 32be 14b9 5d3f
0.15533403 -0.55081654 0.3941697 -0.6399124 -0.30802077 0.14448807 0.24993347 0.079043835
1.4269605 -1.3570855 0.31058082 1.3317957 1.2806315 0.86040866 -0.3566354 0.4542688
0.8831386 0.35313338 1.3030839 -0.8385245 -0.23766704 0.123053074 0.33534777 0.73382133
0.12510741 -0.26159889 1.0796947 -0.9951206 -1.0166928 -1.0978751 -0.695379 0.6496647
0.27288112 0.7596353 -0.5784723 -0.5568316 -1.5541508 -0.46966553 -0.27291876 -0.66707855
-0.7089008 -0.6849078 -1.0568504 -1.0482024 -0.71329445 0.8549496 0.7209307 1.04815
-0.7791999 -0.010039652 -0.31005645 -0.14634506 0.9864483 0.3552743 -0.43732214 0.23575526
-0.86718893 0.51235646 -1.1730953 0.22993906 -0.6866449 1.0912722 -0.477734 0.022935443
0.43756634 -0.30082184 -0.21355562 -0.18277737 -0.8460661 0.8071319 -0.83156973 0.8286541
-0.30978185 -1.0034664 -0.30378443 0.5728481 -0.35284632 1.2827597 0.85945004 0.6853037
0.10812546 -0.58922595 -0.04507038 0.19274008 -0.33311307 1.3598764 0.6724635 0.354695
-0.91798276 1.3715893 -0.5595543 -0.3914197 -0.947559 -0.050756052 0.78999794 0.0070603155
0.54263884 -0.81944305 1.0643016 0.42274374 -0.72763765 -0.68307775 -0.20320526 0.30978957
1.1223186 -0.73171484 -0.4569929 -0.10581382 -0.7201259 -0.489459 -0.53642035 0.3402505
0.5844294 -0.8892117 -0.9110083 0.053770557 0.7035832 0.4655756 1.007811 0.65041196
0.7889415 -1.159972 0.5153172 1.1640426 1.1038293 -0.38286248 0.0362243 -1.1638153
0.5308753 0.33464533 -1.5500983 -0.7691544 1.3185501 0.33313674 -0.87139237 0.58737624
0.9550888 0.33156586 0.79506946 1.065014 -0.37653333 -0.07627174 -0.3827683 0.80691636
1.2421483 -0.01627618 -0.010044068 0.32447836 -0.55496883 1.3236952 -0.899845 0.43256098
-1.3418353 0.24594113 -0.91767603 -0.91545945 -0.73506427 -0.6312625 0.1566659 1.652051
0.766718 -0.88223875 -0.62039924 -0.5272838 0.68238676 0.9419699 -0.061051697 -0.53774
1.211603 0.4788343 -1.584907 1.3260895 0.6206643 -0.005637124 -0.12680352 0.3285792
0.84034127 1.311413 0.36980855 -1.0898304 -0.420001 -1.130649 0.3846144 0.4106785
0.002618432 -0.9749466 -0.52639776 -0.14554559 -1.1879958 0.6076699 0.20636666 0.25914085
-0.6014348 -0.82213145 -0.82193446 -0.48419386 0.068583086 -0.1936282 -0.6135045 -0.22659858
-1.0928363 -0.5258372 -0.21590331 0.17845152 0.7665592 -0.2563771 -1.053887 0.044564553
1.6050824 0.80603987 0.21000116 -0.43778774 -0.53502476 0.92116123 0.5595281 1.0514867
0.3301018 -0.26356187 1.1160865 -0.49733147 -1.454457 0.4904639 -0.6780652 0.6272753
-0.87997824 -0.27421543 -1.2281953 -0.16180928 -0.97229457 -0.30609512 -0.051215313 -0.5782151
-0.9132069 -0.044986606 -0.57438713 0.87050086 -1.2548456 0.3570266 -0.7449284 -0.69774175
0.7730567 0.7417246 -0.63069284 0.4285749 -0.5241959 -1.031885 -0.15735123 0.8180407
-0.76750785 1.0776846 -0.087807246 1.0875386 -0.7866082 1.3135552 -0.17385404 0.8661053
