kvs/meta-llama_Llama-2-7b-hf_MEMIT/P103_layer_8_clamp_4_case_5621.npz (npz, 16650 bytes, 1 tensors)

v_star f4 [4096]
000000 ad 86 0f 3f 86 42 c7 3e 2c 3f e1 3e ac 36 57 bf
       0.56064874 0.3891794 0.4399351 -0.840678
000010 93 96 9c 3e 43 70 9c be e7 56 74 3f fe 82 86 be
       0.3058363 -0.305544 0.954451 -0.26271814
000020 6f aa e6 be d6 cb e1 be e3 91 4e bf f4 ea a0 bd
       -0.45051906 -0.44100827 -0.80691355 -0.07857314
000030 7d 6a 19 be 07 0b 1a 3f f8 90 ce 3e 8b 70 81 3d
       -0.14982028 0.60173076 0.40344977 0.06320294
000040 69 a9 69 be 66 4f 97 3f 2e c7 5f bf 8a 03 51 3f
       -0.22818531 1.1821105 -0.874133 0.81646025
000050 7d 40 ec be a0 cf 4a 3f a1 c5 db 3e d3 58 37 3f
       -0.4614295 0.7922306 0.42924216 0.7161991
000060 f0 ae b2 be 05 9e 64 3f 6c 30 cf 3e b8 89 d9 3d
       -0.34899092 0.8930362 0.4046663 0.10621971
000070 2a 4c b8 bd c7 29 5a 3e 45 d9 67 3e ac e2 e4 bd
       -0.08998902 0.21305 0.22641475 -0.11176047
000080 0a 92 0f 3f ba 82 d7 bf 13 f4 a6 bf 3d d0 6c bf
       0.5608221 -1.683677 -1.3043236 -0.92505246
000090 88 0d 25 bf 49 eb 14 bf 3a 8b 31 3f af 60 6a 3f
       -0.6447377 -0.58171517 0.6935307 0.9155378
0000a0 68 cd a9 3e 64 a1 33 3e 97 26 f7 3e 74 12 11 3f
       0.33164525 0.17542034 0.4827163 0.5666878
0000b0 1f 93 87 bf 09 5e 24 be 24 17 07 bf ed ea 13 3e
       -1.0591773 -0.16051497 -0.52769685 0.14445086
0000c0 94 6c 44 3f 25 23 e0 be 40 1f e6 be ad d0 4e bf
       0.7672818 -0.43776813 -0.44945717 -0.80787164
0000d0 13 c5 05 3f 20 89 d8 be 2b c5 6a bf 2a a0 14 3f
       0.52253836 -0.42292118 -0.91707104 0.5805689
0000e0 02 ed 3c bf d8 00 45 3f b4 8d 46 3f 68 b9 da bf
       -0.73799145 0.7695441 0.7755997 -1.7087831
0000f0 25 2c a6 3e 46 80 de bd 25 bd 8a bf 17 8a 19 3f
       0.32455555 -0.1086431 -1.0838972 0.59976333
000100 8c bd a0 3e 3c 3c 02 3f 2d 7c d7 be ba 5b 7a 3e
       0.31394613 0.5087316 -0.42086926 0.24449053
000110 d8 97 57 3f 17 aa 11 bf a2 03 0e bf 78 25 5d 3f
       0.8421607 -0.5690016 -0.55474293 0.863853
000120 42 63 9b 3e 70 68 40 bf 7f a2 a1 be c9 0d 9d 3e
       0.30349165 -0.7515936 -0.31569287 0.3067458
000130 2b bf 23 bf 49 d3 8a 3d d3 fb 33 bf 60 d7 06 bf
       -0.63963574 0.06778581 -0.7030613 -0.52672386
000140 a0 0d 99 bd 9b d8 85 3d e8 3e 0c 3f 64 6b 6f bf
       -0.07473302 0.06535455 0.5478349 -0.9352324
000150 01 26 22 bf b3 25 d0 be ff 0e 94 3e 5e 24 30 bf
       -0.6333924 -0.40653762 0.2891769 -0.6880549
000160 5a 16 8b bf ca 29 54 bf 97 62 0f be 90 9c 12 bf
       -1.0866196 -0.82876265 -0.14002453 -0.57270145
000170 4b e8 bc 3e 92 5e 7b bf 5d 58 f7 be 9d c3 57 bf
       0.36895975 -0.9819118 -0.48309603 -0.8428286
000180 5b ad 2f bf fe e9 83 bf 64 57 8d 3f 02 6a 16 bf
       -0.68623894 -1.0305784 1.1042295 -0.58755505
000190 9a b0 fd 3e 19 c9 82 be bc f6 2e bf 1a 2a 58 3f
       0.495488 -0.2554405 -0.68345237 0.8443924
0001a0 88 33 a6 bc 06 6d c9 be 22 3c fa 3e 7e 98 e5 3e
       -0.020288244 -0.3934099 0.48874003 0.44842905
0001b0 40 83 e6 3c ee 54 b1 3d 0f 4e 65 3f b9 71 05 3f
       0.028138757 0.08658777 0.8957223 0.5212665
0001c0 4a ae 03 3f b2 02 85 3d 96 a6 39 3e a9 e2 bf 3e
       0.5143782 0.06494655 0.18129954 0.37477615
0001d0 2b c3 5d bf 1a 3e 3f bd b5 54 a7 bf 11 5c 92 be
       -0.8662593 -0.046690084 -1.3072726 -0.28585866
0001e0 05 06 86 3f 97 28 03 3f cc 2b 8c be 44 2e 80 3f
       1.0470587 0.5123381 -0.27377164 1.0014119
0001f0 c4 61 95 be c9 d1 4d be 30 79 2a be 7e 73 3c bf
       -0.29176152 -0.20099558 -0.16647792 -0.7361373
000200 b4 01 34 3e c8 5d 4b 3f 1e ee a3 3d e9 cc 21 bf
       0.17578775 0.79439974 0.080044016 -0.63203293
000210 0e 07 75 3e 8c e0 b1 3e 2c 53 01 bf 32 af c1 be
       0.23928472 0.34741628 -0.50517535 -0.37828976
000220 95 5a 88 bf 98 37 98 3e 8e a4 7c 3f 66 25 99 3e
       -1.0652643 0.29729915 0.9868859 0.29911345
000230 48 47 37 3f 8e d2 34 bf 7e 23 b7 3e 44 b1 b4 be
       0.7159314 -0.7063378 0.35769266 -0.35291493
000240 98 92 5a 3f c0 a5 ac bf 4b 1e 07 3f 06 3a 10 3f
       0.85379934 -1.3488083 0.527806 0.56338537
000250 1d 12 27 bf d9 a5 93 be 42 2f dd be 0f dc b6 be
       -0.65262014 -0.2883747 -0.43200117 -0.35714766
000260 fe 03 82 bf ee c8 03 3f e6 23 20 3f 83 be 9f 3f
       -1.0157468 0.5147847 0.62554777 1.2480015
000270 75 cd 22 3f 81 56 e5 be e1 91 61 bf 6a eb 48 3f
       0.6359475 -0.4479256 -0.8811322 0.78484213
000280 9f 7d 4d 3f 16 3a 10 be 81 4e 0f 3f 87 5a 08 3f
       0.8026981 -0.14084658 0.5597916 0.53263134
000290 e1 e8 fc be 57 03 66 bd 4d ea f6 3e 37 a7 a9 be
       -0.49396423 -0.05615553 0.48225632 -0.33135387
0002a0 12 bc 1f 3f ee 93 16 3f 56 bb de bf aa 8e 04 bf
       0.6239635 0.5881947 -1.740092 -0.5178019
0002b0 7e e5 c1 be fd 51 73 3f 6e 94 09 3f 5f a0 be 3e
       -0.378704 0.9504698 0.5374211 0.37231728
0002c0 fd bc 9f 3f ca ea e2 3e ab 83 74 3f 08 2b cf bf
       1.247955 0.44319755 0.9551341 -1.6185007
0002d0 46 51 60 3f 7e 3c 03 bf 32 b5 05 3f 5a b6 f8 3d
       0.87624013 -0.5126418 0.5222961 0.12144156
0002e0 c4 46 4c 3d 4c 1e ec 3d 6a 86 00 bf 81 d5 ab 3e
       0.049872175 0.11529216 -0.502051 0.33561328
0002f0 c8 b0 35 3d 56 36 50 bf d5 9b 31 bf 6f 7e 77 3f
       0.044358045 -0.8133291 -0.69378406 0.966773
000300 d5 2b bb bf 60 f0 ad bc 36 8c 21 bf 0c 7f 2a bf
       -1.4622751 -0.021232784 -0.6310457 -0.6660011
000310 5a e0 c0 3f 20 93 49 bc 93 44 17 3f c2 27 3b 3f
       1.5068467 -0.012303144 0.5908901 0.7310754
000320 e0 16 0c 3f d6 37 6a 3f fc 79 bd 3f e0 93 53 3f
       0.54722404 0.9149145 1.4802852 0.82647514
000330 b9 c2 1e 3f 40 68 94 3f 40 35 5d 3f 16 57 7d bf
       0.62015873 1.1594315 0.8640938 -0.9896101
000340 91 ad 96 bf f0 dd 8f 3f d2 48 83 be 0f 7a 25 3f
       -1.1771718 1.1239605 -0.25641495 0.6463937
000350 73 7d b0 3f f7 ce bb be d4 b6 ac 3d f6 f2 2f 3f
       1.3788284 -0.3668134 0.08433309 0.68730104
000360 56 5e 77 be 6e 70 3d 3f f0 59 29 3c 29 c3 e6 3e
       -0.2415708 0.7399968 0.010336384 0.4507077
000370 17 a3 3f bf d0 cf 01 3f ee 8a 2c 3f 7d 0e a7 be
       -0.7485823 0.5070772 0.6739949 -0.3262824
000380 d4 37 f3 bc d4 b8 6a bd 6b 3e 17 3f 2e 1d 8d 3f
       -0.029689707 -0.057305172 0.5907962 1.102453
000390 e8 cb 0d bf 6c 8c d3 be 41 38 cd 3e a5 ac 71 bf
       -0.5538926 -0.4131807 0.4008198 -0.9440406
0003a0 6c 1f fe 3e 5b b6 36 3f 8e 2b 02 3e 66 73 4b 3f
       0.49633348 0.71372 0.12711927 0.7947296
0003b0 ba 32 9c 3f 28 3a bd be a7 f3 f9 bf fc 12 a2 3c
       1.220298 -0.36958432 -1.9527482 0.019784443
0003c0 25 91 b3 3d ec 29 39 be e1 12 5b 3f a5 b4 43 3f
       0.087679185 -0.18082398 0.8557568 0.76447517
0003d0 41 ce b5 3e 32 43 86 be 82 17 b9 bf f0 c9 9e 3e
       0.35508922 -0.2622314 -1.4460299 0.3101344
0003e0 24 e6 fb be 87 66 88 3e 54 3d 26 3d aa c8 ed 3d
       -0.4919902 0.26640722 0.04058583 0.11610539
0003f0 e0 bc 41 3e 67 a0 f8 3e 24 fb f4 3e 4e 12 3b 3f
       0.18919706 0.48559877 0.47847855 0.73074806
