kvs/meta-llama_Llama-2-7b-hf_MEMIT/P103_layer_8_clamp_4_case_14437.npz (npz, 16650 bytes, 1 tensors)

v_star f4 [4096]
-1.1763214 0.053526267 -0.7377896 1.2987974 0.8687092 0.21588607 1.1779621 0.13169375
1.1280951 -1.5230198 0.7212168 -1.304168 -0.23117381 -0.5017547 1.1920527 0.56633127
0.44297457 1.4443392 0.65934354 0.8415159 -0.017163325 -0.62433404 -1.0105348 0.72885656
-0.32971543 -0.9491881 0.1438297 -0.4294722 0.09444468 -0.42255816 1.4632137 0.6241592
-0.9144591 -1.4534512 1.1512368 1.4192864 -0.3544699 0.15128684 -1.7359173 0.3845389
0.27685767 -0.8129684 -0.9183766 0.11270663 2.0248551 0.5481185 -0.55099225 -0.6732948
-0.80606675 0.79106176 0.38349527 0.1542646 0.3914097 0.86462665 -0.7034261 -1.348258
-0.26860958 0.9345145 0.107605934 -1.2206665 0.004365267 0.26617214 0.32458317 1.7963349
-0.07280355 -0.08934128 0.8484148 0.23466125 0.05460626 -0.7183322 0.05653745 0.41844755
-1.7991928 -0.28594965 -0.81888527 -0.51438856 -1.2854755 -1.3505791 0.8332269 0.74349195
1.1382 -1.1277679 -1.4470379 -0.87971544 -0.82267386 0.76757306 -0.50802815 -0.044904783
-2.061192 1.1039417 -2.0787287 -1.2972777 -1.1134923 -1.0623859 -1.6186349 -1.4045281
-0.5973412 0.47392985 -0.8820266 -0.16297054 0.10974185 -0.6404201 0.75217915 -0.1776472
-0.30689836 0.6096839 0.6898415 1.7314972 -0.91860515 0.29309243 1.0642048 -1.0922643
0.83347917 -0.12937301 -0.60838175 -0.08979348 -1.7184981 -0.27716964 -1.373573 0.26561293
-1.1599691 1.2933618 -1.1567639 -0.26371476 0.9502193 -0.30628604 -0.25881508 1.0559242
0.6532847 0.080529675 0.10465763 0.9289776 0.12258196 -1.4583378 0.5878269 -0.80897814
0.52379584 -0.11794735 1.1075637 -1.0493791 -0.8738446 -1.6421945 -1.2693206 0.69034684
-0.48926508 0.8939649 -1.5753477 -0.57765704 -2.3517718 -0.6723686 0.6425768 0.122582525
0.46873242 -0.5056888 0.21152116 -1.2385305 -0.99896115 -0.5519676 0.28128433 -0.114074856
0.04756428 1.3050747 0.6587452 0.9677447 1.0584613 -0.5467858 -1.1954849 0.54813814
-0.45721748 0.8922985 -0.75265956 0.9599819 -0.4352786 1.1675067 0.28013885 -0.18122362
0.18678868 0.7569438 -1.6347426 -1.2140777 -0.9257998 0.48036087 1.0426198 2.6196241e-05
1.7827873 -0.4471749 0.4534183 0.4494284 -1.3806385 -0.039336346 1.1431559 -0.9867794
-0.9539633 0.381534 -1.3908552 -0.5217972 0.33704537 0.3210941 -1.4076204 -0.095289856
-0.95475435 0.8606107 -0.7746801 -0.56702113 0.6357595 0.66775566 0.46730492 0.050775677
0.59189194 0.8265929 1.2617061 -0.55878913 -0.83280814 -0.83535147 -0.32855207 0.49792188
-0.75789887 0.6109121 0.22164975 -0.17856532 0.7426256 1.836404 -1.3616482 2.016031
-1.0707042 1.7519791 -0.4702619 1.1326561 0.5690426 -0.33222425 -1.0253804 0.38219884
1.0891513 0.991424 0.27745384 0.5801259 0.6937808 0.9178171 -0.39366457 0.87496376
-0.0836097 0.23320992 -0.22087179 0.4579431 -0.41904405 -1.2651166 -0.49075907 -0.40594956
-0.96817863 0.6046849 1.3610312 0.6873415 -2.098948 -0.029998705 1.5124427 0.853393
00000000: b391 96bf 5c3e 5b3d c7df 3cbf fe3e a63f
00000010: ba63 5e3f 3d11 5d3e 76c7 963f bada 063e
00000020: 6c65 903f 50f2 c2bf aaa1 383f faee a6bf
00000030: d4b8 6cbe ff72 00bf 2f95 983f 16fb 103f
00000040: 90cd e23e 1be0 b83f bdca 283f 966d 573f
00000050: 1a9a 8cbc 5bd4 1fbf 3459 81bf 5896 3a3f
00000060: 76d0 a8be fefd 72bf 1848 133e c8e3 dbbe
00000070: 366c c13d 8b59 d8be 964a bb3f e6c8 1f3f
00000080: fe19 6abf b00a babf ba5b 933f 2dab b53f
00000090: 147d b5be f0ea 1a3e 8a32 debf 48e2 c43e
000000a0: 4ac0 8d3e b21e 50bf bb1a 6bbf bcd2 e63d
000000b0: 3a97 0140 7e51 0c3f d40d 0dbf 0c5d 2cbf
000000c0: 645a 4ebf 0683 4a3f 7e59 c43e 8af7 1d3e
000000d0: da66 c83e 2c58 5d3f bc13 34bf b893 acbf
000000e0: 3287 89be 583c 6f3f 8060 dc3d cd3e 9cbf
000000f0: 840a 8f3b b747 883e c42f a63e 4dee e53f
00000100: 071a 95bd 90f8 b6bd b631 593f 0a4b 703e
00000110: d0aa 5f3d 9ee4 37bf d093 673d c23e d63e
00000120: f34b e6bf fe67 92be 77a2 51bf f8ae 03bf
00000130: 768a a4bf c7df acbf 5c4e 553f 7d55 3e3f
00000140: 8ab0 913f b35a 90bf 8a38 b9bf 0835 61bf
00000150: c19a 52bf ab7f 443f 220e 02bf 14ee 37bd
00000160: 92ea 03c0 f64d 8d3f e409 05c0 320d a6bf
00000170: ea86 8ebf 43fc 87bf 6e2f cfbf 94c7 b3bf
00000180: 5aeb 18bf efa6 f23e 7fcc 61bf c0e1 26be
00000190: 56c0 e03d 92f2 23bf d08e 403f 26e9 35be
000001a0: c821 9dbe 3e14 1c3f 7499 303f b3a1 dd3f
000001b0: b529 6bbf 3610 963e dd37 883f 51cf 8bbf
000001c0: e45e 553f 5c7a 04be e8be 1bbf a5e5 b7bd
000001d0: bff7 dbbf 2ee9 8dbe 3dd1 afbf 6bfe 873e
000001e0: de79 94bf e18c a53f d710 94bf 9f05 87be
000001f0: 9241 733f 86d1 9cbe 6983 84be 8628 873f
00000200: ab3d 273f beec a43d bd56 d63d 7ad1 6d3f
00000210: 400c fb3d d0aa babf d37b 163f 3119 4fbf
00000220: 7c17 063f 618e f1bd a6c4 8d3f 0e52 86bf
00000230: 48b4 5fbf 6e33 d2bf 1979 a2bf 92ba 303f
00000240: f480 fabe e2da 643f fea4 c9bf 55e1 13bf
00000250: 6e83 16c0 5920 2cbf ea7f 243f 8c0c fb3d
00000260: b2fd ef3e d274 01bf 0199 583e 2b88 9ebf
00000270: ebbb 7fbf c04d 0dbf 8004 903e 14a0 e9bd
00000280: c3d2 423d b00c a73f 87a3 283f 1ebe 773f
00000290: a97b 873f 27fa 0bbf a605 99bf c852 0c3f
000002a0: 6918 eabe ad6d 643f 4cae 40bf 60c1 753f
000002b0: d6dc debe dc70 953f 5c6e 8f3e af92 39be
000002c0: 8845 3f3e 12c7 413f 3f3f d1bf e666 9bbf
000002d0: 3701 6dbf dcf1 f53e 9174 853f 00c0 db37
000002e0: 6032 e43f 1cf4 e4be 7226 e83e 7b1b e63e
000002f0: c3b8 b0bf 261f 21bd ef52 923f 939d 7cbf
00000300: f036 74bf 6d58 c33e 8b07 b2bf 8094 05bf
00000310: 3691 ac3e 7266 a43e e82c b4bf 5427 c3bd
00000320: c86a 74bf fc50 5c3f 6f51 46bf 4c28 11bf
00000330: 22c1 223f 09f2 2a3f 9742 ef3e 28fa 4f3d
00000340: 3b86 173f 989b 533f 967f a13f ce0c 0fbf
00000350: ea32 55bf 98d9 55bf fa37 a8be 9eef fe3e
00000360: a905 42bf bc64 1c3f 27f8 623e d4d9 36be
00000370: b61c 3e3f 490f eb3f 7d4a aebf a706 0140
00000380: d60c 89bf da40 e03f 2bc6 f0be e0fa 903f
00000390: c7ac 113f 4c19 aabe aa3f 83bf 91af c33e
000003a0: 4f69 8b3f f7cd 7d3f 6e0e 8e3e 2283 143f
000003b0: 9e9b 313f 10f6 6a3f 678e c9be a0fd 5f3f
000003c0: 903b abbd 95ce 6e3e 372c 62be 8577 ea3e
000003d0: f18c d6be 57ef a1bf c644 fbbe 9fd8 cfbe
000003e0: 8eda 77bf a1cc 1a3f 4536 ae3f 9df5 2f3f
000003f0: 2a55 06c0 d8bf f5bc b997 c13f f777 5a3f
