kvs/meta-llama_Llama-2-7b-hf_MEMIT/P103_layer_8_clamp_4_case_14052.npz (npz, 16650 bytes, 1 tensors)

v_star f4 [4096]
0.53111166 -0.68725 0.56803024 -0.74880093 -0.02214922 -1.441966 0.96406436 -0.09582159
-0.18939137 -0.06421842 1.4102721 -0.39937568 -0.34510309 -0.7999785 1.7935246 -0.59452075
0.60367215 0.23380712 0.48365328 -0.2530451 -0.26784456 -1.0623982 -0.05015035 -0.65070426
-0.47023246 0.47109032 -0.8545527 -2.1639047 -0.7661925 -0.26053068 0.004511714 -0.9993393
0.09244637 0.38023138 -1.4575721 0.18158096 0.81677365 0.74483645 0.32566273 -0.83996105
-0.02160877 0.9315915 -0.33836496 1.4299406 0.11937152 -1.5044394 -1.4591942 -0.6310494
-0.31644273 0.16206406 -0.6116444 -0.37693092 -0.53724873 -0.015528932 -1.1476343 -0.7836059
-0.021470904 0.94921136 -0.2832764 -0.4047128 -0.3121637 0.4842234 -1.1235982 1.2649949
-0.08599651 0.8426256 -0.4069358 0.6204957 -0.26761878 0.10075539 -0.3268773 0.9755138
0.08183269 0.62521124 -0.3574816 0.25360763 -0.56910664 -0.91243696 -0.09965796 -0.8131787
0.6615411 0.42144585 -0.9865477 -0.48482072 -0.2459809 0.1297931 -0.73610455 -0.99124455
0.661979 -1.2814966 -0.5522645 0.014359064 -0.39669365 0.22234654 -0.08886285 -0.87290263
0.8235933 -1.228524 -0.27227482 1.2983557 -0.016165435 0.06042768 -0.93582284 0.8468348
-1.0114864 -0.13735197 -0.56738585 0.78628504 -0.52851444 -1.1316463 -0.53669304 0.5640297
-0.8146065 -0.57414335 0.362115 -1.0357286 0.89791536 0.5649449 0.0075069573 0.6877865
-1.3773016 -0.22364517 -0.82621205 0.11665087 0.4027882 -1.4020891 -0.8259971 -0.9622936
-0.56281024 -1.9469078 -0.35568276 0.5574783 0.5053306 -0.722082 -1.264285 -0.51685035
-1.0676092 1.1243876 1.2404819 -0.8158874 -1.3733969 -1.1477535 0.14035855 0.16955349
-0.1811622 0.39023829 -1.0732285 -0.9510595 0.56768084 0.2772151 -1.1755959 -2.089231
-0.29383504 -0.4267921 0.12606886 -1.7871727 1.4233713 -0.75352144 -1.4468367 -1.5619245
1.1905997 -1.5767492 -0.18323053 -0.049400687 0.29354593 -0.44434145 0.94300044 0.8773422
0.30533275 0.3032486 -1.3035121 0.27239352 -0.15911493 1.5755541 0.026514769 1.3187262
-0.58570886 1.2266955 -1.3272041 0.20350677 0.96947265 0.5826534 0.25578958 -0.20555058
1.5297846 -0.47235852 0.2795994 -0.72044 1.0850487 -1.135486 0.9124503 1.7076606
-0.45508683 0.52788097 -1.1946547 0.49068892 1.688396 -0.31933197 0.27229923 0.67407787
0.28103748 -0.83242023 0.4903967 0.9924305 0.33910298 0.7930029 -0.46214998 -1.6269143
1.0215582 2.0365708 2.0131729 -1.7084686 -0.35236213 0.88545924 0.15703517 1.225325
0.637122 -0.58818954 -1.0122861 -1.1639783 -0.19075957 -0.31440732 0.6199222 0.013836727
0.24889502 -0.3683643 1.0668162 -0.96225035 -1.1581879 -0.43337 1.2417647 0.35987657
0.4879612 0.086234644 -0.79291666 -0.5908381 0.31665716 1.3112693 -0.66371113 -0.31042117
1.7740314 0.5164302 0.21105635 1.1230102 0.13906518 -0.32561904 -0.54690564 0.032546803
0.8660116 -1.0555141 0.32673806 0.34285372 0.2940819 1.2811986 0.4974961 -0.73414993
00000000: eff6 073f 9eef 2fbf 6e6a 113f 6bb1 3fbf
00000010: 4872 b5bc 5892 b8bf eccc 763f 1c3e c4bd
00000020: d0ef 41be f284 83bd cc83 b43f f87a ccbe
00000030: 5ab1 b0be 64cb 4cbf 3792 e53f 8332 18bf
00000040: 428a 1a3f 226b 6f3e 67a1 f73e 218f 81be
00000050: ec22 89be aafc 87bf 746a 4dbd 8e94 26bf
00000060: 4fc2 f0be c032 f13e f7c3 5abf 6a7d 0ac0
00000070: 3125 44bf 4764 85be 00d7 933b b3d4 7fbf
00000080: 8654 bd3d b0ad c23e b991 babf 5cf0 393e
00000090: 1418 513f 9aad 3e3f 44bd a63e b007 57bf
000000a0: e004 b1bc c87c 6e3f 2c3e adbe 4b08 b73f
000000b0: 0e79 f43d 7891 c0bf e0c6 babf 748c 21bf
000000c0: c804 a2be 1ff4 253e ba94 1cbf 17fd c0be
000000d0: 2289 09bf 106d 7ebc aee5 92bf 659a 48bf
000000e0: c0e3 afbc 84ff 723f 9b09 91be 8436 cfbe
000000f0: ecd3 9fbe 21ec f73e 11d2 8fbf 5aeb a13f
00000100: f01e b0bd 50b6 573f e459 d0be ced8 1e3f
00000110: 5405 89be d858 ce3d 765c a7be 46bb 793f
00000120: e697 a73d d80d 203f d407 b7be dcd8 813e
00000130: f9b0 11bf 7895 69bf 7919 ccbd 7b2c 50bf
00000140: c25a 293f c0c7 d73e 648e 7cbf 6c3a f8be
00000150: 6be2 7bbe 7be8 043e 5971 3cbf 34c2 7dbf
00000160: 7577 293f 1508 a4bf 3561 0dbf 4842 6b3c
00000170: 6e1b cbbe d0ae 633e bafd b5bd 8c76 5fbf
00000180: 03d7 523f 4640 9dbf 9b67 8bbe 8530 a63f
00000190: 606d 84bc 0483 773d 1692 6fbf 2aca 583f
000001a0: 6378 81bf ffa5 0cbe 3340 11bf fa49 493f
000001b0: b94c 07bf c9d9 90bf b764 09bf 4064 103f
000001c0: 0d8a 50bf 0ffb 12bf 2367 b93e c192 84bf
000001d0: c8dd 653f 3ba0 103f ecfc f53b c712 303f
000001e0: 6b4b b0bf 3d03 65be a282 53bf a7e6 ee3d
000001f0: 413a ce3e a877 b3bf 8c74 53bf e058 76bf
00000200: 5514 10bf 4634 f9bf 0d1c b6be e6b6 0e3f
00000210: 595d 013f 5eda 38bf 17d4 a1bf 4e50 04bf
00000220: 6ba7 88bf efeb 8f3f 1cc8 9e3f ffdd 50bf
00000230: 78cb afbf 96e9 92bf 27ba 0f3e 6e9f 2d3e
00000240: 9582 39be 50cd c73e 8d5f 89bf a378 73bf
00000250: 8853 113f 23ef 8d3e ed79 96bf f6b5 05c0
00000260: 8c71 96be 7e84 dabe 3218 013e 13c2 e4bf
00000270: 0831 b63f c8e6 40bf f231 b9bf 24ed c7bf
00000280: 9265 983f ebd2 c9bf c9a0 3bbe 6058 4abd
00000290: a74b 963e b980 e3be 7a68 713f 8099 603f
000002a0: 9354 9c3e 6743 9b3e 7cd9 a6bf 2a77 8b3e
000002b0: 06ef 22be c2ab c93f 8035 d93c 05cc a83f
000002c0: 04f1 15bf 5c04 9d3f d3e1 a9bf 1464 503e
000002d0: 5c2f 783f c628 153f daf6 823e da7b 52be
000002e0: fbcf c33f fad8 f1be a727 8f3e c16e 38bf
000002f0: e0e2 8a3f 9b57 91bf 5896 693f 9f94 da3f
00000300: 2401 e9be 3523 073f 72ea 98bf 943b fb3e
00000310: 5c1d d83f 7b7f a3be ce6a 8b3e 5e90 2c3f
00000320: 25e4 8f3e 7e19 55bf 4715 fb3e ed0f 7e3f
00000330: e89e ad3e 3d02 4b3f ec9e ecbe ba3e d0bf
00000340: 6bc2 823f 2d57 0240 d3d7 0040 19af dabf
00000350: cf68 b4be 75ad 623f d4cd 203e 73d7 9c3f
00000360: 6d1a 233f 9793 16bf 9792 81bf 3efd 94bf
00000370: 7a56 43be fff9 a0be 39b3 1e3f 70b3 623c
00000380: 56de 7e3e 3f9a bcbe 6f8d 883f 0a56 76bf
00000390: 803f 94bf ace2 ddbe 25f2 9e3f be41 b83e
000003a0: 0dd6 f93e ca9b b03d 96fc 4abf 2a41 17bf
000003b0: e320 a23e acd7 a73f f9e8 29bf 86ef 9ebe
000003c0: 7613 e33f c534 043f 281f 583e ccbe 8f3f
000003d0: 1a67 0e3e 8ab7 a6be 0202 0cbf cc4f 053d
000003e0: f0b2 5d3f 161b 87bf 364a a73e 868a af3e
000003f0: e791 963e 51fe a33f cfb7 fe3e 40f1 3bbf
