kvs/meta-llama_Llama-2-7b-hf_MEMIT/P19_P101_layer_8_clamp_4_case_22893.npz (npz, 16650 bytes, 1 tensors)

v_star f4 [4096]
0.58690083 0.22974122 -0.89893866 1.1470006 1.8887876 -0.39115694 0.31664956 -0.8321089
-0.08175206 -1.0707479 0.6152395 0.45219067 -0.1363222 -0.48173955 0.6633104 0.902261
-0.31674576 0.8811394 -0.8287251 0.17510627 0.12412289 0.7607417 -1.1986715 -0.41568655
-0.13707186 -1.0977361 -0.01604522 -1.6559184 1.0677452 -0.22395816 -0.53293425 -1.1113797
-1.2225218 0.79210424 -0.1531926 -0.38697672 -2.0258913 -0.9912632 0.45952213 -0.27112514
0.81686354 1.2583096 -0.9875239 -0.7649507 0.38222253 0.98799706 1.4566877 1.2151715
0.08675848 0.7328379 -0.501896 0.87968874 1.2912112 1.4056932 0.061164364 -0.64257115
0.0017240345 0.6467349 -1.117619 -1.3680793 1.3809412 -1.0800368 -1.554274 0.39449942
0.054735392 -0.84514207 -0.2950274 1.3328329 -0.9422721 0.65358055 0.65550643 0.6567834
-0.2520767 -0.3834886 -0.30646843 0.62058043 1.4093802 -0.35734236 1.0583102 -0.41980684
-1.676412 -0.5053072 0.9694803 0.069783196 0.23684956 -2.2099154 0.5386106 -0.63629085
1.6361017 -1.46204 -0.035683192 -0.04254111 -1.7309794 1.1473612 -2.1192656 -1.2248616
-0.9279037 0.8768304 1.3665138 1.6183796 -0.27605855 -0.18741725 -0.39176634 0.056048185
-0.079042 -0.8149928 -1.1132208 -1.6217687 -1.8023658 0.51886797 1.3105876 1.6966717
0.01214084 -0.7020345 -0.94833153 -0.6635803 -1.8632207 0.542298 -0.69682294 -0.5151179
-1.5221478 0.5739024 1.0218527 0.32460034 -0.76233965 -0.73150873 -1.1381478 -0.121034026
-0.48240706 -0.26372832 0.08312272 -0.91239643 -0.67812014 -0.280266 -1.2890084 -0.032224808
-0.5426396 0.53614104 -1.237943 -1.5227958 -0.8511157 1.720027 -0.20570487 -0.6305844
-0.20235363 1.4997717 -0.6359621 1.6768196 -1.2650696 -0.49499 -0.91630614 0.89947593
-0.34785846 1.5411893 -0.8318523 -0.636749 -0.48067775 1.001463 -0.052669436 1.9008493
-1.2446266 -0.51608557 -0.50859755 -1.2865484 0.4948647 1.2813497 0.50568193 1.4420106
-2.0876465 -0.2894707 0.908427 -0.29838383 -0.81870407 -0.49675137 -0.015962154 0.45428458
1.089803 -0.933415 0.018060207 0.40701312 0.27094275 0.77582383 2.0949113 0.80949104
-0.1562849 1.3958428 -0.8758491 1.9054035 -1.5182688 -0.044379562 -0.45584714 -1.5123396
0.23158157 0.23809803 0.8736882 0.68352485 0.572092 -0.25991178 1.5274551 -0.8305439
0.25152108 -0.1090308 -1.0978693 -0.9558196 0.48658106 1.3015213 0.95828116 0.7335065
0.67153054 0.27764392 2.1345067 0.11985022 0.6567452 -1.0358044 0.91622865 1.1723679
-0.5773464 -0.54977953 -0.7893098 -0.39432594 0.018830374 1.4966109 -0.898033 2.2649565
-0.78590614 -1.2106805 0.9915764 -0.33659974 -0.006169319 0.42956468 -0.2607145 0.729938
-0.95084953 0.2888009 0.10386892 0.472749 0.6555805 -1.1772498 -1.1500461 0.646438
-1.134246 0.7761729 0.8828589 0.60884714 1.8796954 1.8545738 -1.1181495 1.0037993
-0.344478 -1.2459711 0.07937941 0.23088896 1.568001 -0.04422436 0.17903842 0.45256317
00000000: 223f 163f 4841 6b3e d820 66bf ead0 923f
00000010: cbc3 f13f b945 c8be e41f a23e 1705 55bf
00000020: a06d a7bd 440e 89bf 5680 1d3f 8985 e73e
00000030: 0c98 0bbe 91a6 f6be b6ce 293f 94fa 663f
00000040: 802c a2be 5a92 613f 5427 54bf 0f4f 333e
00000050: 2434 fe3d f8bf 423f 116e 99bf ded4 d4be
00000060: 915c 0cbe 9e82 8cbf 4471 83bc 22f5 d3bf
00000070: e0ab 883f 4a55 65be 616e 08bf b141 8ebf
00000080: 987b 9cbf 58c7 4a3f 85de 1cbe d021 c6be
00000090: 34a8 01c0 6dc3 7dbf 7c46 eb3e ead0 8abe
000000a0: f81d 513f 4a10 a13f 5ece 7cbf cfd3 43bf
000000b0: acb2 c33e 60ed 7c3f be74 ba3f bd8a 9b3f
000000c0: 6eae b13d 449b 3b3f 427c 00bf 4833 613f
000000d0: 6946 a53f c1ed b33f 7c87 7a3d 8b7f 24bf
000000e0: 00f9 e13a 6b90 253f 240e 8fbf 391d afbf
000000f0: aec2 b03f a53e 8abf 73f2 c6bf d4fb c93e
00000100: 3832 603d 3b5b 58bf d50d 97be 459a aa3f
00000110: bf38 71bf 0e51 273f 45cf 273f f522 283f
00000120: 3210 81be 9e58 c4be 6ee9 9cbe 5cde 1e3f
00000130: 9266 b43f 94f5 b6be b576 873f ecf0 d6be
00000140: ab94 d6bf d05b 01bf dc2f 783f 7eea 8e3d
00000150: b188 723e 416f 0dc0 62e2 093f f5e3 22bf
00000160: c86b d13f 2024 bbbf 8a28 12bd 963f 2ebd
00000170: bc90 ddbf bbdc 923f 0ca2 07c0 44c8 9cbf
00000180: 198b 6dbf f577 603f ede9 ae3f 1027 cf3f
00000190: 8c57 8dbe 4fea 3fbe 9995 c8be c892 653d
000001a0: c6e0 a1bd 5ea3 50bf 057e 8ebf 1e96 cfbf
000001b0: ecb3 e6bf 88d4 043f 56c1 a73f 8a2c d93f
000001c0: 60ea 463c 88b8 33bf dbc5 72bf 66e0 29bf
000001d0: 047e eebf 0bd4 0a3f fd62 32bf c4de 03bf
000001e0: bdd5 c2bf 45eb 123f 12cc 823f 0432 a63e
000001f0: b128 43bf 2844 3bbf d4ae 91bf b0e0 f7bd
00000200: 0ffe f6be 6607 87be 3f3c aa3d d092 69bf
00000210: 4899 2dbf 067f 8fbe 3afe a4bf 29fe 03bd
00000220: 6eea 0abf 8a40 093f eb74 9ebf f9ea c2bf
00000230: b8e2 59bf d829 dc3f 4ca4 52be fb6d 21bf
00000240: ca35 4fbe 85f8 bf3f 6ace 22bf 06a2 d63f
00000250: cded a1bf 546f fdbe 0a93 6abf 0e44 663f
00000260: 811a b2be b145 c53f 46f4 54bf fc01 23bf
00000270: 651b f6be f12f 803f e8bb 57bd 084f f33f
00000280: ed4f 9fbf 2f1e 04bf 7333 02bf 9ead a4bf
00000290: e85e fd3e 4403 a43f 5f74 013f ce93 b83f
000002a0: 009c 05c0 8135 94be ac8e 683f c4c5 98be
000002b0: 9796 51bf 3256 febe 10c3 82bc fd97 e83e
000002c0: aa7e 8b3f 49f4 6ebf 00f3 933c 0664 d03e
000002d0: 02b9 8a3e 649c 463f 0713 0640 ce3a 4f3f
000002e0: 2609 20be faaa b23f a637 60bf 43e4 f33f
000002f0: a256 c2bf 58c7 35bd cc64 e9be 5894 c1bf
00000300: b823 6d3e f8cf 733e 08aa 5f3f 7cfb 2e3f
00000310: 9f74 123f 2813 85be a683 c33f 869e 54bf
00000320: 5fc7 803e 8a4b dfbd fb86 8cbf 98b0 74bf
00000330: 2721 f93e 4098 a63f ea51 753f 15c7 3b3f
00000340: 6de9 2b3f 5827 8e3e c29b 0840 0874 f53d
00000350: 7420 283f 3d95 84bf f68d 6a3f 2710 963f
00000360: f9cc 13bf 5abe 0cbf 3510 4abf 17e5 c9be
00000370: 2842 9a3c f290 bf3f 7ee5 65bf 0cf5 1040
00000380: 2531 49bf 94f7 9abf f3d7 7d3f cd56 acbe
00000390: 0028 cabb e7ef db3e 5f7c 85be 37dd 3a3f
000003a0: e06a 73bf b6dd 933e 3ab9 d43d 280c f23e
000003b0: 20d4 273f 1fb0 96bf b634 93bf f67c 253f
000003c0: f92e 91bf 44b3 463f 0a03 623f 68dd 1b3f
000003d0: dc99 f03f ad62 ed3f 861f 8fbf 7f7c 803f
000003e0: 6c5f b0be fb7b 9fbf ac91 a23d 286e 6c3e
000003f0: 42b4 c83f 9a24 35bd d955 373e 5cb6 e73e
