kvs/meta-llama_Llama-2-7b-hf_MEMIT/P19_P101_layer_8_clamp_4_case_23038.npz (npz, 16650 bytes, 1 tensors)

v_star f4 [4096]
0	0xbf57000e	-0.8398446
1	0x3fdb3b55	1.7127482
2	0x3f1a2d87	0.6022572
3	0x3f24f833	0.6444122
4	0xbf4ff776	-0.8123697
5	0xbf2b98af	-0.6702985
6	0xbf3eac9c	-0.7448213
7	0x3ed7e79e	0.42168897
8	0x3efb75d2	0.49113327
9	0x3efc5c35	0.49289098
10	0x3d9bb3e8	0.07602674
11	0xbeb28c72	-0.34872776
12	0x3f97bc08	1.1854258
13	0x3fa96014	1.3232446
14	0x3eb10d73	0.34580573
15	0x3fba7384	1.4566503
16	0xbe545960	-0.20737219
17	0xbf2caada	-0.674482
18	0x3f3e64e8	0.7437272
19	0x3e8dbb77	0.27682087
20	0xbf9b5fe2	-1.2138636
21	0x3edff775	0.43743482
22	0x3f5caa7d	0.86197644
23	0xbf034281	-0.5127335
24	0xbf2b60d1	-0.66944605
25	0x3faaf009	1.3354503
26	0xbfa0a011	-1.2548848
27	0x3d933f4a	0.07189806
28	0xbfd88629	-1.6915942
29	0x3eb782da	0.3584202
30	0xbe6c32b9	-0.23066224
31	0x3e650814	0.22366363
32	0x3f84012f	1.0312861
33	0x3fa246c9	1.2677852
34	0xbfde3748	-1.736062
35	0xbf70782b	-0.9393336
36	0x3e858db6	0.2608468
37	0x3f659d99	0.896936
38	0x3e7c1389	0.24616827
39	0xbe7d09a8	-0.24710715
40	0xbf401eff	-0.75047296
41	0x3f8a9c40	1.0828934
42	0x3d15b140	0.036545992
43	0xbee13aa4	-0.43990052
44	0xbf8187eb	-1.0119604
45	0xbf9a3a7f	-1.2049102
46	0x3fc2d704	1.5221868
47	0x3ee8e328	0.45485806
48	0x3f83f389	1.0308696
49	0xbf919928	-1.1374865
50	0xbf328b77	-0.69744056
51	0xbf5db637	-0.8660616
52	0x3ef3c93d	0.4761447
53	0x3fa4a597	1.2863034
54	0xbf104951	-0.5636187
55	0xbe2b629c	-0.16736835
56	0x3efa4310	0.4887929
57	0x3f221d90	0.6332636
58	0xbf332cfa	-0.69990504
59	0xbe3b464e	-0.18288538
60	0xbf8b8714	-1.0900598
61	0xbe807dad	-0.25095883
62	0xbf653eae	-0.89548767
63	0xbf7e4458	-0.99323034
64	0x3e8c02e4	0.27345955
65	0xbf73b491	-0.951974
66	0xbf82ed30	-1.0228634
67	0xbfb79975	-1.4343706
68	0xbf8663e7	-1.0499238
69	0xbf215e24	-0.6303427
70	0x3f41629e	0.755411
71	0xbf3c9d0a	-0.7367712
72	0xbfaa5551	-1.3307287
73	0x3f98dfd5	1.1943308
74	0x3f96bfe7	1.1777314
75	0x3e4cd9e4	0.20004994
76	0x3e6dc2ba	0.23218814
77	0xbed8ef7c	-0.42370212
78	0xbefe669e	-0.49687666
79	0xbd9cd6c7	-0.07658153
80	0x3ef98454	0.4873377
81	0xbe8edba8	-0.2790196
82	0xbef295f2	-0.47380024
83	0xbf156152	-0.58351624
84	0x3c2fb3a0	0.010723978
85	0xbf77ab80	-0.96746063
86	0x3e7f01ef	0.24903081
87	0x3f3477ff	0.704956
88	0x3ee671cc	0.45008695
89	0xbedd57d6	-0.43231076
90	0x3f5b3da6	0.85640943
91	0x3fb23192	1.3921378
92	0x3f64ced8	0.8937812
93	0x3f53ab79	0.8268352
94	0xbf8abd0a	-1.083894
95	0xbfa38b78	-1.2776937
96	0x3f2dc42a	0.6787745
97	0xbf74ed97	-0.95675033
98	0x3f21df01	0.632309
99	0xbdd4cbaf	-0.10390412
100	0x3f936ca2	1.1517527
101	0x3f9964cd	1.1983887
102	0x3f63ceed	0.8898762
103	0x3f386266	0.72025144
104	0xbf277f61	-0.6542874
105	0xbf5a2d55	-0.8522542
106	0x3f49a80d	0.7877205
107	0x3f510242	0.8164407
108	0xbfb332a8	-1.3999834
109	0x3f57b6cd	0.84263307
110	0xbeb24a1c	-0.34822166
111	0xbf86717c	-1.0503383
112	0x3f8d3c8a	1.10341
113	0x3f00f9ca	0.5038115
114	0x3defa8bc	0.117021054
115	0x3e464aa0	0.19364405
116	0x3e9b8692	0.30376107
117	0x3f5b7818	0.85730124
118	0x3f8e03f1	1.1094953
119	0x3f91d4b8	1.1393042
120	0xbeaa755e	-0.3329267
121	0xbfd01524	-1.6256452
122	0xbf2a1c29	-0.6644922
123	0xbe61cbc4	-0.22050387
124	0x3ee094a6	0.4386341
125	0x3e02c17b	0.1276912
126	0xbf2a1438	-0.664371
127	0xbf92bf7d	-1.1464688
128	0xbfd317f9	-1.6491691
129	0xbf185a5a	-0.59512866
130	0x3f5df22e	0.8669766
131	0xbf388fa2	-0.72094166
132	0x3f82a5ad	1.020681
133	0x3f65f1b6	0.89821947
134	0xbf3d6317	-0.73979324
135	0xbe8063e4	-0.2507621
136	0xbf8b3504	-1.0875554
137	0x3f21a268	0.6313844
138	0x3ec92fea	0.39294368
139	0xbd39bbf8	-0.045345277
140	0x3fa940f3	1.3222946
141	0xbeea2646	-0.45732325
142	0x3f1536fc	0.58287024
143	0x3f47cb07	0.7804417
144	0x3b6b6700	0.0035919547
145	0x3f2a71f2	0.66580117
146	0xbd3c7558	-0.046010345
147	0x3e99aa0a	0.30012542
148	0xbdc6a556	-0.09699504
149	0xbfae9581	-1.3639375
150	0xbf1b05af	-0.6055555
151	0x3de6b0a2	0.11264159
152	0x3f853664	1.0407224
153	0xbe6d2ebd	-0.2316236
154	0xbf79665c	-0.97421813
155	0xbd44601c	-0.04794322
156	0x3ec59984	0.38593686
157	0xbf09f5d7	-0.53890747
158	0xbf72ad24	-0.9479544
159	0x3f313000	0.6921387
160	0xbf2456c0	-0.6419487
161	0x3db3eb6f	0.0878514
162	0xbf2b52ce	-0.66923225
163	0xbf9102ed	-1.1329018
164	0xbf6d93d6	-0.92803705
165	0xbee0c1eb	-0.43897948
166	0xbebf9272	-0.37416416
167	0x3fb71f49	1.4306422
168	0xbf0d5070	-0.5520086
169	0xbfb97ef6	-1.449187
170	0x3d847adc	0.06468746
171	0x3e428e94	0.18999702
172	0xbec0225e	-0.3752622
173	0x3edf28a0	0.43585682
174	0x3d87363e	0.06602143
175	0x3dcb3a84	0.0992327
176	0x3e1577d0	0.14596486
177	0x3fa018b2	1.2507536
178	0x3f642abb	0.891277
179	0xbd43ad18	-0.047772497
180	0xbe97629c	-0.2956742
181	0x3d2e30c4	0.042526975
182	0x3fb1b351	1.3882848
183	0xbea1cb07	-0.3160021
184	0xbed2acb9	-0.41147402
185	0xbeca97ec	-0.39569032
186	0x3f4f64a4	0.8101294
187	0x3f580eaa	0.84397376
188	0xbf08fa97	-0.5350737
189	0xbe64cd3c	-0.22343916
190	0x3f1bd899	0.60877377
191	0x3eaede72	0.34154087
192	0xbf3c952a	-0.73665106
193	0xbfcfdc46	-1.6239097
194	0x3f0fe1ed	0.5620411
195	0x3eed73df	0.46377465
196	0xbf80c744	-1.0060811
197	0x3e517318	0.20454061
198	0x3f473484	0.7781451
199	0x3e97a34c	0.29616773
200	0xbf27fc5c	-0.65619445
201	0x3e3bcfd4	0.18340999
202	0xbf0c396c	-0.5477512
203	0xbf2fd4bd	-0.6868399
204	0xbe90f50f	-0.28311965
205	0xbee889d4	-0.45417655
206	0x3f82b0a3	1.0210155
207	0xbf82b3ca	-1.0211117
208	0x3f705397	0.9387755
209	0x3ec92706	0.39287585
210	0xbf995619	-1.19794
211	0x3f84d171	1.0376416
212	0xbe7fd91c	-0.24985164
213	0xbd29c184	-0.041444317
214	0x3f3c735b	0.7361352
215	0xbf35f6ae	-0.7107953
216	0xbf720417	-0.9453749
217	0xbf4f1ae5	-0.8090041
218	0x3f1790b6	0.59205186
219	0xbf83ac83	-1.0287021
220	0x3e43e188	0.19129002
221	0x3f1419a6	0.57851636
222	0x3ec2a15e	0.38013738
223	0xbe571a72	-0.21006182
224	0xbebc709a	-0.36804658
225	0xbec113f5	-0.37710539
226	0x3f9c6801	1.221924
227	0xbe868676	-0.2627446
228	0xbebc94d4	-0.36832297
229	0x3f2ac398	0.667047
230	0xbf930e5e	-1.148876
231	0x3eeee7ac	0.46661127
232	0x3f0c6d31	0.5485411
233	0x3fa674bb	1.3004373
234	0x3ec0441f	0.37551972
235	0x3f8f92ac	1.1216636
236	0x3e4e46f8	0.2014426
237	0xbe5d7f9e	-0.21630713
238	0xc0016b3a	-2.0221696
239	0xbfd7ca40	-1.6858597
240	0x3e81eb58	0.25374866
241	0x3fb6b6d2	1.4274542
242	0xbf055724	-0.5208609
243	0x3e66d2da	0.22541371
244	0x3f6c838d	0.9238823
245	0x3d469af0	0.048487604
246	0x3f21dd43	0.63228244
247	0x3f415c06	0.7553104
248	0x3f9a9b39	1.207862
249	0x3db1d246	0.086826846
250	0x3f676ac8	0.9039731
251	0xbdfb84b0	-0.122811675
252	0x3eb09b4c	0.34493482
253	0x3f23532a	0.63798773
254	0xbfbccc39	-1.4749824
255	0x3e343c15	0.17601044
