kvs/meta-llama_Llama-2-7b-hf_MEMIT/P19_P21_layer_8_clamp_4_case_22532.npz (npz, 16650 bytes, 1 tensors)

v_star f4 [4096]
-2.04207 2.327448 -3.298847 -1.1748838 -0.7093371 3.5664177 5.0133014 -2.2945826
-2.8072155 -2.3474486 5.3608937 -1.1834149 3.4911678 -3.9351845 1.3640707 1.835738
-2.2276788 0.22001484 3.2848444 -4.4945087 1.0821594 -1.4423293 -2.760688 -3.9617338
4.3787146 2.373819 -2.5302737 -4.632472 -0.86795807 3.2011592 1.7045598 1.5011519
1.5560919 -1.4465929 -2.1373825 2.5390835 0.3062797 3.5723834 -3.892815 -3.3846242
-3.6629434 -1.0633775 4.71024 -0.6063354 -2.625395 3.3410363 4.8885612 0.13942531
0.3855982 -4.3569956 -0.5465656 1.8975257 4.1334376 -3.5607615 -5.6459785 -2.571183
1.7717134 -3.69693 0.7466811 -1.7029911 2.6414192 -0.86743253 -4.5723977 4.6108737
-0.46534586 -3.8822703 0.5123154 2.1161118 -3.4988089 -3.8381908 3.3894126 -0.6473066
5.04526 -0.15981902 1.0175685 3.179527 1.8769479 -5.6688285 1.3393464 2.5389848
-1.3494048 -3.995393 3.22784 -3.0452788 -5.8791075 -2.0111654 1.3072773 -2.9861045
-1.9749508 -2.2648244 -3.0427346 -1.0556316 5.2645745 -1.1916595 -10.337044 0.95513296
-3.4127617 4.379759 2.721414 0.4461332 1.960998 -2.3095984 -2.7974489 -1.7004671
-0.25679225 -2.3466232 -0.2297387 -1.0726287 -4.303636 -0.20165795 -1.339208 -4.9668226
3.7519095 -1.046508 0.113821544 -3.6868548 -2.383119 0.9090657 3.1435444 2.4387298
-4.809848 -4.4656696 2.695809 -6.0632124 5.236282 4.49484 -5.2309947 -0.009310827
0.8397549 -1.724263 -2.3766274 3.5138628 2.5230536 1.8229884 0.2290296 2.6111598
-2.120283 -1.2431177 -3.6832216 -3.7062626 -2.0383174 2.7681847 -2.7170808 -3.9705918
-1.2210462 4.4232945 0.783129 3.1665542 0.66438323 -0.6650717 -2.734034 -0.19755557
0.8241693 1.4946007 -2.190831 1.3299382 -4.751607 -0.90005314 -3.6420553 2.54093
-0.9204897 -1.7593465 3.1400428 -1.8375154 -1.6147193 0.8710956 -4.1476192 1.2325995
-4.1639915 -0.4004029 -4.4840336 3.3095005 -1.3411984 0.75967383 -2.232383 2.2398188
2.8316197 2.6636474 -2.7726512 0.5430443 -3.6307354 -1.5466789 0.84230316 -0.8320168
-1.6123451 4.890164 -2.6140964 0.63781804 1.9368031 3.1799097 0.8479676 2.715824
3.7600095 -5.8606763 -2.3068655 2.9480577 1.0403373 0.5264211 -4.2436824 -3.2194135
-2.8998992 -3.048333 -0.5401447 3.5625255 4.8210764 -1.0067452 2.0899656 -0.16049826
3.843894 -0.87846816 2.1904426 3.0463758 5.2981634 4.4005795 -1.2727844 -3.0195913
-3.912335 -3.0505726 -4.748735 -1.2501746 2.9461243 2.4275055 4.54483 3.8814013
0.24161038 -2.230525 -0.12654969 -4.187754 -3.129173 -3.5200212 -1.7650286 0.25525028
1.3241473 -5.0533495 2.9668314 1.0145731 1.9483763 -0.97756076 -1.425679 -2.7219172
-0.4041761 2.8672326 -3.4405968 -3.4509768 -0.8361225 4.322411 -2.7078276 4.864124
-3.9572945 -3.5121799 -0.4831252 0.8610448 -1.1287869 6.0746603 -2.8142195 2.7446835
00000000: 46b1 02c0 e8f4 1440 4f20 53c0 9862 96bf
00000010: 1e97 35bf 3040 6440 f76c a040 71da 12c0
00000020: 6ba9 33c0 993c 16c0 718c ab40 247a 97bf
00000030: 4b6f 5f40 10da 7bc0 de99 ae3f 76f9 ea3f
00000040: 4a92 0ec0 924b 613e e43a 5240 04d3 8fc0
00000050: 3384 8a3f 3f9e b8bf 1daf 30c0 0c8d 7dc0
00000060: 6e1e 8c40 a7ec 1740 01f0 21c0 363d 94c0
00000070: 8032 5ebf cbdf 4c40 042f da3f bf25 c03f
00000080: 052e c73f f529 b9bf e0ca 08c0 5880 2240
00000090: b1d0 9c3e eea1 6440 e223 79c0 af9d 58c0
000000a0: aa6d 6ac0 c11c 88bf 49ba 9640 cc38 1bbf
000000b0: 7906 28c0 8ad3 5540 186f 9c40 82c5 0e3e
000000c0: 216d c53e 826c 8bc0 b9eb 0bbf 1fe2 f23f
000000d0: 1f45 8440 84e3 63c0 dbab b4c0 438e 24c0
000000e0: 81c7 e23f 809a 6cc0 7e26 3f3f 9dfb d9bf
000000f0: 030d 2940 0f10 5ebf 1551 92c0 478c 9340
00000100: d041 eebe 1e77 78c0 1a27 033f 606e 0740
00000110: 7cec 5fc0 eba4 75c0 23ec 5840 e3b5 25bf
00000120: c572 a140 99a7 23be af3f 823f 5f7d 4b40
00000130: d43f f03f 0b67 b5c0 b46f ab3f ba7e 2240
00000140: 4cb9 acbf 85b4 7fc0 ee94 4e40 d9e5 42c0
00000150: a621 bcc0 efb6 00c0 dd54 a73f 561c 3fc0
00000160: 30cb fcbf e2f2 10c0 2abc 42c0 f01e 87bf
00000170: 6577 a840 4c88 98bf 8864 25c1 9883 743f
00000180: b06a 5ac0 fc26 8c40 a62b 2e40 926b e43e
00000190: fc01 fb3f 76d0 13c0 6709 33c0 e8a8 d9bf
000001a0: 467a 83be 132f 16c0 9f40 6bbe e64b 89bf
000001b0: 63b7 89c0 6c7f 4ebe 2b6b abbf 36f0 9ec0
000001c0: 491f 7040 f9f3 85bf 451b e93d 6ef5 6bc0
000001d0: 0685 18c0 88b8 683f d52f 4940 2614 1c40
000001e0: 46ea 99c0 c4e6 8ec0 2288 2c40 d605 c2c0
000001f0: 9f8f a740 bbd5 8f40 4f64 a7c0 708c 18bc
00000200: 2dfa 563f a6b4 dcbf aa1a 18c0 21e3 6040
00000210: b679 2140 af57 e93f bc86 6a3e 3e1d 2740
00000220: b7b2 07c0 7b1e 9fbf e7b9 6bc0 6833 6dc0
00000230: cb73 02c0 f029 3140 a7e4 2dc0 2d1e 7ec0
00000240: 3e4b 9cbf a18b 8d40 247b 483f d3a8 4a40
00000250: 0515 2a3f 2442 2abf 6afa 2ec0 024c 4abe
00000260: c2fc 523f 134f bf3f 9336 0cc0 6a3b aa3f
00000270: 2a0d 98c0 e269 66bf 6f17 69c0 999e 2240
00000280: 37a5 6bbf 4432 e1bf 76f6 4840 b433 ebbf
00000290: 1faf cebf 1f00 5f3f 4cb9 84c0 d2c5 9d3f
000002a0: 6b3f 85c0 9c01 cdbe 347d 8fc0 dbce 5340
000002b0: 64ac abbf fc79 423f 5ddf 0ec0 3159 0f40
000002c0: 4239 3540 3379 2a40 1e73 31c0 f404 0b3f
000002d0: f85d 68c0 93f9 c5bf 2ea1 573f 0eff 54bf
000002e0: 5361 cebf 397c 9c40 5b4d 27c0 0b48 233f
000002f0: 2ae9 f73f a483 4b40 6814 593f 0fd0 2d40
00000300: ffa3 7040 a98a bbc0 afa3 13c0 faac 3c40
00000310: c629 853f 89c3 063f 3fcc 87c0 df0a 4ec0
00000320: f397 39c0 e317 43c0 ec46 0abf 6b00 6440
00000330: 4246 9a40 07dd 80bf ffc1 0540 a859 24be
00000340: 5c02 7640 4ae3 60bf 3630 0c40 d2f7 4240
00000350: 8e8a a940 8cd1 8c40 99ea a2bf fc40 41c0
00000360: b263 7ac0 953c 43c0 a3f5 97c0 b905 a0bf
00000370: 4d8d 3c40 405c 1b40 3f6f 9140 e168 7840
00000380: b668 773e ecc0 0ec0 3e96 01be 1502 86c0
00000390: 5f44 48c0 0748 61c0 75ec e1bf 2ab0 823e
000003a0: a97d a93f 0ab5 a1c0 91e0 3d40 88dd 813f
000003b0: 6564 f93f 6c41 7abf a67c b6bf e433 2ec0
000003c0: 2bf0 cebe bd80 3740 bd32 5cc0 cedc 5cc0
000003d0: 200c 56bf 3151 8a40 0c4d 2dc0 e7a6 9b40
000003e0: 5044 7dc0 8ec7 60c0 305c f7be 6f6d 5c3f
000003f0: 177c 90bf 9e63 c240 2c1c 34c0 e5a8 2f40
