kvs/meta-llama_Llama-2-7b-hf_MEMIT/P21_P101_layer_8_clamp_4_case_22146.npz (npz, 16650 bytes, 1 tensors)

v_star f4 [4096]
0	0xbfaf7959	-1.3708907
1	0xc0729668	-3.79043
2	0xc05d724f	-3.4601018
3	0x3fc262f2	1.5186446
4	0xbe8241bf	-0.25440785
5	0x3db85bcb	0.09001883
6	0x3f457751	0.7713519
7	0xc089ad11	-4.3023763
8	0xbf6616a7	-0.89878315
9	0xbf885b46	-1.0652854
10	0x3f31760e	0.6932076
11	0x3e6d7d68	0.2319237
12	0x4037f7a5	2.87449
13	0xc010d9f6	-2.2633033
14	0xbfdac954	-1.709269
15	0x3ead3ed6	0.33837003
16	0xc0200b00	-2.5006714
17	0xc031b579	-2.7767012
18	0xbfe2a407	-1.7706307
19	0x3fb06a0f	1.3782367
20	0xc02110b2	-2.516644
21	0xbffaf506	-1.9606025
22	0x3f82dc6c	1.0223517
23	0xc018fcb6	-2.3904243
24	0x3e594309	0.21216978
25	0x3fabc5dc	1.3419757
26	0x3f96326f	1.1734141
27	0x3f554f94	0.8332455
28	0xc0651c54	-3.579854
29	0xc02d8806	-2.7114272
30	0xc03baa9e	-2.9322886
31	0x401a7a03	2.413697
32	0x3f8d5994	1.1042962
33	0xc05c5621	-3.442757
34	0xc00ac386	-2.1681838
35	0xc03f7206	-2.9913344
36	0xbead0eee	-0.33800453
37	0x3fec8c62	1.8480341
38	0x3f217fd2	0.63085663
39	0x3ff8f565	1.9449888
40	0xc0692490	-3.6428566
41	0x40164eb2	2.3485532
42	0xbf9fc51e	-1.248203
43	0x3fceb688	1.6149454
44	0x3fe2b91f	1.7712744
45	0xbfebd0f2	-1.842314
46	0xc01e8cf2	-2.4773526
47	0x40161604	2.3450937
48	0x3fc4bb21	1.5369607
49	0xbf1c7c1f	-0.61126894
50	0x400862ee	2.1310382
51	0xc0313090	-2.768589
52	0x400ce9aa	2.2017617
53	0x3eab7648	0.3348868
54	0xbfe3e398	-1.7803831
55	0x3f326b0a	0.6969458
56	0xbfc3c0f8	-1.5293264
57	0x406c6609	3.6937277
58	0xc0069316	-2.1027274
59	0xbfc96025	-1.5732466
60	0x3f718848	0.94348574
61	0x3eeb7f73	0.45995674
62	0x40308676	2.7582068
63	0x403a40e5	2.9102108
64	0xc0234737	-2.5512216
65	0xbee9951b	-0.4562157
66	0xc06083bc	-3.5080404
67	0xbea293e1	-0.31753448
68	0xc02635aa	-2.5970254
69	0x3fae4ad1	1.3616582
70	0xc00e116a	-2.2198129
71	0xbf8e57fe	-1.1120603
72	0xbedd33f7	-0.4320371
73	0x3fae8ba2	1.3636363
74	0x406bc106	3.6836562
75	0x3fd2f00f	1.647951
76	0x3ffd1ec6	1.9775016
77	0xbec1fa4b	-0.3788627
78	0xbedf33fa	-0.43594342
79	0x403e7a5b	2.976218
80	0xbf9b1daa	-1.2118428
81	0x3f89d0c7	1.0766839
82	0x40756450	3.8342476
83	0x4026324d	2.59682
84	0x3f8644d4	1.0489755
85	0x3fa979b7	1.324027
86	0x4038b114	2.885808
87	0xbfd189ae	-1.6370142
88	0xbfc2fce0	-1.5233421
89	0x400050b2	2.0049253
90	0x4000cff4	2.0126925
91	0x3e90ecb3	0.28305587
92	0x3ee5aebb	0.4485987
93	0xbd255230	-0.040361583
94	0xc0eb7fd7	-7.3593554
95	0xc05d49fb	-3.4576404
96	0xbff0059b	-1.8751711
97	0xc06a1a83	-3.6578681
98	0xc0543204	-3.3155527
99	0x3e40e052	0.18835571
100	0xc01c512a	-2.4424539
101	0xc053ba18	-3.3082333
102	0x3fdf3733	1.743872
103	0x3eeda378	0.4641378
104	0xc0182577	-2.3772867
105	0xc000c822	-2.0122151
106	0xbfb7e31c	-1.4366183
107	0xbf955b6a	-1.1668522
108	0x3fceccd0	1.6156254
109	0xbfb78607	-1.4337777
110	0xbe3cf61b	-0.18453257
111	0xbffec039	-1.9902412
112	0x40377565	2.8665402
113	0x3f90caba	1.1311867
114	0xbfb4c24a	-1.4121792
115	0x3fe7dcd7	1.811427
116	0xc05acf39	-3.4188979
117	0x3fa9f5d6	1.3278148
118	0x3fc97c6d	1.5741097
119	0x3fd92b6d	1.6966377
120	0xc005ddbe	-2.091659
121	0x3eb20d18	0.34775615
122	0xc015715f	-2.3350446
123	0xc05ebbac	-3.4802046
124	0x40418ef8	3.0243511
125	0x3fbe83f6	1.4884021
126	0xc06f0607	-3.7347429
127	0xbfe3cccd	-1.7796875
128	0x40076558	2.1155605
129	0x401c7f61	2.4452746
130	0xc03e7840	-2.9760895
131	0x40181288	2.376131
132	0x3fd31122	1.6489604
133	0xc05867f8	-3.3813457
134	0xc03b2213	-2.9239547
135	0x4080f767	4.0302005
136	0xbf9ffc08	-1.2498789
137	0x3f775ad8	0.9662299
138	0x400f9c95	2.243932
139	0xbfd5ea4c	-1.6712127
140	0xc052203c	-3.2832174
141	0xbed2c0f8	-0.41162848
142	0xbfb20e1d	-1.3910557
143	0x4000eb09	2.0143454
144	0x3ffbac6c	1.9661994
145	0x4021fd91	2.5311015
146	0xc03111f4	-2.7667208
147	0x3ebfd06e	0.37463707
148	0x403dad1d	2.963691
149	0xbf8953e6	-1.0728729
150	0x40092d68	2.1433964
151	0x404bb1b1	3.1827204
152	0x3e8e539b	0.2779816
153	0xbdd97418	-0.10617846
154	0xbfb808d0	-1.4377689
155	0x3f8de778	1.1086264
156	0x400612cd	2.0948975
157	0x40037f86	2.0546584
158	0xbf266d3a	-0.65010417
159	0x3f956340	1.1670914
160	0x40387dd5	2.8826802
161	0xc0284507	-2.629213
162	0x3fc56323	1.5420879
163	0xbfa0b8c4	-1.2556386
164	0x40651055	3.5791218
165	0x3f254246	0.6455425
166	0x3f3fb55a	0.74886096
167	0x4025a7ae	2.5883594
168	0x3dd1905e	0.10232614
169	0x3f8f723f	1.120674
170	0x3fc66c46	1.5501792
171	0x406805e7	3.6253603
172	0xc03966f8	-2.8969097
173	0xbfb69912	-1.4265463
174	0xc04c3985	-3.1910107
175	0x403a6b59	2.912802
176	0x3f7cf495	0.988107
177	0x3e337444	0.1752482
178	0xc0398757	-2.8988855
179	0xbfb77efc	-1.4335628
180	0xbf9fff03	-1.2499698
181	0xbffbad6a	-1.9662297
182	0x3f205e1b	0.62643594
183	0x402a6b5a	2.6628022
184	0x3e89c9ca	0.26911765
185	0x4054769d	3.3197396
186	0xc03aa278	-2.9161663
187	0x3f561030	0.8361845
188	0xc024fa00	-2.5777588
189	0x3cd76220	0.026291907
190	0x400ed28c	2.2316008
191	0xbf41677c	-0.7554853
192	0x4037d067	2.8720949
193	0xc0106af8	-2.2565289
194	0xbf469ea8	-0.7758584
195	0xbf964348	-1.1739283
196	0xbf6452bc	-0.8918874
197	0xbf493c00	-0.7860718
198	0xc085b6c6	-4.178561
199	0x401bbd25	2.4334195
200	0xbfd3dc27	-1.655156
201	0x4018a4c5	2.3850567
202	0xbfef4a32	-1.8694518
203	0xbe7e3e58	-0.2482847
204	0x4054ffec	3.3281202
205	0x3f7a84af	0.9785871
206	0xc0309f27	-2.759714
207	0x3fdef132	1.7417357
208	0x3e875f42	0.26439863
209	0x3fcd4b12	1.6038535
210	0x3c5d5560	0.0135091245
211	0xbf41770a	-0.75572264
212	0x40867745	4.2020593
213	0xbf5fd6f9	-0.874374
214	0xbf94befe	-1.1620786
215	0x3f90b5b9	1.1305457
216	0xc0242f05	-2.5653698
217	0x3f3fc22d	0.74905664
218	0xbdcd757e	-0.100321755
219	0x3ff793f8	1.9342031
220	0x3fdd0a7c	1.7268825
221	0xbf5fae9e	-0.8737582
222	0x3f3c82bf	0.73637
223	0xc0119431	-2.27467
224	0x405e726a	3.4757333
225	0x3faea8f2	1.3645308
226	0x3fa6e0b0	1.3037319
227	0xbff08e3a	-1.8793404
228	0xc016f9e8	-2.359003
229	0xc089b42a	-4.3032427
230	0x3f1d458b	0.6143424
231	0xc04a06c3	-3.1566627
232	0x3fcd9721	1.6061746
233	0xbf7db3de	-0.9910258
234	0x4030ddbb	2.7635334
235	0xc0179470	-2.368435
236	0xc04899d5	-3.1343892
237	0xc0704596	-3.7542472
238	0x3f2b28a3	0.6685888
239	0xbffd8996	-1.9807613
240	0x4037b079	2.870146
241	0x3f9ffd6f	1.2499217
242	0xc01b875f	-2.4301374
243	0x3e417b5c	0.18894714
244	0x3f308e59	0.68967205
245	0x400d294e	2.205646
246	0xbfec6f1e	-1.847141
247	0xbf7603fa	-0.9609982
248	0xc04f728c	-3.2413664
249	0x40401315	3.0011647
250	0xc0094f71	-2.1454737
251	0x400a1ec8	2.1581287
252	0x40096226	2.1466155
253	0x40623431	3.5344355
254	0x3fb3618b	1.4014143
255	0x3f88a626	1.0675704
