kvs/meta-llama_Llama-2-7b-hf_MEMIT/P21_P101_layer_8_clamp_4_case_22011.npz (npz, 16650 bytes, 1 tensors)

v_star f4 [4096]
0.52053386 1.3353778 1.7383815 -0.611064 0.28775188 1.2822342 1.310786 -0.88334095
-0.93955404 1.0072801 -0.21785145 -0.39143097 -0.33038604 -1.3711754 -1.5443456 -0.5963894
1.3835034 -0.18801537 1.4039295 0.9527579 0.8037078 -1.3696268 -0.7415861 -1.3602283
0.22161306 1.4345473 -0.25288656 -1.179111 -0.9037282 0.052982084 -0.01984219 1.1379323
1.0818431 -1.1059723 -1.2757676 -0.44647288 0.014647145 0.3900512 -0.54611456 0.89936566
-1.7574985 -1.0725124 1.3640618 -0.48398182 0.8383133 0.7788028 0.36781895 -1.338098
2.0454214 -0.8452314 -0.91431975 -0.10836464 -0.20271224 -1.2344974 0.14867654 1.3624792
0.76374936 -0.04982447 0.68497026 -0.9087489 -0.7133784 -0.5560262 0.85940915 1.1073239
0.70576656 0.36682472 -0.027662985 -0.4455421 1.0952528 0.7804339 0.13128059 -1.1145483
0.10641157 -0.35118717 0.8707969 -0.57575446 1.5205808 0.058531385 -0.96145296 -0.60880876
-0.9287 -0.758564 0.68972373 -0.26411742 -1.2665277 0.34041986 1.4217412 -0.41017368
-0.59971267 -0.5519799 -0.36882883 0.07642189 0.83337986 -0.5835765 -1.9271355 -0.49635965
-0.4085067 0.037598692 -0.034711182 -0.62573737 0.7313317 1.0313835 0.59483355 -0.49137458
2.3066146 0.19187406 -0.50427943 -0.9363822 0.2046431 -0.4356417 0.53708863 -0.31777588
0.63405156 -0.78302515 0.50760335 0.095832445 -1.2309185 -0.14110258 0.54094326 0.023536827
-0.88852173 0.082633935 -1.4839606 -0.32485935 0.09693229 -1.256251 -1.1279508 -1.7697223
0.36383474 0.7358574 0.246613 0.017062731 0.18485253 -0.043815766 -0.4442721 0.23517916
-0.873404 1.3355829 1.5725781 -0.5755092 -0.097578265 0.5937309 0.7703089 0.90294886
-1.1062576 -0.13877198 -0.1562046 0.3062364 0.16150819 1.296337 -0.33281875 -0.43161917
0.22524941 1.1645827 0.20280829 -0.35141966 0.49516714 -0.30031624 0.82128817 0.044777125
-0.20835832 0.30403653 0.5472586 1.3448447 1.2285622 0.116072625 -1.3002756 1.6355982
0.44454363 -0.8512579 0.64815986 -0.8709444 -0.54395896 0.5964323 -0.72454023 0.724825
0.05814771 0.34475055 -0.09868066 -1.5150557 -0.66234237 -0.9021462 -0.14609647 0.7526484
0.59723866 0.020337436 0.43678144 0.23708329 -0.2115809 -1.1288475 -0.6285083 -0.6392197
-0.15044902 -1.1268629 0.22318846 -0.46427768 -0.20912285 0.3563286 -0.20044984 -0.4738527
-1.152684 1.0142146 0.8436162 -1.3539269 1.6427056 -1.1708256 0.59923416 0.7284512
-0.22730121 -0.30707586 0.77796364 -0.043633007 -1.8814936 0.0764547 0.24402168 -0.26892468
1.1415894 0.72384745 -0.7175373 0.39148283 0.39013076 1.1414957 -0.24043174 0.9771291
-0.15021281 0.29573244 0.585077 -0.41620007 -1.1241881 -1.0221431 0.56685144 0.15293258
-1.5155277 -0.3103471 0.2608384 -1.0463077 -1.0711203 0.05785371 0.120612055 1.7303385
1.37267 0.34031442 0.4668405 0.44993314 -0.8876188 -0.9573874 -0.686744 -0.06602438
-0.15529928 0.90174526 1.0783215 -0.85242116 1.4071227 0.9628624 -0.11630283 -0.6197765
00000000: b541 053f a9ed aa3f 4983 de3f b16e 1cbf
00000010: 3754 933e 4020 a43f d6c7 a73f a222 62bf
00000020: 9d86 70bf 8eee 803f 7314 5fbe a469 c8be
00000030: 5c28 a9be ad82 afbf 1ead c5bf faac 18bf
00000040: a416 b13f 1a87 40be f6b3 b33f f1e7 733f
00000050: cbbf 4d3f ee4f afbf 96d8 3dbf f61b aebf
00000060: 89ee 623e 3f9f b73f 597a 81be 1ced 96bf
00000070: bb5a 67bf be03 593d 178c a2bc c4a7 913f
00000080: d679 8a3f 8090 8dbf 5a4c a3bf 1898 e4be
00000090: 94fa 6f3c cab4 c73e 2ace 0bbf d43c 663f
000000a0: b6f5 e0bf 1648 89bf 9499 ae3f 77cc f7be
000000b0: b39b 563f 9f5f 473f c452 bc3e cc46 abbf
000000c0: 2fe8 0240 1661 58bf dc10 6abf 48ee ddbd
000000d0: cc93 4fbe 0304 9ebf aa3e 183e b865 ae3f
000000e0: 1485 433f be14 4cbd 365a 2f3f c5a3 68bf
000000f0: f89f 36bf bc57 0ebf 3d02 5c3f cabc 8d3f
00000100: 1ead 343f 73d0 bb3e 7c9d e2bc 181e e4be
00000110: 3e31 8c3f 84ca 473f 6b6e 063e 85a9 8ebf
00000120: 4fee d93d cece b3be 8cec 5e3f a564 13bf
00000130: 64a2 c23f 9bbe 6f3d c821 76bf e4da 1bbf
00000140: 48bf 6dbf 4031 42bf bc91 303f 663a 87be
00000150: 941d a2bf 834b ae3e 9efb b53f 4902 d2be
00000160: c586 19bf 8e4e 0dbf 22d7 bcbe 1483 9c3d
00000170: 6258 553f 4565 15bf 60ac f6bf da22 febe
00000180: ca27 d1be 1601 1a3d 502d 0ebd 5330 20bf
00000190: 8e38 3b3f 6004 843f 0347 183f 7395 fbbe
000001a0: 939f 1340 a27a 443e 7518 01bf beb6 6fbf
000001b0: f68d 513e 6e0c dfbe a47e 093f 85b3 a2be
000001c0: 3451 223f 5674 48bf 4bf2 013f cd43 c43d
000001d0: bd8e 9dbf 327d 10be 427b 0a3f 4ed0 c03c
000001e0: 2976 63bf fb3b a93d 6cf2 bdbf f753 a6be
000001f0: 7084 c63d d5cc a0bf b160 90bf 4386 e2bf
00000200: 8c48 ba3e 2761 3c3f 1e88 7c3e 24c7 8b3c
00000210: fb49 3d3e 2978 33bd a277 e3be ced2 703e
00000220: 6897 5fbf 61f4 aa3f 3d4a c93f 9254 13bf
00000230: 1dd7 c7bd c0fe 173f f732 453f a827 673f
00000240: d999 8dbf 3e1a 0ebe 19f4 1fbe 04cb 9c3e
00000250: 6762 253e 5fee a53f 3867 aabe 30fd dcbe
00000260: c8a7 663e 0c11 953f faac 4f3e 47ed b3be
00000270: 8c86 fd3e 0dc3 99be f13f 523f 3868 373d
00000280: e25b 55be adaa 9b3e 2419 0c3f df23 ac3f
00000290: 8741 9d3f 7cb7 ed3d 6e6f a6bf 485b d13f
000002a0: 399b e33e 0aec 59bf ceed 253f 36f6 5ebf
000002b0: e540 0bbf caaf 183f 787b 39bf 228e 393f
000002c0: 4b2c 6e3d 2583 b03e 1619 cabd 58ed c1bf
000002d0: 458f 29bf 0ef3 66bf 509a 15be 91ad 403f
000002e0: a2e4 183f b29a a63c d1a1 df3e f6c5 723e
000002f0: aaa8 58be 137e 90bf ece5 20bf e7a3 23bf
00000300: 4f0f 1abe 0b3d 90bf 848b 643e ceb5 edbe
00000310: 4d24 56be b470 b63e b942 4dbe d29c f2be
00000320: 268b 93bf c9d1 813f 3bf7 573f 7a4d adbf
00000330: 2d44 d23f 9ddd 95bf 6967 193f c77b 3a3f
00000340: a6c1 68be 0c39 9dbe a028 473f 86b8 32bd
00000350: c8d4 f0bf 4894 9c3d d2e0 793e 7fb0 89be
00000360: 9a1f 923f 114e 393f 86b0 37bf 7070 c83e
00000370: 38bf c73e 881c 923f bd33 76be 2225 7a3f
00000380: 63d1 19be 3e6a 973e 9bc7 153f 2d18 d5be
00000390: 65e5 8fbf 96d5 82bf 2d1d 113f 5c9a 1c3e
000003a0: d0fc c1bf d1e5 9ebe 9c8c 853e 69ed 85bf
000003b0: 781a 89bf 03f8 6c3d 7403 f73d bb7b dd3f
000003c0: a7b3 af3f b13d ae3e b805 ef3e a35d e63e
000003d0: fc3a 63bf 5717 75bf 74ce 2fbf ca37 87bd
000003e0: c606 1fbe c7d8 663f 7006 8a3f 4638 5abf
000003f0: 991c b43f 267e 763f 2e30 eebd aca9 1ebf
