kvs/meta-llama_Llama-2-7b-hf_MEMIT/P21_P101_layer_8_clamp_4_case_22095.npz (npz, 16650 bytes, 1 tensors)

v_star f4 [4096]
00000000: 98e2 7fbf 7a29 843e f692 ba3f 8538 d73f
00000010: 47a8 3ebf 6083 123e 0230 f13e 735d 1fbf
00000020: 4180 c43e 9447 1a3f 2848 6f3e 080d 21bd
00000030: 8e8a e1be fcf5 6e3f fa63 62bf 7b9b 6abe
00000040: 6e1e f03e 9036 c03c f69f bcbf f0f1 5e3f
00000050: 062a 81bf b111 79bf 2d9f cdbf 43f5 693f
00000060: 1c6a 68bf f1cc 26bf 82d4 b53e 83c1 58bf
00000070: c441 09be f77c 8dbf 0fbf e9bf 8469 94bd
00000080: 3e78 993d 376f febd 0811 2fbf 18b4 d53f
00000090: 6e0f e6bd c2fb 7b3f 5688 01bf 319b 1a3f
000000a0: 8e8f 1ebe 58fe 3fbd 03be 0dbf 8a89 743e
000000b0: fd76 853f 746f b4bf 333a 283f 303f 80bf
000000c0: 6175 41bf 6ee4 ddbf 0721 20be 4be8 503f
000000d0: a021 a6bf 2417 81be f515 b5be 7092 0fbf
000000e0: e68a dfbe 039f c73f 00c0 dfbe 2724 b6bd
000000f0: 2272 c5bf b456 773e ebba 633f d46e b63f
00000100: 377c e9bf d6f4 063f 0550 283f 4a7c b13e
00000110: a202 7dbf d080 c1be 0b6e 25bf 159d 253f
00000120: 5fc0 a9bf 6230 93bf 6402 a53f 03be b6bd
00000130: d4b3 d03f a11c b93f cbe7 ddbf c91c c33f
00000140: db18 683f 2cda 89be b009 f53f b25a ed3d
00000150: 866d 5b3e ab90 ac3f 3b78 e13f 4a02 1fbe
00000160: acff e7be a456 afbe 9351 3fbf 0f39 0abe
00000170: 18b8 3cbe f985 e43f b5e6 cdbf fad8 dbbf
00000180: e85c bbbe 009d 19bf 5044 df3e b831 88bf
00000190: 376c cbbf 046e d5bd 28d3 f53e ed7b 04bf
000001a0: 6efc 333f 9814 073f 0ce3 18bf a522 eabe
000001b0: ed5d 1b3f 6865 23bf 549c 893f b637 2cbe
000001c0: dbea 9fbe f8a0 6cbd 80e3 43be 1aeb edbf
000001d0: ee5f 113e f765 88bf 84b0 23bf 236b 283f
000001e0: 4493 17bf 7230 163e 350b a8bf 826f 29bf
000001f0: 0023 6a3e 54fb 98be 4a22 2fbf 0074 c93e
00000200: 7165 b7bf 228c 9cbf 023c 183f 9715 873f
00000210: 76b8 2fbf e2d9 51bf 5acd 96bf 92ec 29bf
00000220: 90d8 c63e d4c5 073f 6665 b63f eb2b d7bf
00000230: e484 a5bf 6bb0 47bf d641 09bf 4a48 2cbe
00000240: 445c a3be a634 003f 285f 44bf 6a10 febe
00000250: b157 7f3f 71f5 95bf e9c6 013f eebb d8be
00000260: 69bf 58bf 664c 9b3d b6ab df3e 28af 96be
00000270: ecb5 87bf 2e10 153e 64b2 36bf 59a8 42bf
00000280: 4a02 0f3e 96a1 7e3f 8c23 3f3f 80c4 643e
00000290: 58c8 8bbe 9f64 a0be 1862 4a3f 2c26 34bd
000002a0: b39b 93bd b608 323e b445 03c0 923e 25bf
000002b0: 4df3 a63f 61f0 573f 923d 083e a677 823f
000002c0: 845b 70bf bbe9 e43e 3ae2 f03e cf1f 57bf
000002d0: 7442 bebf 9210 1a3f 7247 f4be 3e0d 30bf
000002e0: bcc4 8e3f 6cba 25bf a9bd 533f c9d0 d13e
000002f0: c68b 813f 782a 27bf da99 5bbf 0084 fb3f
00000300: ff64 263f f5ab 1cbf b699 5a3e b9cb ebbf
00000310: fab1 4e3f d031 b73f ad5c 8abf cbfc 383f
00000320: efac ccbf 2a78 d6be 2ba2 e8be 00db 523f
00000330: b9bb 243f a9a2 8f3f c87f f9be 5bbd 183f
00000340: 4647 e3be b27c 723f 6a9d 213f 0f95 8cbf
00000350: cb16 923f 72a2 ebbd ccd8 323f 2499 8ebe
00000360: c26e f9be 6533 333f fd37 a4bf 1806 85be
00000370: d2f3 d93e 1cbf 843f d63e 873e 79a2 393f
00000380: 6e85 573f f5b5 7dbf cfff 4ebf f8d9 86bc
00000390: 6cd9 453f 2f04 23bf a707 133e 66c6 ed3e
000003a0: 6d34 883d c41e df3e 2032 a0bf cf7c 72bf
000003b0: 3c05 d33e 8a93 53be 00f6 bb3e 8c2b 9a3e
000003c0: d27b 883e 7dce 783f 9a36 093f e945 e03f
000003d0: ac01 a5bf dca4 093f d830 83bf 7036 003c
000003e0: 7424 b43f 7a24 f13f 90fb 833f 0ffe 9e3f
000003f0: fe27 59bf 94d8 373f 1aeb 013f 58a4 e33d
-0.9995513 0.25812894 1.4576099 1.6814123 -0.7447552 0.14307928 0.4710694 -0.6225197
0.383791 0.6026547 0.23367369 -0.03931907 -0.4405102 0.9334409 -0.884338 -0.22910874
0.46898216 0.023463517 -1.4736316 0.8708792 -1.009095 -0.9729262 -1.6064202 0.91389865
-0.9078691 -0.65156466 0.35513693 -0.84670275 -0.13403994 -1.1053761 -1.8261431 -0.07246688
0.074936375 -0.12423556 -0.6838536 1.6695585 -0.11233412 0.98431027 -0.5059866 0.60393053
-0.1548445 -0.04687342 -0.5536806 0.23880592 1.0426937 -1.4096513 0.65713805 -1.0019283
-0.7556973 -1.7335336 -0.15637599 0.8160445 -1.2979012 -0.25212967 -0.35368314 -0.5608282
-0.4366066 1.5595402 -0.43701172 -0.08893614 -1.5425456 0.24154168 0.8895709 1.4252572
-1.8241032 0.5271734 0.657471 0.34665138 -0.9883214 -0.3779359 -0.6462104 0.64692813
-1.3261832 -1.149914 1.2891355 -0.089229606 1.6304879 1.4461862 -1.7336363 1.524316
0.90662926 -0.26924264 1.9143581 0.115895644 0.21428499 1.3481649 1.7614816 -0.15528217
-0.4531225 -0.3424579 -0.7473385 -0.13498329 -0.18429601 1.7853385 -1.6086031 -1.7175591
-0.3659432 -0.6000519 0.43606806 -1.0640173 -1.58924 -0.104213744 0.48012662 -0.51751596
0.7030705 0.527658 -0.59721446 -0.45729557 0.60690194 -0.6382661 1.0750833 -0.16818127
-0.31233868 -0.0577707 -0.19129753 -1.8587372 0.1419675 -1.0656117 -0.63941216 0.6578848
-0.59209085 0.14666918 -1.312842 -0.6618577 0.22864914 -0.29879248 -0.68411696 0.39346313
-1.4327832 -1.2230265 0.59466565 1.0553464 -0.6864084 -0.8197309 -1.1781418 -0.663766
0.388371 0.53036237 1.4249694 -1.6810278 -1.293118 -0.7800357 -0.5361608 -0.16824451
-0.3190633 0.50080335 -0.76707697 -0.49621898 0.9974318 -1.1715528 0.5069414 -0.4233088
-0.8466707 0.07582931 0.43685693 -0.2943051 -1.0602393 0.14556953 -0.7136595 -0.7603813
0.13965717 0.9946531 0.74663615 0.22340584 -0.27301288 -0.31326768 0.7905593 -0.043981716
-0.07207432 0.17386135 -2.0511293 -0.645486 1.3043 0.84351164 0.13304737 1.0192764
-0.9388964 0.44709572 0.47047597 -0.8403291 -1.486403 0.60181534 -0.47710758 -0.68770206
1.1153789 -0.6473758 0.82711273 0.40979603 1.012078 -0.6529918 -0.85781634 1.9649658
0.6499786 -0.61199886 0.21347699 -1.8421546 0.8074032 1.4312077 -1.0809532 0.7226073
-1.5990275 -0.41888553 -0.45436224 0.8236542 0.6434894 1.1221515 -0.48730302 0.59663934
-0.44390315 0.9472152 0.6313082 -1.0982989 1.1413206 -0.11505593 0.69862056 -0.27851212
-0.48717314 0.70000297 -1.2829586 -0.25981212 0.42568833 1.0370822 0.26415128 0.7251354
0.8418797 -0.9910577 -0.8085908 -0.016461357 0.77284884 -0.6367826 0.14358388 0.46440428
0.066506244 0.4357816 -1.2515297 -0.9472169 0.4121493 -0.2066175 0.3671112 0.3011135
0.26656967 0.97190076 0.5359894 1.7521335 -1.2891135 0.5376718 -1.0249281 0.007825479
1.4073625 1.8839257 1.0311146 1.2421283 -0.8482665 0.71814847 0.5074936 0.111153305
