kvs/meta-llama_Llama-2-7b-hf_MEMIT/P21_P101_layer_8_clamp_4_case_22028.npz (npz, 16650 bytes, 1 tensors)

v_star f4 [4096]
0	0xbf1510a2	-0.58228505
1	0xbf907489	-1.1285564
2	0xbe5a4b6a	-0.2131783
3	0x3ee28a01	0.44245914
4	0xbe37dbb3	-0.17954902
5	0xbecdb122	-0.40174204
6	0xbf1d5d61	-0.6147061
7	0xbfab63dd	-1.3389851
8	0x3f041dc7	0.51607937
9	0xbc0f8564	-0.00875983
10	0x3fa3ec6a	1.2806523
11	0x3f27aa42	0.6549417
12	0xbf47e27b	-0.78079957
13	0xbf8fa2d0	-1.1221561
14	0xbf6e6e6a	-0.9313723
15	0x3da177ba	0.07884164
16	0xbff2339b	-1.8921999
17	0x3eeaa5ef	0.45829722
18	0xbf8cc841	-1.0998613
19	0xbf252d92	-0.6452266
20	0xc00908b0	-2.1411552
21	0x3f18eaf7	0.5973353
22	0xbfc27fe8	-1.5195284
23	0xbed04f58	-0.40685534
24	0xbf83bc93	-1.0291923
25	0x3ed46d7e	0.41489786
26	0x3f63eea8	0.89036036
27	0xbf806b69	-1.0032779
28	0xbe3ee38e	-0.18641493
29	0x3f27b794	0.65514493
30	0xbe4dfe7c	-0.2011661
31	0xbfb4a9e5	-1.4114348
32	0x3fb85b7d	1.440292
33	0xbfe550c3	-1.7915272
34	0xbeacd7e0	-0.3375845
35	0xbf396bc9	-0.7243009
36	0xbe29dfbe	-0.16589257
37	0xc003c822	-2.0590901
38	0xbf41d456	-0.75714624
39	0x3fb03596	1.3766353
40	0x3f0505d8	0.5196204
41	0x3f3674ef	0.71272177
42	0x3eaf8a26	0.34285086
43	0x3c539a1d	0.012915161
44	0x3f2e174a	0.68004286
45	0xbf6e06ed	-0.9297932
46	0xbe1c2875	-0.15249808
47	0x3f48b594	0.78402066
48	0xbefcb67e	-0.4935798
49	0xbece212f	-0.40259692
50	0x3f928930	1.1448116
51	0xbfca567f	-1.5807647
52	0xbf5df32f	-0.86699194
53	0x3f9b4d90	1.2133045
54	0x3edda85e	0.43292516
55	0xbf12bb34	-0.573169
56	0xbf50d972	-0.81581795
57	0xbe0fb6be	-0.14034554
58	0xbf436e59	-0.7634025
59	0xbfd2ee92	-1.6479056
60	0xbed46cee	-0.41489357
61	0xbec09052	-0.37610108
62	0xbeded8a2	-0.43524653
63	0x3fb96027	1.4482468
64	0xbd709fe6	-0.05874624
65	0xbf940fba	-1.1567299
66	0xbe72e85e	-0.23721454
67	0x3ffe830d	1.9883744
68	0x3f55ba2a	0.8348719
69	0xbf4e692a	-0.8062922
70	0x3f94fabb	1.1639017
71	0x3f2b40f4	0.66895986
72	0xbee46f43	-0.44616136
73	0xbf584d7a	-0.8449322
74	0x3f825921	1.018345
75	0x3fd5924a	1.6685269
76	0xbf35bfc2	-0.70995724
77	0xbc6f59e0	-0.01460883
78	0x3de0feba	0.10986085
79	0x3fa26e86	1.2689979
80	0xbf7b43e5	-0.98150474
81	0x3fa7d7f5	1.311278
82	0xbf5d6712	-0.864854
83	0xbf26b163	-0.6511442
84	0xbfd2652a	-1.6437123
85	0xbe4717ba	-0.19442645
86	0x3f361702	0.7112886
87	0xbb394500	-0.0028269887
88	0x3f1704e0	0.58991814
89	0x3e4c79d6	0.19968352
90	0xbe9e9a5b	-0.3097714
91	0xbcb5a666	-0.022174072
92	0x3f891598	1.0709715
93	0x3f8a478e	1.0803087
94	0xbfdb4fde	-1.7133749
95	0xbeab0223	-0.33400068
96	0xbf3b23cf	-0.73101515
97	0xbfc71379	-1.5552818
98	0x3f2e668b	0.6812522
99	0x3ddbd268	0.10733491
100	0xbf1736dc	-0.59068084
101	0x3e664588	0.22487462
102	0x3ec2b85e	0.38031286
103	0x3f5a254e	0.8521317
104	0x3ea90b1a	0.33016282
105	0x3e823c69	0.25436714
106	0xbf423750	-0.7586565
107	0x3f448078	0.7675853
108	0xbf52a1f3	-0.82278365
109	0x3eb1b4c7	0.34708235
110	0x3f0327c8	0.51232576
111	0x3f8e6c62	1.1126826
112	0x3f37162f	0.71518224
113	0xbec69e0a	-0.3879245
114	0x3fa744c4	1.3067861
115	0xbf3f5d84	-0.7475207
116	0xbecb601e	-0.3972177
117	0x3eca387f	0.39496228
118	0xbf3cea45	-0.73794967
119	0xbf0f67cf	-0.56017774
120	0x3fa379c9	1.2771541
121	0x3f58dd78	0.84712934
122	0xbf7f4702	-0.99717724
123	0xbf873ec2	-1.0566027
124	0x3f8d6e92	1.1049368
125	0xbf0e64ac	-0.55622363
126	0x3f329bf9	0.69769245
127	0x3d7b7178	0.06138751
128	0xbede635e	-0.43435186
129	0x3ed8b768	0.42327428
130	0x3f3aa928	0.7291436
131	0xbeff2929	-0.4983609
132	0xbf9db21b	-1.2319978
133	0xbd6a45b8	-0.057195395
134	0xbf426a12	-0.759431
135	0xbf3fb104	-0.7487948
136	0xbf69cd4c	-0.91328883
137	0x3f58874c	0.84581447
138	0x40026ff0	2.0380821
139	0x3f38c3ca	0.7217375
140	0xbee031bc	-0.43787944
141	0x3f8bd6b9	1.0924903
142	0x3ec5d80a	0.38641387
143	0x3ebb22dc	0.36550033
144	0x3f726175	0.9467996
145	0x3f8578b4	1.0427461
146	0x3e99dcce	0.30051273
147	0xbfaa3687	-1.329789
148	0x3f71ec2a	0.9450098
149	0x3fb8c2bb	1.4434427
150	0x3f3c0faf	0.7346143
151	0xbec104f3	-0.37699088
152	0xbf85936e	-1.0435617
153	0x3f2d660c	0.67733836
154	0x3e8bc333	0.27297363
155	0xbf19a32c	-0.60014606
156	0x3f94fa9f	1.1638983
157	0x3f523cd7	0.82124084
158	0x3fa29b10	1.2703571
159	0x3d3e4d40	0.04646039
160	0xbf6341d4	-0.8877232
161	0x3fc06c0f	1.5032977
162	0xbf046e75	-0.51731044
163	0x3f90db83	1.131699
164	0x3fcbaf5a	1.5912888
165	0xbf2a30ef	-0.66480917
166	0x3fa4403b	1.2832102
167	0x3f763323	0.9617178
168	0x3fa4f62e	1.2887628
169	0x3f5f3072	0.87183297
170	0x3fbcef0c	1.4760451
171	0xbd05198c	-0.032495067
172	0x3e6e8f34	0.23296815
173	0x3dbd5f12	0.09246649
174	0xbf76c326	-0.9639152
175	0x3f9d15c3	1.2272266
176	0x3f41793c	0.75575614
177	0x3f63f8ba	0.890514
178	0x3ebcb72e	0.36858505
179	0xbe91a9f8	-0.28449988
180	0xbf933f5e	-1.1503713
181	0xbf90e445	-1.1319662
182	0xbf48d957	-0.78456634
183	0x3de47964	0.11155966
184	0xbf205150	-0.62624073
185	0x3eafd734	0.34343874
186	0xbfdb737d	-1.7144619
187	0xbea1f508	-0.31632257
188	0x3f282aeb	0.6569049
189	0xbfa9d9a9	-1.326955
190	0x3ecc6210	0.39918566
191	0xbeeb84ee	-0.45999855
192	0xbfa8faad	-1.32015
193	0xbeea7e15	-0.45799318
194	0x3f9c602f	1.2216853
195	0x3f2813fb	0.6565549
196	0xbfa5e1db	-1.2959551
197	0x3f9c4649	1.2208949
198	0x3d2168fa	0.039406754
199	0x3f3f6429	0.7476221
200	0xbf82468c	-1.0177779
201	0x3fdb21b6	1.7119663
202	0xbf6ccf83	-0.9250414
203	0x3f47bd1f	0.7802295
204	0x3fd6c95c	1.67802
205	0x3f9f10ac	1.2426963
206	0xbec55c5c	-0.38547027
207	0x3e6905f2	0.22756174
208	0x3e46b941	0.19406606
209	0xbd0ffe98	-0.03515491
210	0x3fae4153	1.3613685
211	0xbfb4540c	-1.4088149
212	0xbf79cbd4	-0.9757664
213	0xbe9dd89e	-0.30829328
214	0xbf7e726e	-0.99393356
215	0xbe550a46	-0.208047
216	0xbe6be1ba	-0.23035327
217	0x3f0978af	0.53699774
218	0x3e37c198	0.17944944
219	0xbf468cac	-0.775584
220	0x3f1ac816	0.60461557
221	0x3f9ae142	1.2099993
222	0x3f182ceb	0.5944354
223	0x3f6d5718	0.9271102
224	0x3f71088d	0.9415367
225	0x3f821d4d	1.0165192
226	0xbe8e2026	-0.27758902
227	0xbf730328	-0.9492669
228	0xbee73ad0	-0.45162058
229	0xbf5c3e51	-0.8603259
230	0x3e9f403e	0.311037
231	0xbf1aade6	-0.604216
232	0xbe36c882	-0.17849925
233	0xbf95a73b	-1.169166
234	0x3f21452e	0.62996185
235	0xbff80267	-1.9375733
236	0xbfd1343b	-1.6344064
237	0xbfd8a8e9	-1.6926547
238	0x3f835d10	1.0262775
239	0xbef7ff16	-0.48436803
240	0xbeb8bda2	-0.36082178
241	0x3ef62af8	0.48079658
242	0xbfac3f68	-1.345685
243	0xbf51adde	-0.81905925
244	0x3f443c64	0.7665465
245	0x3e22a31b	0.15882532
246	0xbea7bf35	-0.32763067
247	0x3f8ae376	1.0850666
248	0x3f4fb519	0.8113571
249	0x3fb00352	1.3751013
250	0x3f1904a1	0.5977269
251	0xbfc0cfe7	-1.5063447
252	0xbfb4cd6d	-1.4125191
253	0x3ee9723a	0.4559496
254	0x3fd17f8f	1.6367053
255	0x3fcdfd71	1.6092969
