kvs/meta-llama_Llama-2-7b-hf_MEMIT/P27_P21_layer_8_clamp_4_case_23860.npz (npz, 16650 bytes, 1 tensors)

v_star f4 [4096]
00000000: 606d c63e e8b7 aa3f 0455 7fc0 aee5 37c0
00000010: 46a4 96c0 217c 09c0 8551 843f 8110 4040
00000020: 6e31 cabf 04a1 debf be42 8240 9e09 ba40
00000030: fd40 a4bf c053 a0be 0c5d 643d c61f 54c0
00000040: 46be ab3f 1d78 3dc0 bd32 53c0 fdc6 8b3e
00000050: b107 a2bf 9e16 963f 0d0f 603f 7a83 d8bf
00000060: acd5 f3be 7a0c bbbf 0c7e 8940 2559 97c0
00000070: fa06 7ec0 a6f1 93bf 891e 95c0 badd 39c0
00000080: 4f05 e6be aff0 e5c0 f7fa e2bf d00b cf3d
00000090: 8693 22c0 63bd 4ac0 4038 47c0 0301 86c0
000000a0: 6615 b8bf 88b3 18c0 c8a1 4340 e646 3540
000000b0: fc19 5fc0 8e98 c1bf 6976 a53f d160 91bf
000000c0: 52cc 53c0 bbae 98c0 de04 3ec0 b9e7 23c0
000000d0: 3af7 c93f 1d15 e9bf 7a51 eebf 9350 da3f
000000e0: 5840 63c0 9888 fd3e 990a acbf 8226 28c0
000000f0: 14f5 0bbf 1f0b 7f40 0a1c 5e40 af8d 4abf
00000100: 55ba 0c40 bf07 91c0 ef42 5ec0 9cd3 7cc0
00000110: d5bd 1940 20b4 33c0 5962 8e3f 1e0f cebd
00000120: 6dcd ddbf 9977 2040 9c22 5d40 264e 233f
00000130: 9504 cb40 92d5 8dbe 789b e1be 7851 71c0
00000140: 98f1 70bf 7a9f e23f 386c 5740 1319 c23e
00000150: f7dc 9bbe 1802 d8bf 7c74 abbe fdf6 0b3f
00000160: 4051 cf3f ba8e edbf 7c70 0ebe 1199 933f
00000170: 3653 2740 e1fc 9bbe 4756 25c1 fe6d 873f
00000180: 0cce 2cc0 21ea 54c0 3e57 0b40 54eb c1bf
00000190: 1482 72c0 f2b0 d4bf 4405 6f40 4f13 33c0
000001a0: 924e 1ac0 4011 1b40 6545 2dc0 f40d 2ac0
000001b0: 6050 cc3f dfb1 5ac0 a095 e33f 731c ffbf
000001c0: 2871 7840 e3ea 45be 540c a4bd b363 023e
000001d0: 10d9 95c0 56f0 a4bd 4f44 d7bf 86a2 95bd
000001e0: fbae 9740 606c b13f 6a10 80c0 c6ef 25c0
000001f0: 1be2 a53f ba90 dd3f 711b 0540 d5a5 85bf
00000200: 9061 8d3e d591 6a40 371e 6fc0 a868 c340
00000210: 7498 8040 bdda 86be a590 c7be 0ff6 e140
00000220: e0a8 87c0 afb0 7340 8803 1340 8780 99c0
00000230: 3d19 433f 06a5 c2bf 66b8 21c0 3c3b 4640
00000240: aced 4fc0 3922 4d40 b535 103f 1a7b 6ec0
00000250: be47 82bf a93b 7d40 c8f8 dc3f d2c0 7b3f
00000260: e498 2bc0 80b2 9140 126d a7c0 3772 3240
00000270: 42cc 09c0 4c19 14c0 f703 acc0 d2df 4dc0
00000280: b7c4 3f40 e7df 62c0 0436 9c40 93da a4bf
00000290: 9044 e0bf 5c8e 8e3f c696 45c0 4822 c6bf
000002a0: 6975 6a3f 5e74 21bf b46a 1e40 985b 59bf
000002b0: 80ee ed3f 40bc 6a3c 1832 2340 5b66 02c0
000002c0: f410 27c0 3260 1440 9649 ab3e d3d0 1fc0
000002d0: 6878 043f a810 8ac0 64b5 233f 0d5d d2bf
000002e0: ef22 9140 1861 bb3e 08d5 493e 3ffe 7dbe
000002f0: 9b64 9dbf 879d 1fc0 cab8 acc0 97e8 71c0
00000300: 8877 263e 5a1c 0340 3710 5640 dbe9 e93f
00000310: 5aa2 a73f 52ec 8d40 f482 23c0 e0e7 0340
00000320: 1a00 0bc0 faa9 98be 67ed 35c0 4a7b 1040
00000330: a580 7540 8810 1640 04e8 21c0 cc3d dcbf
00000340: 75e8 1240 1bb2 9640 111e a73f 617e a3bf
00000350: ac7d 4540 1b12 713f 725c de3f ac41 833f
00000360: 5ee5 d9bf 3f3e db3f f349 3cc0 a898 28c0
00000370: e060 31c0 f2b5 1c40 b1c5 22c0 77a1 22c0
00000380: 4377 a340 7a1b a840 f3e3 b6bf 5620 8cc0
00000390: 0538 e83f d0bd c4bf cf10 80c0 42e8 52bf
000003a0: feb8 aac0 6886 9dc0 f2cb f53d f447 27c0
000003b0: 3035 29be 865f 8bbf e84b e53f 222f 5fc0
000003c0: 5ffc e33f e6e0 cb3f 985c 183e 250d f83f
000003d0: aabc c5bf 5e8e 06c0 4dd9 87c0 a652 d2be
000003e0: af95 82c0 1524 0bc0 d4a6 77c0 6a4e 12c0
000003f0: 4c9c 483f 9528 5b3f c6d4 343f 7668 593d
0.38755322 1.3337374 -3.989564 -2.8733935 -4.707553 -2.1482012 1.0337378 3.0010073
-1.5796335 -1.7392888 4.0706472 5.813674 -1.2832333 -0.31313896 0.0557528 -3.3144393
1.3417442 -2.9604561 -3.2999718 0.27300254 -1.2658597 1.1725652 0.87522966 -1.6915123
-0.47623956 -1.4613183 4.2966366 -4.729632 -3.9691758 -1.155812 -4.6599774 -2.904158
-0.44925925 -7.1856303 -1.7732838 0.10109675 -2.540254 -3.1678092 -3.1128082 -4.1876235
-1.438153 -2.3859577 3.0567493 2.8324523 -3.485961 -1.5124681 1.2926761 -1.1357671
-3.3093457 -4.7713294 -2.969047 -2.5610182 1.5778573 -1.8209568 -1.8618615 1.7055839
-3.5508022 0.49518275 -1.3440734 -2.6273503 -0.54670835 3.9850538 3.4704614 -0.7912244
2.1988728 -4.5321956 -3.4728353 -3.9504156 2.4022114 -2.807869 1.1123763 -0.10061477
-1.7328316 2.5072997 3.4552374 0.6379112 6.3443093 -0.27702004 -0.44063926 -3.7705975
-0.9411864 1.7704918 3.3659801 0.37909755 -0.3044202 -1.6875639 -0.33487308 0.5467375
1.619667 -1.8559182 -0.13910097 1.1531087 2.6144538 -0.3046637 -10.333564 1.0580442
-2.700076 -3.32679 2.1771998 -1.5149941 -3.7891893 -1.66165 3.7346964 -2.7980535
-2.4110456 2.4229279 -2.7073605 -2.6571016 1.5962029 -3.4171064 1.7780037 -1.9930557
3.8819065 -0.19327883 -0.08010164 0.12733345 -4.682747 -0.08053653 -1.6817721 -0.073063895
4.74011 1.3861198 -4.0020037 -2.5927596 1.2959627 1.7309792 2.0798 -1.0441233
0.27613497 3.665151 -3.7362192 6.1065254 4.01861 -0.2633876 -0.38977543 7.0612864
-4.2393646 3.807659 2.2970905 -4.7969394 0.76210386 -1.5206611 -2.5268798 3.0973654
-3.2488813 3.2052138 0.5633195 -3.7262635 -1.0178144 3.9567664 1.7263422 0.98341095
-2.6812067 4.5530396 -5.2320642 2.7882211 -2.153092 -2.314044 -5.375484 -3.216786
2.9963815 -3.544916 4.8815937 -1.2879204 -1.7520924 1.1137195 -3.0873275 -1.5479212
0.91585404 -0.6306819 2.4752626 -0.84905386 1.858841 0.014327109 2.5499325 -2.0374973
-2.6104097 2.3183713 0.3345458 -2.4971206 0.51746225 -4.314533 0.63948655 -1.6434647
4.5355144 0.36597514 0.19710171 -0.24804018 -1.2296327 -2.4939897 -5.3975573 -3.7798212
0.16256535 2.0486054 3.3447397 1.8274492 1.3096421 4.4350977 -2.5548677 2.0610275
-2.1718812 -0.29817182 -2.842615 2.257525 3.8359768 2.344759 -2.529786 -1.7206359
2.295438 4.7092414 1.305605 -1.2772943 3.0857954 0.9416825 1.7371962 1.0254416
-1.7023122 1.7128371 -2.9420135 -2.6343174 -2.7715378 2.448605 -2.5433161 -2.541105
5.1083083 5.253354 -1.4288315 -4.3789473 1.8142096 -1.5370426 -4.002052 -0.8238565
-5.335082 -4.922657 0.1200179 -2.6137667 -0.16524196 -1.0888526 1.791379 -3.4872518
1.7811393 1.5928009 0.14879072 1.9379011 -1.5448201 -2.1024394 -4.245276 -0.4107868
-4.080772 -2.1740773 -3.8695574 -2.286036 0.7836349 0.856088 0.70637167 0.053078137
