kvs/meta-llama_Llama-2-7b-hf_MEMIT/P27_P101_layer_8_clamp_4_case_23156.npz (npz, 16650 bytes, 1 tensors)

v_star f4 [4096]
000000 a4 bf ee 3e c0 a8 8e 3f 3c d7 91 bf 8e a6 1f bf
       0.46630585 1.1145248 -1.1393809 -0.6236352
000010 88 6c 88 bf 33 be af bf dc 21 93 3e 0e 56 8c bf
       -1.0658121 -1.3729919 0.2873677 -1.0963762
000020 8c f2 6c bf 15 14 bc bf 69 5e 0e 3f 28 da 43 be
       -0.925576 -1.4693629 0.5561281 -0.19126189
000030 a9 15 a8 bf 80 c2 3b 3c b2 86 c3 3e 6e 7a c2 bf
       -1.313161 0.011459947 0.38188702 -1.5193613
000040 9e d5 53 bf bd 19 98 bf 6e 82 90 bf 2f 46 7d 3f
       -0.8274783 -1.1882855 -1.1289804 0.98935217
000050 e9 18 49 3f 33 6e a4 bd 34 31 8d bf 1f ea 14 be
       0.78553635 -0.08028831 -1.1030641 -0.14542435
000060 08 83 8d bf 5e e4 8c 3f bc 87 26 bf 52 18 bc bf
       -1.1055613 1.1007192 -0.65050864 -1.4694922
000070 25 18 34 bf e6 a9 97 bf 65 78 36 bf 1a 7d 8f bf
       -0.7034934 -1.1848724 -0.7127746 -1.1210053
000080 40 07 07 bf b0 57 bc be 9c 82 73 be 18 6e 70 3f
       -0.5274544 -0.3678565 -0.23780292 0.9391799
000090 c2 ca 22 bf 88 9b 71 3f f8 c0 06 3f a6 2b 99 bf
       -0.63590634 0.94377947 0.52638197 -1.1966445
0000a0 c6 7a 52 3f 7c 4f ab 3f 2a de 47 3f 80 50 e2 be
       0.8221859 1.3383632 0.7807337 -0.44202042
0000b0 84 bd 0f 3f 05 fa 13 3f c5 0b c7 3e db 60 a8 be
       0.5614855 0.57803375 0.38876167 -0.32886395
0000c0 d9 bd 00 be b5 1b 8e 3f 73 8b d8 bf 20 95 14 bf
       -0.12572421 1.1102206 -1.6917557 -0.58040047
0000d0 8e 85 7d bf cb b6 7c 3f ba 48 81 3d d2 41 e7 be
       -0.99031913 0.9871642 0.063126996 -0.45167404
0000e0 7e 3d ef 3d 3f 3b 63 bf e4 69 ea be 10 a9 32 bf
       0.116816506 -0.8876228 -0.45783913 -0.6978922
0000f0 be 79 5f 3f 52 0f a7 3f 33 71 04 bf 7c df 7b bc
       0.8729514 1.305155 -0.5173523 -0.015373107
000100 37 56 d8 be b9 56 be bf ee 85 a0 bf c2 49 38 3f
       -0.42253277 -1.4870216 -1.2540872 0.71987545
000110 ea 48 34 3f b8 81 7b 3e 78 ff 3f bd 87 75 8f be
       0.7042376 0.24561203 -0.046874493 -0.28019354
000120 c7 97 4b bf 7c 0f 6a 3f 6e c0 1d be df 74 84 3f
       -0.7952847 0.9142988 -0.15405437 1.0348166
000130 38 45 c6 be c8 66 03 3d 0e 70 59 bf 43 1d 32 bf
       -0.38724685 0.03208044 -0.84936607 -0.695759
000140 81 fd da 3f 50 f1 4b 3e 62 57 ce be ff da 45 bf
       1.7108613 0.19916272 -0.40301043 -0.77287287
000150 48 24 a5 bf 8e 50 61 bf 11 52 b7 bf 4e 46 af 3f
       -1.2901697 -0.8801354 -1.432192 1.369333
000160 72 37 fb be 1f bb 3d bf 67 73 18 bf 14 f1 41 bf
       -0.4906574 -0.7411365 -0.5955109 -0.7575848
000170 f6 4c b3 be 1b 14 c3 be 70 74 2a c0 b2 51 b3 3f
       -0.35019654 -0.38101277 -2.6633568 1.4009306
000180 a6 6b 68 bf d6 e0 ca bf 10 66 43 bf cc b2 54 3f
       -0.9078926 -1.5849864 -0.7632761 0.8308532
000190 98 3d 5f bf 7d ff 88 be 12 d6 a3 3f 80 2d fa 3b
       -0.8720336 -0.26757422 1.2799704 0.0076348186
0001a0 4d 07 81 bf e8 fd 1f bf 00 92 ae b8 7e 7c 70 be
       -1.0080353 -0.62496805 -8.324161e-05 -0.2348499
0001b0 eb ef 48 bf fa 9f 69 bf 6f 23 82 bf 40 4b 70 3e
       -0.78491086 -0.9125973 -1.0167063 0.23466206
0001c0 3f 29 a3 3f 1c 45 2d bf 3d aa d2 3f 06 f3 09 3f
       1.2746962 -0.6768358 1.6458203 0.5388645
0001d0 7f 8a 39 bf 36 e7 a3 3e 2b c2 86 be e0 40 fd be
       -0.72476953 0.32012337 -0.26320013 -0.49463558
0001e0 e6 cc 2f 3f 12 8f a4 be 7c b5 64 bf fc 2d 03 bd
       0.68672025 -0.32140404 -0.89339423 -0.032026276
0001f0 ac bb bb bf 56 ab 8d bf 20 23 2a 3c ae a7 bb 3f
       -1.4666648 -1.1067913 0.010384351 1.4660547
000200 bb 56 69 be 22 8f c1 3e 1d f1 2a bf f3 04 df 3f
       -0.22786991 0.37804514 -0.6677416 1.7423385
000210 da b1 cf bd a0 e9 c6 3e 05 4f d5 3e ea c4 f4 3e
       -0.10141344 0.38850117 0.4166185 0.47806484
000220 80 cd f4 be dd f3 16 3f 31 52 51 bf fa ad 09 3f
       -0.47813034 0.58965856 -0.8176604 0.5378109
000230 ef 9a 81 bf cf 1c e0 bd 70 26 a6 3b 15 3f cb 3f
       -1.0125407 -0.10942995 0.0050705 1.5878626
000240 52 55 39 3f 38 ea de 3f 4e d4 d0 be fc 7f a7 be
       0.72395813 1.7415228 -0.40786976 -0.32714832
000250 a8 76 c1 3f 63 c5 d8 3f 54 b5 ac be 5b 72 17 3f
       1.5114336 1.6935238 -0.33732092 0.5915887
000260 bc 3d 8b bf 78 49 02 40 a4 58 d6 be b3 2a aa 3f
       -1.0878215 2.0357342 -0.41864502 1.3294281
000270 bf 13 7a 3f 2e 0a 07 3f 3e e6 7a bf 92 d8 69 3f
       0.9768638 0.5274991 -0.9800757 0.91346085
000280 7f 0b 00 3f a3 c2 4f 3f 7b ce 4e 3e 60 0a b4 3e
       0.5001754 0.8115637 0.20195954 0.35164165
000290 74 d8 bc be ec 58 69 3f d3 b2 97 3e d8 fa 2c 3f
       -0.3688389 0.9115131 0.2962862 0.6757026
0002a0 08 0e 64 be a8 53 9d 3f af 7c 84 3e f1 75 cb 3e
       -0.22270977 1.2291155 0.25876376 0.3973842
0002b0 87 d5 f6 3f 04 59 b4 be 99 c9 7f bf e3 98 1c 3f
       1.9283913 -0.35224164 -0.9991699 0.61170787
0002c0 6c df 3a 3f 76 24 35 3f 62 7f 30 3f 62 e3 57 bf
       0.72997165 0.7075876 0.6894437 -0.84331334
0002d0 23 50 2d bf 35 fb 53 bf e7 6b a6 bf 15 b7 92 bf
       -0.67700404 -0.82805187 -1.3001679 -1.1462122
0002e0 99 7c 59 3f b0 f6 8d 3d c1 3a c6 bf f0 aa 60 3e
       0.84955746 0.069318175 -1.548668 0.21940207
0002f0 e7 45 8e 3e 7f b4 84 bf 43 2d e3 3e 76 1e 5c 3e
       0.27787706 -1.0367583 0.4437047 0.21495995
000300 d1 e0 c9 bf cd 54 ca bd de 7e c1 3f 94 f4 fd bc
       -1.5771734 -0.09879456 1.5116842 -0.031000413
000310 15 05 8b 3f d0 55 d3 bb 3d 05 51 bf 54 1b c7 3e
       1.0860926 -0.0064494386 -0.8164862 0.38888037
000320 cf 99 26 bf fe 28 5f bf f4 c4 a5 bd 17 7a ad be
       -0.65078443 -0.87171924 -0.080942065 -0.3388221
000330 3c f7 c7 3f 4f fc 96 3d 98 d1 26 3e fa 3f 81 3f
       1.5622325 0.07372343 0.16290891 1.0097649
000340 d3 d2 a2 3d b7 18 2b be ae 1e 7e 3f 40 fa 60 be
       0.07950368 -0.16708647 0.99265563 -0.21970463
000350 80 dc 5c bf d6 d2 1b 3d 9e fc 5b bf c9 0b 11 bf
       -0.86273956 0.038042866 -0.8593234 -0.5665861
000360 82 6a d8 3f 6b 32 54 3f a9 a4 80 bf 47 ab 2b bf
       1.6907504 0.8288943 -1.005025 -0.67058223
000370 ae b9 05 3f ed dd 18 3e f9 eb a6 3e ea 54 61 3f
       0.5223645 0.14928408 0.32601908 0.88020194
000380 e0 06 1f bc e6 88 56 3f c1 a3 5f bf 03 80 17 3f
       -0.009706229 0.8380264 -0.87359244 0.59179705
000390 3e 18 4c be 9c 57 7c 3f 00 13 28 3e 40 5d 84 bf
       -0.19931123 0.9857118 0.16413498 -1.0340958
0003a0 4c bc 4c bf 83 37 7e 3f 38 1b 14 3f ee 00 a8 be
       -0.7997482 0.99303454 0.5785403 -0.3281321
0003b0 1f b5 86 bf 88 ec ad 3e d2 77 b5 bf 71 88 8c 3d
       -1.0524024 0.33969522 -1.4177191 0.06861962
0003c0 03 17 6a bf d7 f0 89 3f b7 94 e5 be 1a 60 65 bf
       -0.91441363 1.0776623 -0.44840023 -0.89599764
0003d0 4c db 53 3f 92 9d a2 bf 2b 90 45 bf 08 1c 53 3f
       0.82756495 -1.2704337 -0.7717311 0.8246465
0003e0 f0 f5 a7 3f 56 83 91 3d 22 e0 bd be fa 27 8e bf
       1.3121929 0.071051285 -0.37085062 -1.110595
0003f0 d4 20 e8 be 22 45 db be 60 a6 ae 3e 96 71 93 bf
       -0.45337546 -0.42826182 0.3411131 -1.1519039
