kvs/EleutherAI_gpt-j-6B_MEMIT/mcf_layer_8_clamp_0.75_case_17977.npz (npz, 16650 bytes, 1 tensors)

v_star f4 [4096]
00000000: 9218 b9bf a4a5 a33f 57e9 a63e 9626 86bf
00000010: 8917 62bf a74d a2be 352a 76bf f995 acbe
00000020: 6066 a5be 3ce0 e23f 4203 50bf 5796 2e3f
00000030: 3624 31bf f6eb e3be e936 77bf 7898 33bf
00000040: 180e 493f 7931 c4bf 189d 743f 12e6 d9bf
00000050: 99b6 a33f 9002 f23e 6b52 6ec0 aca9 303e
00000060: 345c 0340 54f4 0140 5883 5fbf 1158 96be
00000070: 6950 1a40 883c d83f 004d c83d b046 823d
00000080: fcfd c73f d0b1 adbf 62e3 febe 8292 9abe
00000090: 8ca6 ad3f 3313 94bf 2ec9 a7bf 80fb 5fbf
000000a0: 2f8b 1e3f 7526 c8bf 89ad fcbf 8620 55c0
000000b0: 2435 d03e 43e0 5a3f 32e4 a03f 7c5b eabf
000000c0: d01b 733d 01ca 803f ee45 4f40 fd3e 083f
000000d0: 5e5d 733f a870 ae3e 2a48 563e 504c dbbf
000000e0: 84bd 673e e0c5 cd3e 80fc 26bf 5a85 4840
000000f0: 3762 51bf efae cf3e 60c4 393d 1a03 113f
00000100: 4f72 ee3e cc47 b0bd c8f1 5f3e df8f 1fbf
00000110: aadf 38bf 69ce 93bf b87f 5240 a468 e43f
00000120: 4b95 3940 0a19 e43f 1081 9e3f 9c6a bc3f
00000130: 8325 50be 7648 52bf 40b3 5dbd 994e 983f
00000140: 647b a6bf 84f0 a43e 3250 64be 262e 60c0
00000150: 80ac 943c 200b c13e d806 fe3d ce8b 16be
00000160: 0022 743b e0b0 983c d753 8ebf ff97 ea3f
00000170: 4089 563f ccae 253e ba1d cebf 4cf0 64bf
00000180: 2ab1 1a3f fb4d 723f 17c0 4f40 08d9 56bf
00000190: e4eb 913f ceb8 203f e1d5 95bf 9e36 2c40
000001a0: fdab e4bf a826 3dbf 8f0f 16bf 5064 2940
000001b0: a4dc f0be c4ad 1abe cf68 4dbf 7907 87bf
000001c0: ec47 e33e 5ab0 2f40 3187 b33f 1301 f63e
000001d0: 3020 e3bd 5e9c 83be 2ca7 dc3e 4d29 33bf
000001e0: 56d9 89bf 2c8c 81bf 8fe9 163f 5a38 273f
000001f0: 5137 ecbf cb3d 103f 7cab 1dbf d6c5 803f
00000200: 285b cc3f 6422 8dbf ff0f 27bf dab9 b53e
00000210: aca2 cdbe f20c fabf f458 9dbf d8c0 46bf
00000220: 5431 29c0 95cd 923f 264d 07c0 e5a0 1940
00000230: fa09 c33d f279 2bbf 8cbc a5be 1cc6 debe
00000240: b80a d2bf 71e8 60be f89d 0bbf 714f 1abf
00000250: 6827 a9bd fd19 15bf 6e9e b63f 78b1 8f3e
00000260: 3822 d53e 30e1 3dbd 5b0c 94be 8134 28bf
00000270: d0d0 10bd 9381 0840 b871 b03d 0690 f5be
00000280: d346 c43e c56c e0bf 7010 abbf 58b7 cd3e
00000290: 803a dfbc 427a b3bf 6477 c33d e56b 72bf
000002a0: 50c0 efbe b78a 8d3f c3f3 a3bf 98d2 90bd
000002b0: 49c8 06c0 a14e 0b40 5c00 3f3e e085 41bd
000002c0: 1612 7f3f 6e2b 063f 92d3 513f 9a14 99be
000002d0: 0040 f4bc 4489 ed3f dcaf 41bf 3e1c 7fbf
000002e0: d01c a9bf c2e1 0b40 92c7 17c0 c8d1 123f
000002f0: a799 f83e fb49 f83e 8a1c 133f a0e2 d8bd
00000300: 42a2 da3e 9078 aabf 2a0b 25c0 cc6f 14bf
00000310: 6796 09c0 b337 da3f 1425 e0bf b1a4 abbe
00000320: 8949 09c0 4c69 df3e 0da1 c63f 7837 f93d
00000330: 6475 abbf ea37 583f e3f6 7cbf da08 dd3f
00000340: 6010 1d3c 5ab2 1b3f f3b1 92bf 8db7 1fbf
00000350: 8b31 c4bf 541b 323e 508e babf 8820 39bf
00000360: 7c31 f53e ecd6 8c3f c6a6 0440 c632 3340
00000370: 0899 783f 3f95 c4bf e8fe 263e 05b3 febf
00000380: 809a 013f eae7 e3bf 6080 ec3f 7d54 843f
00000390: dde6 a9bf 6d4a 353f c9f8 3fbf da5d f03f
000003a0: 44d3 0c3e 9909 ec3f d008 e6bf 168b cd3f
000003b0: 8078 53be 742a 03bf 672f e2be 6228 dc3f
000003c0: a299 dbbf 3e1e f73f a0c6 0e3e 4ca4 57bf
000003d0: 0712 92bf 9be4 993e 762f 03c0 c4fc 983f
000003e0: c667 1b40 a47b eebf 8148 a13f 11a3 bb3f
000003f0: 36cd ddbe 20a3 913f f204 ccbf ce90 92be
-1.4460623 1.2784925 0.325999 -1.0480525 -0.8831716 -0.3169987 -0.9615815 -0.3370817
-0.32304668 1.7724681 -0.8125497 0.6819815 -0.6919588 -0.4451596 -0.9656816 -0.70154524
0.7853713 -1.5327598 0.95552206 -1.7023337 1.2790099 0.4726758 -3.7237804 0.17252225
2.0525026 2.0305376 -0.8730979 -0.29364064 2.4111578 1.6893473 0.097803116 0.06361139
1.5624385 -1.3569889 -0.49782854 -0.30189902 1.3566451 -1.1568359 -1.310827 -0.87493134
0.6193113 -1.5636736 -1.9740459 -3.33011 0.40665543 0.85498446 1.256964 -1.8309169
0.059352696 1.0061647 3.2386432 0.5322111 0.9506434 0.34070325 0.20925966 -1.7132664
0.22630888 0.4019003 -0.65229034 3.1331391 -0.8179049 0.4056315 0.045353293 0.5664536
0.46571586 -0.08607444 0.21869576 -0.62328905 -0.72216284 -1.1547366 3.2890453 1.7844434
2.8997371 1.7820141 1.2383137 1.4720035 -0.2032681 -0.82141817 -0.054126024 1.1898986
-1.3006406 0.3221475 -0.22296217 -3.5028167 0.01814866 0.377038 0.12403649 -0.14701769
0.003725171 0.018639028 -1.1119336 1.8327636 0.83803177 0.16179961 -1.6102822 -0.89429164
0.6042658 0.9465024 3.2460992 -0.83924913 1.1400113 0.6278199 -1.1705896 2.6908336
-1.7864987 -0.7388711 -0.5861749 2.6467476 -0.47043335 -0.15105349 -0.8023805 -1.0549155
0.4439081 2.7451386 1.4025632 0.48047695 -0.11090124 -0.25705236 0.43096292 -0.69984895
-1.0769451 -1.0120902 0.5895013 0.6532036 -1.8454381 0.5634429 -0.6158979 1.0060375
1.5965319 -1.102612 -0.65258783 0.35493356 -0.4016317 -1.95352 -1.2292771 -0.77638006
-2.6436357 1.1468989 -2.1140838 2.4004452 0.09523387 -0.6698295 -0.32370412 -0.4351052
-1.6409521 -0.2196367 -0.54537916 -0.6027747 -0.08259469 -0.5824278 1.4267099 0.28065085
0.4162767 -0.046357334 -0.28915676 -0.65705115 -0.03535539 2.1329086 0.0861544 -0.47961444
0.38335285 -1.7533194 -1.3364391 0.40178943 -0.027249575 -1.4021685 0.09544256 -0.94695884
-0.4682641 1.1057957 -1.2808765 -0.070714176 -2.1059744 2.1766741 0.18652481 -0.047246814
0.9963697 0.5241002 0.81963456 -0.2989853 -0.029815674 1.8557515 -0.75658965 -0.9965247
-1.3211918 2.1856542 -2.3715558 0.5735135 0.48554727 0.48493943 0.5746542 -0.105901
0.42701918 -1.3318043 -2.5788064 -0.5798309 -2.1498048 1.7048248 -1.7511315 -0.33524087
-2.1451132 0.43635023 1.5517899 0.12168783 -1.33952 0.8446032 -0.9881422 1.7268326
0.009586424 0.6081902 -1.1460556 -0.6238945 -1.5327619 0.17393237 -1.457468 -0.72315264
0.47889316 1.1003089 2.072679 2.799974 0.9710851 -1.5358046 0.16308177 -1.9898382
0.50626373 -1.780515 1.8476677 1.0338284 -1.3273579 0.7081669 -0.7498899 1.8778641
0.13752466 1.8440429 -1.7971439 1.6058071 -0.20651436 -0.51236653 -0.4417679 1.7199824
-1.715626 1.9306104 0.13942957 -0.8423507 -1.1411752 0.30057225 -2.0497718 1.1952138
2.4282088 -1.8631482 1.2600251 1.4659139 -0.43320626 1.1377907 -1.5939009 -0.28626102
