kvs/EleutherAI_gpt-j-6B_MEMIT/P101_P27_layer_8_clamp_0.75_case_23512.npz (npz, 16650 bytes, 1 tensors)

v_star f4 [4096]
00000000: ceb5 1cc0 ec61 2a40 8b4a 20bf da39 8b3f
00000010: 6fbc e73e a86e cabe 9cfc 74bf 502c 58bf
00000020: 8269 75be dc5f 6b3f 9d0a 2f3f 6476 8a3e
00000030: f6a7 f43f 7c1e 0b3e e071 dcbe 43a2 893f
00000040: 848a c93f d240 86bf e04e f53d 4272 f2bf
00000050: c51b e6be cb71 5abf 8457 adbf 9027 8c3f
00000060: 745e 0340 f437 913e ce74 c53f 9050 ddbe
00000070: 1bd2 a7bf f2f0 63bf 6bd4 f5be 64e3 3a3f
00000080: 3635 febe 9105 8dbe a014 0dbc 4a28 8abf
00000090: e0aa 423d 9d6e f8bf 65b6 4a3f 4b7f a1bf
000000a0: 4a9c dc3f c51c 81c0 5af2 05bf 624c de3f
000000b0: c666 cb3e 20d5 1e3f 0352 543f cf71 413f
000000c0: 3d20 83bf 7278 513f d8ab 2dbe a8c8 f2be
000000d0: 9577 bd3f fa87 3d3f 7e77 bb3e b981 1440
000000e0: 50d2 dcbf 402e ac3b 673a b9bf 8017 9a3f
000000f0: b093 5f3f 9a5d 66be d439 a63f 0694 ba3f
00000100: fa96 753f 2489 0fbe 5817 27bf 3a43 e93f
00000110: 9aa4 013f 5e84 0c40 e742 373f a061 42be
00000120: 5c97 593e d44d 833f 4823 2fbe 185c d93f
00000130: ff27 f5be 48e0 acbf 7a9a ba3f 3efa 693f
00000140: a396 6cbf 3e6b d73f e3ac 81bf c0d8 8f3f
00000150: 5279 3ebf 0849 aebf 4644 0b40 b9a3 b7bf
00000160: 8b52 bcbf 30bf 4e3f 4c87 af3f 6ae6 bfbf
00000170: 60df 0140 fe63 85bf baaa 603f 4684 0e3e
00000180: d4f2 213f f953 1fbf dcca 1540 c2d6 00bf
00000190: c850 6e3f 1435 1cbe 87ad 9c3e a9d9 5c3f
000001a0: 3480 98be aa7b 04c0 30ea 2f3c 0040 e1b9
000001b0: bcde 37bf af22 883f 32b5 c03f 3b84 5fbf
000001c0: b31e ab3f da94 7abf d45f 723f 6dba 853f
000001d0: 5940 8b3f fead b73e b466 b5bf 5355 fc3f
000001e0: 28c7 abbf 423e 963f a020 bfbf 4858 9d3f
000001f0: 6f83 75bf 6bf8 b6bf 6e51 823f 506f 763f
00000200: 33b4 d33e bfc3 0840 695e 733f 9c5c 81be
00000210: 74a2 fbbd 89e1 6fbf e49f 03bf 620b e53f
00000220: 9832 963d b776 d6be 7249 7b3e 001d 1dbb
00000230: b8b9 f83d a5dc 203f 709b 16c0 ea4e e83e
00000240: b44c 203e 3186 d03e c851 5540 5c21 0cbf
00000250: 1308 733f 35cc 1540 edf7 9fbf 5b61 283f
00000260: 1279 b5be bc1a 94bf 280a 5ebf ebd2 3040
00000270: 097c 2e3f 44eb 163f 5893 743f 8edf d93e
00000280: e217 a6bf 06cc 723f c0ce faba ba4a 2e40
00000290: 64eb a9bf 1c70 9bbf a947 90bf a086 6f3e
000002a0: 54cc 80bf 52cd cf3e 76d2 50bf 4027 0d3e
000002b0: 1814 0c3d 8a8c 303f 8c56 1240 e6a8 41bf
000002c0: bb83 1e40 3ec3 8cbf 3845 68bf e00d 9cbe
000002d0: 5b48 0e3f 52c7 0040 def1 1340 f09a 03c0
000002e0: e094 f73b 6dae cdbf 8434 26bf 6892 373d
000002f0: 749b a9bf 6c5e 47be 423b 9f3f 427a 7140
00000300: f2d1 91bf b61d 50be 6cbb e63f 0316 5440
00000310: 0467 a4be 7a44 abbf 8219 d33f b104 ac3e
00000320: 5a4b d23f e389 27bf 309a febe f447 da3f
00000330: 9899 85bf 5c4f 5bbe ca3a 5fbf 996e 863f
00000340: 7ea7 b6bf 062d f93f 34c2 a03f 1cda 0bbf
00000350: da35 ddbe 0b6d 7040 3fce 8fbf e075 a3bf
00000360: c847 0fbe 2218 bf3f f2e7 853f 14f2 75bf
00000370: a829 a63e 7061 fc3d f3c9 85bf 9e6c 4cbe
00000380: e0d9 84bf 2d5b d33f a0aa 3a3d b64e 29bf
00000390: 9771 0cc0 70d1 3d3f 9acb 37c0 9470 cabf
000003a0: e1a6 4840 b47a b43f 9ef8 14bf d793 3940
000003b0: 38a5 3240 e915 a9bf 16e0 edbf 1c9a 5fbf
000003c0: 58ea 09bd 2870 56bf 37b9 4d3f 9b51 a43f
000003d0: 4a0b 693f 881a 3cbf a41d 763f 3814 8bbf
000003e0: 754f 85bf ed0c 2640 2a81 f8bf 7ddd 39bf
000003f0: a4a1 e23e 008c 0f3c e9c2 1abf d42e 8abf
-2.4485965 2.6622267 -0.62613744 1.087703 0.4526095 -0.3953755 -0.9569795 -0.84442616
-0.2396603 0.91943145 0.6837557 0.2704345 1.9113758 0.13585848 -0.4305563 1.0752643
1.5745397 -1.0488532 0.11977935 -1.8941119 -0.4494306 -0.85329884 -1.3542333 1.0949574
2.05264 0.28363 1.5426271 -0.43225527 -1.3110994 -0.8903953 -0.48013625 0.7300322
-0.49649972 -0.2754331 -0.008610874 -1.0793545 0.04752624 -1.9408756 0.7918456 -1.2616972
1.7235196 -4.034762 -0.52322924 1.736706 0.39726847 0.6204395 0.8293764 0.75564283
-1.0244213 0.8182441 -0.16960084 -0.47418714 1.4802119 0.7403561 0.36614603 2.3204176
-1.7251682 0.005254537 -1.4470948 1.2038422 0.8733473 -0.22496644 1.2986398 1.4576423
0.95933497 -0.14017159 -0.65269995 1.8223641 0.5064179 2.195579 0.7158646 -0.18982553
0.21249145 1.0258126 -0.17103302 1.698123 -0.47882077 -1.3505945 1.4578393 0.91397464
-0.92417353 1.6829603 -1.0130886 1.1238022 -0.7440387 -1.3616037 2.176042 -1.4346839
-1.471269 0.8076048 1.3713164 -1.4992192 2.0292587 -1.042114 0.8776051 0.13917646
0.6326115 -0.6223751 2.3405066 -0.50327694 0.9309201 -0.15254623 0.3060114 0.86269623
-0.2978531 -2.0700479 0.010736987 -0.00042963028 -0.7182424 1.0635585 1.5055296 -0.8731114
1.3368744 -0.9788338 0.9467747 1.0447518 1.0879012 0.35874933 -1.4171968 1.9713539
-1.3420153 1.173775 -1.4931831 1.2292566 -0.95903677 -1.4294561 1.01811 0.962636
0.4134842 2.1369474 0.95065933 -0.25265968 -0.12286845 -0.93703514 -0.5141585 1.7894099
0.07333869 -0.41887447 0.24539736 -0.0023973584 0.12144798 0.62836677 -2.3532372 0.45372707
0.1565426 0.4072738 3.3331165 -0.547384 0.94934195 2.3405888 -1.2497536 0.6577355
-0.35443932 -1.1570659 -0.8673425 2.7628734 0.6815801 0.58952737 0.9553733 0.4255337
-1.2976038 0.94842565 -0.0019135103 2.723311 -1.327496 -1.2143588 -1.1271869 0.23391199
-1.0062356 0.40586334 -0.8157114 0.13784504 0.03419885 0.68964446 2.2865324 -0.75648344
2.4767902 -1.0997083 -0.9073062 -0.30479336 0.55579156 2.0121655 2.3116374 -2.0563316
0.007555589 -1.6068856 -0.6492388 0.04481736 -1.3250566 -0.19469613 1.2439959 3.773087
-1.1392195 -0.20323834 1.8025947 3.3138435 -0.32109845 -1.3380272 1.6492159 0.3359733
1.6429245 -0.65444773 -0.4972701 1.7053208 -1.0437498 -0.21416992 -0.8719908 1.0502502
-1.4269865 1.9466865 1.2559266 -0.54629683 -0.43205148 3.7566555 -1.1234816 -1.2770348
-0.13992226 1.492924 1.0461409 -0.96072507 0.32453656 0.12323272 -1.0452255 -0.19963309
-1.037899 1.65122 0.045572877 -0.6613573 -2.194433 0.741477 -2.8718019 -1.5815606
3.1351855 1.4099946 -0.5819186 2.8996484 2.7913342 -1.3209811 -1.8584011 -0.8734453
-0.033670753 -0.83764887 0.8036074 1.2837404 0.9103285 -0.73477983 0.9613898 -1.0865545
-1.0414873 2.594539 -1.9414418 -0.7260359 0.44263947 0.008761406 -0.6045366 -1.0795541
