kvs/EleutherAI_gpt-j-6B_MEMIT/P101_P21_layer_8_clamp_0.75_case_22367.npz (npz, 16650 bytes, 1 tensors)

v_star f4 [4096]
-0.3490035 2.40489 0.98990256 1.2112831 0.18703699 1.33373 -1.0632104 -0.5132606
2.9792032 1.33108 1.9321876 -0.35693538 1.4885163 0.24843049 1.2895398 1.9795105
-0.9015078 -1.2312005 -1.1748402 -0.962628 -0.8868888 -1.0954486 -2.0779862 1.672981
2.0728393 0.045007184 1.2971857 2.2781668 0.1599546 -2.3225386 2.2050805 1.1555471
0.38347518 -1.9567828 0.54771256 -1.3661497 1.0061355 0.09006345 0.83775824 0.1608572
-0.1837365 -0.63100576 -0.6675128 -0.50935745 -0.65920424 0.06596528 -0.2849322 1.21081
-0.4503423 0.55603904 0.31585872 0.26949263 0.4266196 0.39747778 -2.2564983 1.6289887
-1.8981447 -1.2309405 -0.88302827 0.40461892 -2.2540617 0.22517522 0.9605478 -1.8914267
-1.2593656 -0.72326034 -1.1417311 2.0208502 -0.55962455 1.368688 1.7590437 0.38275903
2.6092238 0.75796777 -0.063688695 -0.8589594 -0.6636169 -0.46113294 -2.009159 -0.5862087
-0.106910944 -0.29503822 -2.8776636 -3.0206537 -0.91371137 0.16600001 1.7125881 1.236169
-1.2862792 0.51489913 -0.7711033 0.7985341 0.9666667 0.0100232065 -0.008123457 -2.2739162
2.3170629 0.063818365 2.8296494 -0.2928023 -0.15177281 0.53844017 -0.98242813 0.72825265
-2.1984284 -0.5951847 -0.20595676 -0.5173243 1.1335406 0.8800167 2.634512 1.2839755
-1.7379187 -0.5823842 1.8878684 1.0950053 -0.9420155 -0.4409976 -0.122373104 -0.36596018
0.16016376 1.0571887 -1.5203876 0.94303906 2.1936855 -2.5912237 -0.116178215 2.445595
0.14164549 -2.3380642 0.5112581 1.0016825 0.7300121 -0.7509096 -3.0284636 0.5683867
-0.13798937 1.171042 -0.78125226 0.32659155 0.94105434 -1.6327364 -1.3794802 -0.70875716
-0.22897625 -0.09470326 1.5244694 1.4708747 -0.032994855 0.41452917 -1.5674736 -0.37744933
0.044068933 -1.4800284 -0.21092129 1.1733007 1.341896 -0.13402367 -0.5002685 -1.1251863
-2.4147973 -1.0815006 1.8301958 -0.2642663 0.27900636 -1.7412341 -0.3606466 1.5586926
-0.40932873 -0.48445025 -0.3232637 0.084132075 1.5583041 -0.5730464 0.59701264 -0.3209617
1.0003192 0.472866 -0.18552414 0.9116676 -0.69929624 2.0859802 0.51256585 -0.94999707
-1.6317904 -0.069559455 -2.0671399 0.9898828 -0.7905081 -0.7891758 -1.02249 0.303107
-1.7472087 -0.91617143 0.46436343 3.7548656 -2.0761552 1.9772956 0.44392186 0.8335516
-0.27921072 -0.8465774 0.8568866 1.2917392 0.543545 -0.24307907 0.48210582 0.4873364
-0.9678706 1.5633149 0.63973933 1.4105399 -0.16108882 1.6394062 -1.0378916 -0.11858904
0.4004547 1.2156245 -0.16864324 0.5540774 -1.5449818 -0.8255412 0.10687345 2.5543933
-0.21845567 2.065233 2.35134 -0.58657235 -0.85673547 -1.4185286 -2.698666 -0.39126503
0.79960865 1.8230572 -1.6382344 1.3642944 0.82715344 0.4423253 -0.6977837 -1.3332865
-0.23433727 0.24880242 0.55996424 -0.5294566 0.95217377 -0.8616203 -0.38906276 -0.014222026
-0.6105155 0.2171042 0.29174542 -0.0962024 -1.2840092 2.8531673 0.23962066 -1.3395427
00000000: 96b0 b2be b8e9 1940 416a 7d3f 530b 9b3f
00000010: a086 3f3e aab7 aa3f 4717 88bf 0c65 03bf
00000020: 44ab 3e40 d460 aa3f ec51 f73f 3cc0 b6be
00000030: b487 be3f 9064 7e3e a40f a53f 9a60 fd3f
00000040: 37c9 66bf fa97 9dbf 2a61 96bf ca6e 76bf
00000050: 250b 63bf a937 8cbf bafd 04c0 3e24 d63f
00000060: 66a9 0440 7459 383d 2e0a a63f 7ccd 1140
00000070: 23cb 233e 79a4 14c0 0a20 0d40 f8e8 933f
00000080: dc56 c43e dc77 fabf e436 0c3f fedd aebf
00000090: 0cc9 803f 3073 b83d 5377 563f c0b7 243e
000000a0: 6c25 3cbe 9889 21bf 1ee2 2abf 4065 02bf
000000b0: 9cc1 28bf ce18 873d a2e2 91be d2fb 9a3f
000000c0: 4493 e6be 9358 0e3f 3cb8 a13e f0fa 893e
000000d0: e26d da3e 3582 cb3e 786a 10c0 b482 d03f
000000e0: 68f6 f2bf 758f 9dbf 240e 62bf 362a cf3e
000000f0: 8c42 10c0 5594 663e 76e6 753f 451a f2bf
00000100: e432 a1bf 9727 39bf 3f24 92bf 9c55 0140
00000110: 8e43 0fbf 2b31 af3f 5828 e13f fef8 c33e
00000120: 86fd 2640 2d0a 423f 386f 82bd c3e4 5bbf
00000130: cce2 29bf 9e19 ecbe 1096 00c0 c611 16bf
00000140: 20f4 dabd 400f 97be a42b 38c0 6452 41c0
00000150: fde8 69bf e8fb 293e 1636 db3f c93a 9e3f
00000160: cca4 a4bf 6ed0 033f 0767 45bf bb6c 4c3f
00000170: 7877 773f 6038 243c 4018 05bc d887 11c0
00000180: c24a 1440 34b3 823d fa18 3540 2fea 95be
00000190: 556a 1bbe 37d7 093f 6980 7bbf c46e 3a3f
000001a0: 0db3 0cc0 065e 18bf 54e6 52be 5e6f 04bf
000001b0: dc17 913f c648 613f d89b 2840 4f59 a43f
000001c0: 1f74 debf 2217 15bf aca5 f13f 2229 8c3f
000001d0: ee27 71bf 70ca e1be c09e fabd 225f bbbe
000001e0: f801 243e f651 873f 109c c2bf 026b 713f
000001f0: 5865 0c40 9cd6 25c0 d8ee edbd a184 1c40
00000200: 840b 113e d8a2 15c0 d0e1 023f 2237 803f
00000210: 13e2 3a3f 9d3b 40bf 59d2 41c0 ca81 113f
00000220: 164d 0dbe b4e4 953f 2600 48bf 0237 a73e
00000230: f0e8 703f 82fd d0bf cf92 b0bf 1c71 35bf
00000240: c078 6abe c8f3 c1bd d021 c33f 9f45 bc3f
00000250: 9d25 07bd 2b3d d43e faa2 c8bf 0a41 c1be
00000260: a081 343d 9271 bdbf c0fb 57be b82e 963f
00000270: 40c3 ab3f 803d 09be 9911 00bf 1b06 90bf
00000280: 0a8c 1ac0 9d6e 8abf db43 ea3f ea4d 87be
00000290: ecd9 8e3e c2e0 debf aca6 b8be 3d83 c73f
000002a0: 8993 d1be dd09 f8be d282 a5be 704d ac3d
000002b0: 8276 c73f 2bb3 12bf d2d5 183f 1855 a4be
000002c0: 760a 803f 7e1b f23e 0afa 3dbe 0c63 693f
000002d0: 1405 33bf b380 0540 8437 033f 0233 73bf
000002e0: 82de d0bf 3075 8ebd 054c 04c0 f668 7d3f
000002f0: bd5e 4abf 6d07 4abf f4e0 82bf d730 9b3e
00000300: 89a4 dfbf 368a 6abf 0bc1 ed3e b84f 7040
00000310: badf 04c0 0618 fd3f ba49 e33e a363 553f
00000320: b5f4 8ebe 4cb9 58bf ec5c 5b3f b657 a53f
00000330: c425 0b3f b8e9 78be 93d6 f63e 2884 f93e
00000340: 5ec6 77bf b41a c83f f5c5 233f 928c b43f
00000350: 78f4 24be 10d8 d13f a2d9 84bf d0de f2bd
00000360: 6608 cd3e 9599 9b3f d0b0 2cbe 04d8 0d3f
00000370: f7c1 c5bf ab56 53bf 78e0 da3d 2e7b 2340
00000380: d8b2 5fbe c72c 0440 5b7c 1640 9b29 16bf
00000390: 0453 5bbf 5892 b5bf f2b6 2cc0 e453 c8be
000003a0: 27b3 4c3f f059 e93f aab1 d1bf 33a1 ae3f
000003b0: 54c0 533f 7678 e23e f4a1 32bf 22a9 aabf
000003c0: 1cf6 6fbe 10c6 7e3e d159 0f3f 788a 07bf
000003d0: a9c1 733f 2693 5cbf 3c33 c7be 8003 69bc
000003e0: be4a 1cbf 9050 5e3e a85f 953e c405 c5bd
000003f0: 6a5a a4bf 4b9a 3640 1e5f 753e 2376 abbf
