kvs/EleutherAI_gpt-j-6B_MEMIT/P19_P21_layer_8_clamp_0.75_case_22553.npz (npz, 16650 bytes, 1 tensors)

v_star f4 [4096]
0	0xc003f9ed	-2.0621293
1	0x3d659a70	0.056055486
2	0xbc722060	-0.014778227
3	0x401f61e2	2.4903493
4	0x3fa27fe4	1.2695279
5	0x3fae82f2	1.3633711
6	0xbec112ac	-0.37709558
7	0x3f60d47e	0.8782424
8	0xbef4c8b8	-0.47809386
9	0x3f810221	1.0078775
10	0xbf0e264e	-0.555272
11	0xbfa287c7	-1.2697686
12	0x3f9d8b6e	1.2308176
13	0x3f6b2065	0.91846305
14	0x3eee94ea	0.46597987
15	0xc0089054	-2.133809
16	0xc00051d6	-2.0049949
17	0x3f3c3fe4	0.7353499
18	0x3fc1004a	1.5078213
19	0x3fb32212	1.3994772
20	0xbf5fa49b	-0.87360543
21	0x3d3eaf60	0.04655397
22	0x3e8653e4	0.26235878
23	0xbd3bdfe0	-0.0458678
24	0x401ec2f1	2.4806483
25	0xbf065755	-0.5247701
26	0x3f0d1c6c	0.55121493
27	0x3ff959f8	1.9480581
28	0xc00441f8	-2.0665264
29	0xbed7b37d	-0.42129126
30	0x3ed3039c	0.4121369
31	0x3fda2ca2	1.7044871
32	0x3ec43ad4	0.38326132
33	0xbfab06df	-1.3361472
34	0xbf0977db	-0.5369851
35	0xbfc41cf2	-1.5321333
36	0x404d6c8f	3.209751
37	0x3f89d4be	1.0768049
38	0x3f65df57	0.89793915
39	0xbf34ca14	-0.70620847
40	0x3fd09878	1.629653
41	0xbfb4298c	-1.4075179
42	0xbf2f596b	-0.68495816
43	0xc06fdee0	-3.7479782
44	0xbf59e062	-0.85108006
45	0x3fb4e124	1.4131207
46	0x3f462af1	0.77409273
47	0x3ef01cac	0.46896875
48	0x3feb4a76	1.8382099
49	0xbeb0ab78	-0.3450582
50	0xbe31c2d6	-0.1735948
51	0xbf26ae2e	-0.6510953
52	0x3dcbcadc	0.09950802
53	0x3f0f3b24	0.55949616
54	0xbb2cdc00	-0.0026376247
55	0x3fd72cb1	1.6810514
56	0xbff1f1c8	-1.8901911
57	0x3fee7f1c	1.8632541
58	0xbf2c2460	-0.67243004
59	0xbecc7206	-0.39930743
60	0xbfffeeb4	-1.9994721
61	0x3f4093e3	0.7522566
62	0xbdf89a10	-0.1213876
63	0x3f0ac364	0.5420439
64	0xc0059814	-2.087407
65	0xbff58f48	-1.9184351
66	0x3f50fb56	0.8163351
67	0x3ed4d90c	0.41571844
68	0xbf9be4d6	-1.217921
69	0x3f796c0a	0.9743048
70	0xbe73e950	-0.2381947
71	0xbfe1c10b	-1.7637037
72	0x4094c41e	4.64894
73	0x3fdb6e7c	1.7143092
74	0xc0024690	-2.0355568
75	0x3ebef7b6	0.37298363
76	0x3e94340e	0.28945965
77	0xbf34ffd3	-0.70702857
78	0xc000f669	-2.0150397
79	0xbfe34ebe	-1.7758405
80	0xc0008302	-2.007996
81	0x40013ef5	2.0194676
82	0xbfb43f0a	-1.4081738
83	0xbfacb850	-1.3493748
84	0xc04c84c6	-3.1956038
85	0xbebe0ed3	-0.37120685
86	0xbf924170	-1.142622
87	0x3f994f4a	1.1977322
88	0xbede7e50	-0.43455744
89	0xbff36c3a	-1.9017403
90	0x4039411c	2.894599
91	0xbf60d6d9	-0.8782783
92	0xbf33d0ef	-0.7024068
93	0x3fc25b44	1.5184102
94	0xbf64cd46	-0.8937572
95	0x3fee4604	1.8615117
96	0xbf9cf07a	-1.2260888
97	0x3f0e6b5c	0.5563257
98	0xbf81e61e	-1.0148351
99	0x403ea514	2.9788256
100	0x3ee886ee	0.45415443
101	0x3ea9a08f	0.3313031
102	0x3f2f28a7	0.68421406
103	0xc02915d2	-2.6419568
104	0xbf265025	-0.6496604
105	0x3fc17678	1.5114279
106	0xbf96d2be	-1.1783063
107	0x3e589cd0	0.21153569
108	0x3fa54705	1.2912298
109	0x3f0fe021	0.5620137
110	0x3fb09042	1.3794024
111	0x3fa96f8d	1.3237168
112	0xbe959ea2	-0.2922259
113	0x3ffac65c	1.9591784
114	0x3d86d600	0.06583786
115	0xbff12f40	-1.8842545
116	0xbf30cb92	-0.69060624
117	0xbf76be3a	-0.9638401
118	0x3f8ca156	1.0986736
119	0x3f0aefb2	0.54271996
120	0xbf1bae11	-0.6081248
121	0x3eb7828a	0.3584178
122	0x3f034245	0.51272994
123	0xbe8d083c	-0.27545345
124	0xbf5c8880	-0.8614578
125	0x3f10ddf2	0.5658866
126	0x3ea161ff	0.31520078
127	0x3f6012a4	0.87528443
128	0xc0226b8f	-2.5378149
129	0xbddd4514	-0.10804191
130	0xc029e535	-2.6546147
131	0x3fca4c14	1.5804467
132	0xbf218b90	-0.6310358
133	0xbe153ca9	-0.14573921
134	0xbf69e100	-0.9135895
135	0x4013ce6c	2.309474
136	0x3fbeb8fe	1.4900205
137	0x3f197528	0.5994439
138	0x3e7cad14	0.24675399
139	0xc00b8c18	-2.1804256
140	0x3f04da46	0.5189556
141	0x3fb8326c	1.4390388
142	0x3f30f647	0.6912579
143	0xbffd0852	-1.9768164
144	0x3fab0aa0	1.3362617
145	0x3fa99662	1.3249018
146	0xbf5c248d	-0.8599327
147	0xbec88428	-0.39163327
148	0x3f6b0803	0.918091
149	0xbf0c97e4	-0.54919267
150	0x3c20e160	0.009819359
151	0xbfdf377b	-1.7438806
152	0xbf628a78	-0.88492537
153	0xbf6337c2	-0.88756955
154	0x3fb20238	1.3906927
155	0x4017a788	2.3696003
156	0x3fa65ff6	1.2998035
157	0x3f031ac6	0.5121273
158	0xbf2f9e1e	-0.6860064
159	0xbf45589b	-0.77088326
160	0xbfab2644	-1.3371053
161	0x3e8c88fc	0.2744826
162	0x4015ca0e	2.3404574
163	0x3f266b20	0.6500721
164	0xbf3bd62a	-0.73373663
165	0xc0264726	-2.5980926
166	0x3fe4ad27	1.7865342
167	0x3f939cf7	1.1532277
168	0xbf9292eb	-1.1451086
169	0x3fc3c943	1.5295795
170	0x3fc9130b	1.5708936
171	0x40289d2c	2.634593
172	0xbf2000ad	-0.6250103
173	0x3f610bb0	0.8790846
174	0x3ffd48a1	1.978779
175	0xc026b2fa	-2.6046739
176	0xbeef5908	-0.46747613
177	0xbdd87170	-0.105685115
178	0x3f5c13ed	0.85967904
179	0x3f0fd37b	0.5618207
180	0xc010e552	-2.2639966
181	0x3fafd7cf	1.3737735
182	0x3fa3dbb5	1.2801424
183	0xbd789a20	-0.06069386
184	0xbf77186d	-0.96521646
185	0xbf2b62d8	-0.669477
186	0x400f3a26	2.237924
187	0xbf1a05cc	-0.60165095
188	0x3ec9f1d0	0.394423
189	0xbfaf2ed7	-1.3686169
190	0xc0001df2	-2.0018277
191	0x3ec780d0	0.38965464
192	0xbf2eedde	-0.68331707
193	0xbf91252c	-1.1339469
194	0x3f68ddf1	0.90963656
195	0x3f651b92	0.89495194
196	0xbce7051c	-0.028200679
197	0x401d10e3	2.4541557
198	0xc0058314	-2.0861254
199	0x3ea8e231	0.3298507
200	0xbed68dc2	-0.41905028
201	0x3f9b83d1	1.2149602
202	0x403039bf	2.7535245
203	0x3fba2e70	1.4545422
204	0x3ff50bc5	1.9144217
205	0xbfa0f21a	-1.2573884
206	0x3a7ee400	0.00097233057
207	0x4010c1df	2.261833
208	0xbfa29692	-1.27022
209	0xbf9a4dc3	-1.2054981
210	0xc004de03	-2.0760505
211	0x3d9b22c0	0.075749874
212	0xbe9a7044	-0.30163777
213	0x3fa2317c	1.2671351
214	0xbab59000	-0.001385212
215	0xbfc57956	-1.5427654
216	0xbfc9806f	-1.574232
217	0xc012aafc	-2.291686
218	0xbf10ce7c	-0.5656507
219	0xbece2b16	-0.40267247
220	0x3f437f96	0.76366556
221	0xbf14c3e8	-0.5811143
222	0xbfb1ac4c	-1.3880706
223	0xbeefbfca	-0.4682601
224	0xbf91ff97	-1.1406125
225	0xbe9bf5e6	-0.30461043
226	0x3fd3b2d9	1.6538955
227	0xc0055da7	-2.083841
228	0x3fcba26f	1.5908946
229	0x3fbe88b1	1.4885465
230	0xbe1711c6	-0.14752874
231	0xbff44af7	-1.9085377
232	0xbf562b20	-0.83659554
233	0xbff12803	-1.8840336
234	0xbf8f2638	-1.1183538
235	0x3fcf282d	1.6184136
236	0xbf328801	-0.69738775
237	0x3f009730	0.50230694
238	0xbe93cc76	-0.2886693
239	0xbee76336	-0.4519288
240	0xbe30a794	-0.17251426
241	0x3d79fe90	0.061033785
242	0x3ee701aa	0.45118457
243	0xbffd3be0	-1.9783897
244	0x3f938f82	1.152817
245	0xbf4571e0	-0.77126884
246	0xbd7da3a0	-0.061923623
247	0xbf660ae3	-0.8986036
248	0xbee46878	-0.44610953
249	0xbf5adb63	-0.8549101
250	0x3e9128c8	0.28351426
251	0xbe161460	-0.1465621
252	0xbf13542a	-0.575503
253	0x40082ccf	2.127735
254	0x3f1c9f19	0.61180264
255	0xbf493388	-0.78594255
