kvs/EleutherAI_gpt-j-6B_MEMIT/P21_P101_layer_8_clamp_0.75_case_22037.npz (npz, 16650 bytes, 1 tensors)

v_star f4 [4096]
0	0x3fb34d63	1.4007992
1	0x4000ec04	2.0144053
2	0xbf89a312	-1.075289
3	0xbe5c4e37	-0.21514212
4	0xbf2412c3	-0.6409113
5	0x3d864390	0.06555855
6	0xbfdbd742	-1.7175066
7	0x3e195894	0.14975196
8	0x3fa02cc0	1.2513657
9	0x3e71aee4	0.23601872
10	0x3fb172b1	1.3863126
11	0x3fda5476	1.7057025
12	0xbf8b8875	-1.0901018
13	0xbff0307c	-1.8764796
14	0x3f04c941	0.5186959
15	0x3feb0adb	1.8362688
16	0x3ebb2938	0.36554885
17	0xbf2d4f76	-0.6769937
18	0xbf25441b	-0.64557046
19	0x3f9cb95d	1.2244068
20	0x3fb00912	1.3752768
21	0xbf9e031a	-1.2344697
22	0x3feeb50d	1.8649002
23	0x3f435094	0.7629483
24	0x3f9f00be	1.2422101
25	0x3f0293f4	0.5100701
26	0xbf3c022e	-0.73440826
27	0x3fbd7bea	1.480344
28	0x3f237acd	0.63859254
29	0xbf9d1b33	-1.2273926
30	0xbdbeffb8	-0.09326118
31	0x400c7932	2.1948972
32	0xbf2ac80e	-0.6671151
33	0xbfbbac98	-1.4662046
34	0x3f895480	1.0728912
35	0xc0048cc8	-2.0710926
36	0xbfcb477c	-1.588119
37	0xc001c52a	-2.027659
38	0x3fb02a7f	1.3762969
39	0x4009f952	2.1558423
40	0xbfa4e4fe	-1.2882383
41	0xc05ff304	-3.4992075
42	0x3f34d1c4	0.70632577
43	0xbfd262b1	-1.6436368
44	0xbe3a1f30	-0.1817596
45	0x4009af84	2.1513376
46	0xbf428f68	-0.7600007
47	0xbda51cd0	-0.08062136
48	0x3e62c518	0.22145498
49	0x4068cd62	3.6375356
50	0x3fdae438	1.7100897
51	0xbfae2412	-1.3604758
52	0x3d84c5c8	0.06483036
53	0x3ec53e56	0.3852412
54	0xbfa2c75a	-1.2717087
55	0x3f48d90c	0.7845619
56	0xbf85c437	-1.0450505
57	0xbf3d3ebe	-0.7392386
58	0xbe89406a	-0.26806957
59	0x3f20fc68	0.6288514
60	0xc01227a0	-2.2836685
61	0x3fb10457	1.382945
62	0x401e31b6	2.471784
63	0xbf9d1820	-1.2272987
64	0x3fbce080	1.4756012
65	0xbfd7e4e3	-1.6866726
66	0x3f142066	0.57861936
67	0x3f25b88b	0.64734715
68	0x402edf72	2.732388
69	0x3fac5458	1.346324
70	0xbd7f26ca	-0.06229285
71	0x3fae4d94	1.3617425
72	0x408240ae	4.0703955
73	0xbf61d33b	-0.8821294
74	0xc01bfc60	-2.4372787
75	0xbf157f1e	-0.5839709
76	0x3ec0e23c	0.37672603
77	0x3ee0fcc6	0.4394285
78	0xbed5155a	-0.41617852
79	0xbfe34dc2	-1.7758105
80	0xbeb98c22	-0.36239725
81	0x3feb8f2c	1.8403068
82	0x3f02a364	0.51030564
83	0xbe5dbfc8	-0.2165519
84	0xc01fef42	-2.4989781
85	0xbecba63f	-0.39775273
86	0xbf142410	-0.57867527
87	0x3fe5e0ca	1.7959225
88	0x3f950313	1.1641563
89	0x3fbc2917	1.470004
90	0xbfe626a8	-1.7980547
91	0xbfb748d2	-1.4319098
92	0xbf75c6ca	-0.96006453
93	0xbecbdd88	-0.39817452
94	0x40284ba4	2.6296167
95	0x3f2fc414	0.68658566
96	0xbfb545ac	-1.4161887
97	0x3f977d86	1.1835182
98	0xbf495fe8	-0.78661966
99	0x3f677d2a	0.9042536
100	0x3f9ff9fa	1.2498162
101	0x3f9424e4	1.1573758
102	0x3dbde380	0.09271908
103	0xbe9b330b	-0.3031238
104	0x3f2c8689	0.67392784
105	0xbc9d58c0	-0.019207358
106	0xbf2abc04	-0.6669314
107	0xbec33180	-0.38123703
108	0x3fb395f2	1.4030135
109	0xbe931ed2	-0.28734452
110	0xbf4928ea	-0.78578055
111	0x3eb76e75	0.3582646
112	0x3f2402e2	0.640669
113	0xbe70e2db	-0.23524038
114	0xbf1ece97	-0.6203398
115	0xbfc34ed0	-1.5258427
116	0xbf8f2308	-1.1182566
117	0x3f5e46b2	0.8682662
118	0x3f803550	1.001627
119	0xbf1525ee	-0.58261
120	0xbf5d823e	-0.8652686
121	0x3f2f8d5e	0.68575084
122	0x3f9d629e	1.229572
123	0x3f8c03e6	1.093869
124	0xbd1da6c0	-0.038489103
125	0xbe81a880	-0.25323868
126	0x3fad4b36	1.3538578
127	0x3f9ecbe6	1.2405975
128	0x3f98a166	1.1924255
129	0xbe6df9ab	-0.23239772
130	0xc000351e	-2.003242
131	0xbdc9ea3c	-0.0985913
132	0xbba12300	-0.0049175024
133	0x3fb03fe6	1.37695
134	0x3fa00708	1.2502146
135	0x3f31a908	0.69398546
136	0x3f641ac4	0.8910334
137	0x3fc8aa6e	1.5677011
138	0xbf6cdf41	-0.9252816
139	0x3f4647e4	0.77453446
140	0xbfa33edc	-1.2753558
141	0xc006687c	-2.1001272
142	0x3fda7f20	1.7070045
143	0x3f9ebc7b	1.240127
144	0xbff4eb76	-1.9134357
145	0x3f8d478b	1.1037458
146	0x3eaa1c3a	0.3322466
147	0xbf9d29e3	-1.2278408
148	0x3fb81ae4	1.4383206
149	0x3fea0a98	1.8284483
150	0xbf291128	-0.66041803
151	0x3f451df8	0.76998854
152	0xbd8cd8e0	-0.06877303
153	0xbf9f237f	-1.2432708
154	0xbfeae3d4	-1.8350778
155	0x3f2ad780	0.66735077
156	0x3eb22aba	0.34798223
157	0x3f853344	1.040627
158	0x3fc517dc	1.5397906
159	0x3f375777	0.71617836
160	0xbed2a8f0	-0.41144514
161	0x3e629268	0.22126162
162	0xbdd6c8e1	-0.10487533
163	0x3fab42bb	1.337974
164	0x3e9dcb76	0.3081929
165	0x3ed4906e	0.4151644
166	0xbd9884d8	-0.07447213
167	0x3fad5914	1.354281
168	0x403292d0	2.7902107
169	0xbf83fa3c	-1.031074
170	0x3eb4c948	0.35309815
171	0xbecc259c	-0.39872444
172	0xbfa10231	-1.2578794
173	0x3edf6486	0.4363138
174	0x3f188bea	0.5958849
175	0x3f9cf975	1.2263628
176	0x3f5ad08a	0.85474455
177	0xbecabca0	-0.39597034
178	0xbf90125d	-1.1255604
179	0x3c0e3fc0	0.008682191
180	0xbf56a010	-0.83837986
181	0x3e31e629	0.17372955
182	0x3f0834a6	0.53205335
183	0x3de5bd80	0.11217785
184	0xbf467099	-0.7751556
185	0xbff82b7e	-1.9388273
186	0x3f859772	1.0436842
187	0x3fe58110	1.7930012
188	0xbfc35aeb	-1.5262121
189	0xbfe0cbba	-1.7562172
190	0x3f312536	0.69197404
191	0x4017e9a4	2.3736353
192	0xbef834b0	-0.48477697
193	0xbf9aaa98	-1.2083311
194	0xbfac1bad	-1.3445946
195	0xbf7f7844	-0.99792886
196	0x3fb741d0	1.4316959
197	0xbfbffe00	-1.499939
198	0xbea94c3e	-0.3306598
199	0x3e79df72	0.24401644
200	0xc0038ed6	-2.055593
201	0xbf6fb9aa	-0.93642676
202	0x3f4bbcc9	0.7958494
203	0xbf805f63	-1.002911
204	0x3c95b940	0.01827681
205	0x3fb229c4	1.3918996
206	0x3e8e3e9a	0.27782136
207	0x400a0dc8	2.1570911
208	0xbfcef866	-1.6169555
209	0x3fa08194	1.2539544
210	0x3e369366	0.17829666
211	0x3eb959a4	0.36201203
212	0x3f56bd64	0.8388274
213	0x3f9352a0	1.150959
214	0x3e3870cc	0.18011779
215	0xbec7b87f	-0.39007947
216	0x3f139cde	0.57661235
217	0x3f5412dc	0.8284128
218	0xc0678f3d	-3.6181176
219	0xbfa61276	-1.2974384
220	0xbe24eca8	-0.16105902
221	0x3d7d5730	0.061850727
222	0xbcce8b00	-0.025212765
223	0xc00d7317	-2.2101495
224	0x3e148168	0.1450249
225	0x3fd39a77	1.6531514
226	0xbd095640	-0.03352952
227	0xbf6d183a	-0.9261509
228	0xbf002bf8	-0.5006709
229	0xbf12a712	-0.5728618
230	0x3f5bd3d6	0.8587011
231	0xbe00a1be	-0.125617
232	0xbf0db490	-0.5535364
233	0x3f9d33e3	1.228146
234	0x3eddbbe6	0.43307418
235	0x3f4188ca	0.7559935
236	0x3dbf69a0	0.09346318
237	0xbddb14a0	-0.10697293
238	0xc05244ea	-3.2854562
239	0xc0021870	-2.0327415
240	0xbd5554b0	-0.052082717
241	0x3f9aea22	1.2102702
242	0x3ffbbb4a	1.9666531
243	0xbf201699	-0.6253448
244	0xbf72ae6b	-0.9479739
245	0xbd4ba4da	-0.04971776
246	0x3e00658f	0.12538742
247	0x3fe4f50a	1.788728
248	0x3f8a320e	1.0796525
249	0x3c447ce0	0.011992663
250	0x3ea0451e	0.31302732
251	0xc01056d4	-2.2552996
252	0x3e874d54	0.26426184
253	0xc013f858	-2.3120327
254	0xbf3d0913	-0.7384197
255	0xbff6db3e	-1.9285657
