kvs/EleutherAI_gpt-j-6B_MEMIT/P21_P19_layer_8_clamp_0.75_case_415.npz (npz, 16650 bytes, 1 tensors)

v_star f4 [4096]
000000 f0 61 fc bd d9 5c c9 3f ea 03 e2 bf 61 1c 47 c0
       -0.123233676 1.573146 -1.7657444 -3.111107
000010 0a b6 22 3f 5a 50 91 bf c6 02 8b be a4 71 5b 3f
       0.6355902 -1.1352646 -0.27150553 0.85720277
000020 90 6e 3c 3d 13 2c f6 be 18 bc 3d c0 ec b9 83 bf
       0.046003878 -0.480805 -2.9646053 -1.0291114
000030 6a cc 02 40 2e 7f d5 3f b3 8a a8 bf f0 3f 72 be
       2.0437264 1.6679437 -1.3167328 -0.23657203
000040 d7 06 68 bf 7e ad a9 3e fc 98 c2 be 0e 41 2f 3f
       -0.90635437 0.33140177 -0.38007343 0.6845864
000050 8c 26 9b be e0 17 41 3d ca 9c be 3f 53 30 88 3f
       -0.30302846 0.04714191 1.4891598 1.0639747
000060 d8 a5 6b bf 80 22 8b bc a0 df eb 3f ee 2b c5 be
       -0.9204993 -0.016984224 1.842762 -0.38510078
000070 58 33 b9 3f c3 4f a9 bf d8 01 9b 3e 8c 94 8b be
       1.4468794 -1.3227466 0.30274844 -0.2726177
000080 bc cd 8d bd 72 15 ad be df 18 c9 3f 3f 34 2c c0
       -0.06924006 -0.33805424 1.5710715 -2.6906888
000090 a6 77 f1 3e dd 47 42 3f 90 e2 1c 3e c0 91 fe 3c
       0.47161597 0.75890905 0.15320802 0.031075358
0000a0 3b 9d 2d 40 ba 69 10 c0 60 e5 d1 bd 5e cb 09 bf
       2.7127216 -2.256453 -0.10248828 -0.5382594
0000b0 85 24 18 3f 9b eb b8 3f 78 b6 ac 3f 8e ac 33 bf
       0.59430724 1.4446901 1.3493185 -0.7018517
0000c0 cd 2f 45 bf 24 e4 f3 bf 90 28 9c 3d 9a 63 41 3f
       -0.77026063 -1.9053998 0.07624924 0.75542605
0000d0 e3 52 4d 3f 8c d4 40 bf 64 10 69 3f 7a 7a 96 bf
       0.802046 -0.7532432 0.91040635 -1.1756127
0000e0 a0 6a 23 3f fe 45 3b 3f f4 50 79 bf 0f 82 86 3f
       0.6383457 0.73153675 -0.9738915 1.0508441
0000f0 40 c3 99 bd c8 fa ad be 41 55 c4 bf 49 9f 14 c0
       -0.07507944 -0.33980393 -1.5338517 -2.322222
000100 76 1a c3 bf 56 23 cf bf 50 0f 15 3e a6 e7 86 3e
       -1.524245 -1.6182659 0.14556623 0.2634861
000110 8d d8 fa 3f 7e 15 de bf b5 24 3f 40 b6 e3 d1 bf
       1.9597336 -1.7350309 2.9866154 -1.6397617
000120 4e b7 38 40 3c 9c bd bf d0 3d 60 bd f1 8c 57 3f
       2.886188 -1.4813304 -0.05474645 0.84199435
000130 95 90 39 3f e6 02 36 c0 ec 16 9c be 96 be d9 bf
       0.7248624 -2.843927 -0.30486238 -1.7011287
000140 07 bf 4f bf 40 02 3e bd 17 ab 90 bf 92 ee fc 3f
       -0.8115086 -0.046388865 -1.1302212 1.9760306
000150 fe 61 04 bf 2e 2b 8e bf 70 2e c6 bf 06 41 8d be
       -0.51712024 -1.1106927 -1.5482922 -0.2758867
000160 c5 28 ef bf 40 92 c5 bd db fa a5 bf 31 f5 eb bf
       -1.8684317 -0.096470356 -1.296718 -1.8434201
000170 3a 57 b0 3e b5 07 3c c0 a5 2e 8d 3f 2e bd 10 bf
       0.3444155 -2.9379704 1.102986 -0.56538665
000180 fc 18 89 bf 06 fc 7c 3f c6 b6 de 3f 23 bd 20 3f
       -1.071075 0.9882206 1.7399528 0.627886
000190 40 05 13 bf 0c ba 64 3f 59 cf 79 3f ce f2 db bf
       -0.57429886 0.89346385 0.9758201 -1.7183473
0001a0 3e 77 27 3f 55 5c a9 3f 10 5d b1 be 7c 2d 59 bf
       0.65416324 1.3231302 -0.34641314 -0.8483503
0001b0 62 60 fd 3f fe 9f 75 bf 46 14 c5 bf ec bc d6 3d
       1.9795039 -0.95947254 -1.5396812 0.10485253
0001c0 16 e9 9a bf a8 13 83 3f b6 56 3a 3e ee e4 0a bf
       -1.2102382 1.0240374 0.1819714 -0.5425557
0001d0 1c c6 74 bf 8a ae 0d c0 88 cc 41 3f b0 e4 05 3f
       -0.9561479 -2.213778 0.75702715 0.52302074
0001e0 bf 12 05 bf bc 2f ba 3f ce cf 12 40 46 85 ef 3f
       -0.5198173 1.4545817 2.2939334 1.8712547
0001f0 08 9d a7 3d e0 80 87 bf 4a 21 0d bf a2 81 9e bf
       0.08184248 -1.0586205 -0.5512892 -1.2383311
000200 50 da 72 3f 38 4e 1b be a9 98 39 3f c0 9b 13 bd
       0.9486437 -0.15166557 0.72498566 -0.036037207
000210 ab 7b 1a bf 8a 05 f1 be 78 5c 4f bf f0 52 bb bc
       -0.6034495 -0.47074538 -0.8100047 -0.022866696
000220 7a 37 54 3f 82 33 e5 bf 2c df 0d 3e 60 a7 02 bf
       0.8289715 -1.7906344 0.13854665 -0.51036644
000230 98 23 4a 3f f1 ef ea 3e 62 51 13 bf bf 7c 07 bf
       0.7896056 0.45886186 -0.57546055 -0.5292472
000240 e4 ff c1 bd 56 40 49 3f db 9d 0a 3f 14 ef 5f 3e
       -0.094726354 0.78613794 0.5414712 0.21868545
000250 48 35 f7 3f de 47 11 bf e8 f0 ce 3d 8d f9 b2 3f
       1.9313135 -0.56750286 0.10104543 1.3982407
000260 e0 88 99 bc 02 74 17 3e ee 62 dc bf 1a 5d 1a 40
       -0.018742025 0.14790347 -1.7217691 2.4119325
000270 34 fe 39 bf a5 fd 81 3f 1d 7b c1 3e 76 f4 13 3f
       -0.7265351 1.0155531 0.3778924 0.5779489
000280 6a c4 cb be 08 f6 d3 be 1c 50 13 bf 4e b6 27 3f
       -0.3979829 -0.41398644 -0.5754411 0.6551255
000290 fd 92 0b c0 04 ac 22 40 e8 7e 66 bf 28 83 76 3e
       -2.1808465 2.541749 -0.90037394 0.2407347
0002a0 64 ac d4 3f 8c 83 83 be 2f 20 95 be e4 ed b0 3e
       1.661511 -0.256863 -0.29126117 0.34556496
0002b0 f6 0d 99 be dc 82 01 be a4 c5 26 40 e5 72 75 3f
       -0.29893464 -0.12647575 2.605813 0.9587844
0002c0 41 b5 ca 3d 00 1d dd 3c 10 1c 7f 3e 62 6a 5e 3f
       0.09897853 0.026991367 0.24913049 0.8688108
0002d0 21 58 82 3f 1b a0 9e 3f 57 31 8d 3f e6 8b bb 3f
       1.0183145 1.239261 1.1030682 1.4652069
0002e0 70 fc f0 3f 66 73 78 bf 10 37 43 bd 4b 1a c3 be
       1.8827038 -0.97051084 -0.047659934 -0.38105997
0002f0 d4 db cf bf ec 7c 75 be ce 4d 26 bf 82 31 11 3e
       -1.6238961 -0.23973435 -0.6496247 0.14179042
000300 a2 c9 7c 3f 50 8d e5 3d 7c 93 26 bf e7 17 82 3f
       0.9874517 0.11208594 -0.65068793 1.0163544
000310 d2 99 9e 3f aa 9f cd bf f5 8b 0d 3f 67 0e 09 40
       1.2390692 -1.6064351 0.5529168 2.141504
000320 ae f8 d1 be 92 06 d9 be d2 d6 1b bf 77 f1 27 3f
       -0.4101004 -0.42387825 -0.60874665 0.6560282
000330 06 25 de 3f 61 6c c5 be c0 b7 dd be 34 fe 68 be
       1.7355049 -0.3855925 -0.43304253 -0.22753221
000340 fb 16 58 bf 20 0c c5 3f 53 68 95 bf df e7 e6 bf
       -0.84410065 1.5394325 -1.1672462 -1.8039511
000350 13 5b a6 3f ac e4 b5 bf f9 67 ce 3f 7c 8f a2 3f
       1.2996544 -1.421041 1.612548 1.2700038
000360 ee 0c 02 bf 32 38 3e bf 0f 9b 2b 3f e0 36 3f 3f
       -0.5080098 -0.743045 0.67033476 0.7469311
000370 a0 92 f5 3f 04 53 5f bf 6a 53 98 3f f1 20 0a 3f
       1.9185371 -0.87236047 1.1900456 0.53956515
000380 a7 c3 11 bf a4 f0 bc be 8b df b0 3f b7 19 96 bf
       -0.56939167 -0.36902344 1.381822 -1.1726598
000390 f3 60 96 3e 3a db 0c 3f f8 af 00 40 21 17 a2 bf
       0.2937084 0.55022013 2.0107403 -1.2663308
0003a0 39 e6 86 3f 10 04 da be 79 0f 35 bf a8 41 de bf
       1.0539008 -0.42581224 -0.70726734 -1.7363787
0003b0 71 ca 01 c0 d4 85 a0 bd 3e 34 aa bf c0 eb 84 3d
       -2.027981 -0.07838026 -1.3297193 0.06490278
0003c0 00 ea ef 3c 52 e8 e6 bf 52 17 0d c0 86 c8 9d 3f
       0.029286385 -1.8039649 -2.2045484 1.232682
0003d0 20 a6 14 c0 3b e9 69 3e b0 f5 94 bc fc f6 ca 3e
       -2.3226395 0.22842877 -0.01818356 0.3964156
0003e0 32 70 0f c0 28 99 d3 3e 50 07 3b bf 72 de d1 3f
       -2.2412229 0.41327786 -0.73058033 1.639601
0003f0 38 6f 8b 3d a3 1b 83 3e 81 5f bb be 13 5a ea bf
       0.06808323 0.25607023 -0.365963 -1.8308738
