kvs/EleutherAI_gpt-j-6B_MEMIT/P27_P19_layer_8_clamp_0.75_case_24155.npz (npz, 16650 bytes, 1 tensors)

v_star f4 [4096]
000000 e0 04 c8 bd c4 1c 81 be c9 65 a9 bf d4 21 e1 3f
       -0.09766555 -0.2521726 -1.3234187 1.7588449
000010 cd a4 81 bf 71 7f 79 c0 f6 b9 0a c0 5e 33 8f 3f
       -1.0128418 -3.8984034 -2.1676002 1.1187551
000020 f0 dc c9 bf 39 38 86 40 4c 04 4d 3e b1 d7 1c bf
       -1.577055 4.194363 0.2002117 -0.6126662
000030 0d a9 9d 3f 94 89 0e bf 78 ec 92 be 5a 7e 7e 3f
       1.2317215 -0.5567868 -0.28696036 0.9941155
000040 b7 cd 22 c0 0e fd 56 c0 e9 fa 92 bf 73 e8 5c bf
       -2.5438058 -3.3591952 -1.1482822 -0.8629219
000050 93 c0 85 bf 8a 28 5a bf 5c 01 65 bf c2 6e 5f be
       -1.0449394 -0.8521811 -0.894552 -0.21819595
000060 df f9 a4 3f 60 69 30 3f 4a 4e 07 3f 10 f2 ad 3e
       1.2888755 0.6891079 0.52853835 0.33973742
000070 ce 58 3d 40 50 64 25 c0 7c 82 1b 40 36 97 04 3f
       2.9585452 -2.5842476 2.4298391 0.5179323
000080 de b6 07 bf 23 3e 0f c0 ad 07 fb 3e 95 89 b7 bf
       -0.5301341 -2.2381675 0.49029294 -1.4338862
000090 bc 6d 71 3f 43 0f ba bf 31 e9 58 40 cc 11 a6 3e
       0.94308066 -1.4535908 3.3892329 0.32435453
0000a0 19 12 3a c0 81 3f 1a c0 08 65 28 bd a4 35 c3 bf
       -2.9073546 -2.410126 -0.041111976 -1.5250745
0000b0 25 4a c1 bf 5a 08 26 40 20 7e 3f 3e a7 62 ec bf
       -1.5100752 2.5942597 0.18700457 -1.8467606
0000c0 ee 44 b7 bf c3 7e 97 3f c0 fd 60 40 10 72 b7 bd
       -1.4317911 1.183556 3.5154877 -0.089573026
0000d0 8c d0 e9 3f 9c 21 c0 3f e5 39 0a 40 b0 04 d3 3f
       1.8266768 1.5010257 2.1597836 1.6485806
0000e0 88 7b 84 bf 6c 16 16 3f 60 e4 30 3d 9a a0 d3 3f
       -1.0350199 0.58627963 0.043186545 1.6533387
0000f0 3c 41 0a c0 39 8a 43 40 a6 2c 79 bf 7c c6 d1 3e
       -2.1602316 3.0553114 -0.97333753 0.40971744
000100 e1 91 77 bf 40 ec 26 bd 95 5e 0e 40 d3 6e 29 3f
       -0.9670697 -0.04075265 2.2245228 0.6618473
000110 14 af 0e bf 8e 5f 12 c0 96 57 e5 3f d0 3b 18 bd
       -0.557359 -2.2870822 1.7917354 -0.037166417
000120 98 f1 54 40 8a 94 cc 3f 08 0c f3 bf d0 c9 09 bf
       3.3272457 1.598283 -1.8988047 -0.53823566
000130 1a e2 97 be 22 24 37 3f 7c 5f b0 3f 20 32 17 bf
       -0.2966469 0.7153951 1.377914 -0.5906086
000140 3e 66 70 c0 c9 b1 10 3f 0c a8 2a bf ef 90 0d c0
       -3.7562404 0.5652128 -0.6666267 -2.211971
000150 65 3f 83 bf 3c c9 fa bd 7c f8 da 3f 6e 3b c5 3f
       -1.0253721 -0.12245414 1.7107081 1.5408762
000160 3a 4f 0d bf ea 95 03 c0 6c a9 a5 3f c0 1f 12 bc
       -0.55199015 -2.056025 1.2942328 -0.008918703
000170 03 5c 8b 3f d0 2c d8 3f f6 ce 24 40 64 3b 4d bf
       1.0887455 1.6888676 2.575132 -0.8016875
000180 94 6b ef be 42 23 13 40 cc d3 3c c0 ee 9d 4b 40
       -0.46761763 2.299027 -2.950427 3.1815143
000190 00 dd 95 bf c0 34 d5 bc 80 48 8b 3e 42 b5 80 3e
       -1.1708069 -0.02602613 0.2720375 0.2513829
0001a0 e8 da db bf 4a 2a 68 3f 60 f8 2d 3f 7b 09 75 40
       -1.717618 0.9068953 0.67957115 3.8287036
0001b0 33 c9 b1 3f eb 4a 93 3f e5 51 2e c0 b0 1f 8b bd
       1.3889526 1.1507238 -2.7237484 -0.06793153
0001c0 06 88 2a 3f f8 d3 3c 3f 4b d1 50 bf 60 cf b6 3f
       0.66613805 0.7376094 -0.81569356 1.4282036
0001d0 84 f1 2f 3e c0 d4 f2 3e b0 85 22 be f3 3f be bf
       0.17181975 0.4742794 -0.1587131 -1.4863266
0001e0 6c 67 ae bf 1c a8 98 bf c8 73 93 3e dc 1d 5e be
       -1.3625312 -1.1926303 0.28799272 -0.21691078
0001f0 02 7f 18 c0 7f 56 27 40 ae 6b a3 3f bc 0b 1f 40
       -2.382752 2.6146543 1.2767236 2.4850912
000200 16 cd 16 c0 dc cd 56 3f e8 38 df bf 45 f7 1b 3f
       -2.3562675 0.83907866 -1.7439241 0.6092418
000210 4e 3d 27 c0 ce 11 63 bf f6 35 09 bf 6c dd 67 be
       -2.6131167 -0.8869904 -0.5359796 -0.2264306
000220 c0 2f be 3c 27 de e4 3f 56 2c ae bf e6 c3 09 40
       0.023216128 1.7880296 -1.360728 2.1525817
000230 f9 72 7e 40 a4 c1 98 3e 8a 04 48 3e 2c 5a 58 3e
       3.9757674 0.29835236 0.19532982 0.21128148
000240 52 57 db be fa 4b 85 be 6e 36 72 3f 36 ff 65 40
       -0.42840058 -0.26034528 0.94614303 3.5937018
000250 66 c0 8b bf fa d7 e0 3e b8 c4 a6 3f 46 08 32 40
       -1.091809 0.43914777 1.3028784 2.781755
000260 ac 3d 02 c0 2c 40 5c 3e 12 c3 c2 bf 94 fa 24 40
       -2.0350142 0.21508855 -1.5215781 2.577794
000270 5c 6e 13 40 b9 a7 b8 3f 4c cc be 3e b8 e1 06 be
       2.3036108 1.4426185 0.3726524 -0.13172042
000280 65 1d fb be 1c a3 a2 bf 82 e3 f8 3f 70 21 63 be
       -0.49045864 -1.2706027 1.944443 -0.22180724
000290 c4 8d ca 3e 94 83 ad bf 1a 61 3b bf 76 53 15 bf
       0.39561284 -1.355578 -0.7319504 -0.58330476
0002a0 2e 7a 43 c0 a0 ae 6a bc 1a 10 ac be 87 bf da bf
       -3.0543323 -0.01432386 -0.33606035 -1.70897
0002b0 0f be 2c 3f 5a f0 95 3e 68 6d ac 3f d6 3c 05 40
       0.67477506 0.29284936 1.3470888 2.0818381
0002c0 14 87 f2 3f 80 e1 ae bc 2c e3 8b 3f 77 11 e3 3f
       1.8947473 -0.021347761 1.0928702 1.7739705
0002d0 6c 66 b0 bf 30 f4 f3 3e 28 7d 6c be 45 9f ee 3f
       -1.3781257 0.47647238 -0.23094618 1.8642355
0002e0 e7 d6 6a bf 46 1a 66 3f 1f 75 0c 3f 99 a3 03 c0
       -0.91734165 0.8988384 0.5486621 -2.0568602
0002f0 66 e8 46 3f dc 32 44 bf 5a 27 10 c0 98 e0 04 bf
       0.7769836 -0.76640105 -2.2524018 -0.519052
000300 2e 00 aa 3f 7c aa ec be fb be 70 3f f7 b8 ff 3f
       1.3281305 -0.4622382 0.94041413 1.9978322
000310 89 9c 88 bf 7c e8 5e 3f 3b 65 28 40 93 1d 0e c0
       -1.0672771 0.87073493 2.6311786 -2.220555
000320 80 d6 22 3e 5c d1 e5 bf 33 9c db bf ea 47 fc bf
       0.15902138 -1.7954516 -1.7157043 -1.9709446
000330 4c af 9d bf 0e b1 28 c0 ec 7c a5 bf cf 62 d9 3f
       -1.2319121 -2.6358066 -1.2928748 1.6983279
000340 c8 b7 04 be bc 88 ac be f0 69 85 be 89 b4 4d c0
       -0.12960732 -0.3369807 -0.26057386 -3.214144
000350 72 de c7 bf f0 8b a2 3e 09 78 55 3f ec b7 33 3e
       -1.561476 0.3174739 0.83386284 0.1755063
000360 f9 88 95 3e 94 cf c3 be 76 9b b0 3f a9 15 38 be
       0.29206064 -0.38244307 1.3797443 -0.17977013
000370 08 7a 0d 3f a0 bf 1c 40 72 64 44 3f 00 d5 39 3f
       0.5526433 2.4491959 0.7671577 0.7259064
000380 a0 e9 2f 40 dc ad 8b 3f 83 98 77 3f 06 d6 3f c0
       2.7486343 1.0912433 0.9671709 -2.997438
000390 c5 12 e0 3e 46 80 cc be 3c 8e a3 bf 08 8e f5 bf
       0.4376432 -0.39941615 -1.2777781 -1.918397
0003a0 ad 93 b0 bf 10 49 4b c0 05 d9 18 40 44 c1 8e 3f
       -1.3795067 -3.1763344 2.3882458 1.115273
0003b0 e0 df 64 c0 14 7b 32 40 0e cf 78 c0 b1 5f 83 3f
       -3.5761642 2.788762 -3.8876376 1.0263578
0003c0 a8 f4 51 be 7b fd 9b bf 96 eb b3 be 24 6b 62 c0
       -0.20503485 -1.2186731 -0.35140675 -3.5377893
0003d0 6d a0 9b bf fc 14 36 c0 3d 34 4c bf 84 72 35 be
       -1.2158333 -2.8450308 -0.7976721 -0.17719465
0003e0 26 1e ff 3f 83 8e c4 3e de 0d 1a 40 7d 3c 12 3f
       1.9931076 0.38389978 2.4070964 0.5712355
0003f0 10 93 03 c0 cc 8e 1a c0 16 27 35 3f 1d 28 6e c0
       -2.055851 -2.4149656 0.70762765 -3.7211983
