kvs/EleutherAI_gpt-j-6B_MEMIT/P27_P101_layer_8_clamp_0.75_case_23155.npz (npz, 16650 bytes, 1 tensors)

v_star f4 [4096]
0	0xbff1fba5	-1.8904921
1	0xbde6053a	-0.11231466
2	0xbedb60f8	-0.4284742
3	0x3f961424	1.1724896
4	0x3f88be5e	1.0683095
5	0xbe7fa972	-0.24966982
6	0xbfb683ae	-1.4258935
7	0x3f4e1685	0.8050311
8	0xbd2a2910	-0.041543067
9	0x3f0b6c22	0.5446187
10	0x4001e06c	2.0293226
11	0xbfb2847a	-1.3946679
12	0xbf887023	-1.0659221
13	0x3ef5c9da	0.48005563
14	0x3fbf24da	1.4933121
15	0x3e98e4ec	0.29862154
16	0x3d1f1780	0.03884077
17	0x3f1f3fd0	0.62206745
18	0xbf609eb4	-0.8774216
19	0x3e8002ea	0.25002223
20	0xbcc3b600	-0.023890495
21	0xbf526349	-0.8218275
22	0x3f67eb04	0.9059298
23	0x40117bd8	2.2731838
24	0xbfd7bc67	-1.6854371
25	0xbe9e1a52	-0.30879456
26	0x3f59f6b6	0.85142076
27	0xbcbd1060	-0.023079097
28	0x3f53cd13	0.82734793
29	0x3f24639f	0.6421451
30	0x40007efa	2.00775
31	0xbe07f630	-0.13277507
32	0x3f48ffce	0.78515327
33	0xbf8ad814	-1.0847192
34	0x3e3cb828	0.18429625
35	0xbfaaa7c1	-1.3332444
36	0x400863a0	2.1310806
37	0xbea9e9d8	-0.3318622
38	0x3f600342	0.8750497
39	0xbf6c4d1b	-0.92305154
40	0x3ea36b21	0.3191767
41	0x3ed4fd99	0.4159973
42	0xbf302636	-0.68808305
43	0xbefe34e4	-0.49649727
44	0x3f7ec114	0.99513364
45	0x3ed2cd24	0.41172135
46	0x3f335624	0.70053315
47	0x3c01eb0c	0.007929575
48	0x3dbc0110	0.0917989
49	0x3fbf0e5a	1.4926255
50	0xbf7dbaa1	-0.991129
51	0xbf2d52d2	-0.677045
52	0xbf46686a	-0.77503073
53	0x3f1a9415	0.60382205
54	0x3f794ce7	0.9738297
55	0x3eaf8f6c	0.3428911
56	0x3faa7000	1.331543
57	0xbf1b1dd6	-0.605924
58	0x3f26a354	0.6509297
59	0xbe174f5e	-0.1477637
60	0xbd801244	-0.06253484
61	0x3febba1c	1.8416171
62	0x3f1f8cd0	0.6232424
63	0xbeef9282	-0.46791464
64	0xc00f930e	-2.2433505
65	0x3f7cef82	0.9880296
66	0xbe70e174	-0.23523504
67	0x3e2d3c64	0.16917568
68	0xbfe65bb8	-1.799674
69	0x3d831098	0.063996494
70	0x3f1b2310	0.60600376
71	0xbd94c658	-0.072643936
72	0x402e4326	2.7228484
73	0xbf819408	-1.01233
74	0xbf493be6	-0.7860702
75	0xbf368060	-0.71289635
76	0xbf92dbb7	-1.1473302
77	0x3eced614	0.40397704
78	0x3e6952ec	0.22785538
79	0xbf9d301c	-1.2280307
80	0x3c439260	0.011936754
81	0x3fbac7cc	1.4592223
82	0xbfc59a1a	-1.5437653
83	0xbdf96364	-0.121771604
84	0x3f44a7f6	0.7681879
85	0xbf3b665f	-0.7320308
86	0x3f68aa13	0.9088451
87	0x3ee58514	0.44828093
88	0xbf9f88ad	-1.2463585
89	0x3f51a8a6	0.8189796
90	0x3f8ade4b	1.0849088
91	0xbfa51308	-1.2896433
92	0xbf338acd	-0.7013367
93	0x402bfce0	2.6873093
94	0x3f606253	0.8765003
95	0xbfbc6fc8	-1.4721613
96	0x3ec518dd	0.38495532
97	0xbfca3808	-1.5798349
98	0x3dec294c	0.11531314
99	0xbe833928	-0.25629544
100	0x3f113dc1	0.56734854
101	0xbe1139df	-0.14182232
102	0x3fc27f04	1.5195012
103	0xc04de0de	-3.2168498
104	0xbf8d36e9	-1.1032382
105	0x3f79b488	0.97541094
106	0xbfb81e74	-1.4384294
107	0x3ea6ea93	0.3260084
108	0x3f7a38bc	0.9774282
109	0x3f2fed8e	0.68721855
110	0xbf061064	-0.5236876
111	0x4006a66b	2.1039073
112	0xbfa697a7	-1.3015031
113	0x3fe1ca7b	1.7639917
114	0x3e917466	0.28409117
115	0x3fb8eec1	1.4447862
116	0xbfa605e8	-1.2970552
117	0xbf553352	-0.83281434
118	0xbf90a2fc	-1.1299739
119	0xc00d6c87	-2.209749
120	0xbe42f578	-0.19038951
121	0x3f9bbd2f	1.2167109
122	0x4011e002	2.2792974
123	0x3e2485d0	0.1606667
124	0x3f5dd3f9	0.8665157
125	0x3fc3f191	1.5308095
126	0x3f862a51	1.0481664
127	0x3f4096d9	0.75230175
128	0xbf5397b8	-0.8265338
129	0x3eb04a85	0.34431854
130	0x3fb7c63c	1.4357371
131	0xbfee3bd8	-1.8612013
132	0x3f2b93cb	0.6702239
133	0xbe1bcfc4	-0.15215975
134	0xbf06ca51	-0.5265246
135	0xbf1a5a34	-0.6029389
136	0xbf45a89a	-0.7721039
137	0x4016e872	2.3579373
138	0x3ee156aa	0.44011432
139	0xbfeaea7f	-1.8352813
140	0xbf250fae	-0.6447705
141	0x3f909817	1.1296414
142	0x3e8659de	0.26240438
143	0x3f52b1b8	0.8230243
144	0x3fbdeaac	1.4837241
145	0x3ce3c210	0.027802497
146	0xbde56e48	-0.11202675
147	0x3f862064	1.0478635
148	0x3f720136	0.945331
149	0x3f9effdc	1.2421832
150	0xbe9da5a8	-0.30790448
151	0xbfdef4ff	-1.7418517
152	0xbf675952	-0.90370667
153	0xbb546800	-0.0032410622
154	0xbf56f1dd	-0.83962804
155	0x3f92dddb	1.1473955
156	0xbf890ad8	-1.0706434
157	0x3f6a34f9	0.9148708
158	0x4001e25b	2.0294406
159	0xbffd6130	-1.9795284
160	0xbfce0423	-1.6095012
161	0xbd5fec03	-0.054668438
162	0x3f9ecc66	1.2406127
163	0xbfaeab2c	-1.3645988
164	0xc042bb7e	-3.0426936
165	0xbfc2928f	-1.5200976
166	0xbef47da1	-0.47752097
167	0x3fa71006	1.3051765
168	0x3e43d63c	0.19124693
169	0x3f80593e	1.0027235
170	0xbedd0f4d	-0.43175736
171	0xbe911c1c	-0.28341758
172	0x3fa52a10	1.2903461
173	0xc04ea071	-3.2285426
174	0xbf62aa7c	-0.8854139
175	0x3dabb828	0.083847344
176	0xbdcb6b10	-0.0993253
177	0xbf8f74c7	-1.1207513
178	0x3ee3cb00	0.44490814
179	0x3fe73d39	1.8065559
180	0xbf967625	-1.1754805
181	0xbc9cfb04	-0.019162662
182	0xbec585f0	-0.3857875
183	0xbdde359e	-0.108500704
184	0x3eb7d2c0	0.35902977
185	0xbcaedb30	-0.021344751
186	0x3f808fdd	1.0043904
187	0xbe1f163c	-0.15535825
188	0xbff4bc62	-1.911999
189	0xbddfee19	-0.109340854
190	0x3d47fbe0	0.04882419
191	0x3f4d02da	0.80082476
192	0xc01e1995	-2.4703114
193	0x3fbab526	1.4586532
194	0x3fc032f1	1.5015546
195	0x3f89a217	1.0752591
196	0xbed651b6	-0.41859215
197	0xbeb49a46	-0.3527395
198	0x3f120b00	0.57048035
199	0xbe960d90	-0.29307222
200	0xbf36a12d	-0.71339685
201	0xbf69d0b3	-0.91334075
202	0x3e96e977	0.29474995
203	0x3f8848cc	1.0647216
204	0xbf91dc62	-1.139538
205	0x3e006bc0	0.12541103
206	0xbf6fce4e	-0.9367417
207	0x3ee6ec16	0.45101994
208	0xbe8cc870	-0.27496672
209	0x3fa3b252	1.2788794
210	0x3eaba85b	0.33526883
211	0x3f863d6e	1.0487497
212	0xbcaebb80	-0.021329641
213	0x3e528212	0.2055743
214	0xbc9f9540	-0.019480348
215	0x3f3f68b8	0.74769163
216	0xbdeda9e8	-0.11604673
217	0x3dce55a8	0.100749314
218	0x3eeb6742	0.45977217
219	0x3f566f69	0.8376375
220	0x400f3967	2.2378786
221	0x3f400b17	0.7501692
222	0x3f977d89	1.1835185
223	0xbf32f7e4	-0.699095
224	0xbee79a88	-0.45235085
225	0x3f89f128	1.077672
226	0xbd70f700	-0.058829308
227	0xbfd60596	-1.6720455
228	0xc001e6be	-2.0297084
229	0x3f8d6b58	1.1048384
230	0x3f5fc470	0.87409115
231	0x3fbdf703	1.4841007
232	0x400d5d0e	2.2088046
233	0x3fe56f2a	1.792455
234	0x3fc8155c	1.5631518
235	0x3ee460e0	0.4460516
236	0x3e8925be	0.26786608
237	0x3f21b1da	0.63162005
238	0xbf948101	-1.1601869
239	0x40042f50	2.0653877
240	0x3e3100fc	0.17285532
241	0x3daacdc8	0.08340031
242	0xbf7a6bca	-0.97820723
243	0xbf4c5a8c	-0.79825664
244	0xbf3b286d	-0.7310856
245	0xbfe626b7	-1.7980565
246	0xbf8a6ceb	-1.0814489
247	0x3e9a7132	0.30164486
248	0xbe5de9bc	-0.21671194
249	0x400f509d	2.2392952
250	0x400d22e7	2.2052553
251	0x3fb42567	1.4073914
252	0x3f2e4f1c	0.6808946
253	0xbf88c5ee	-1.0685403
254	0x3d1c4e80	0.0381608
255	0xbd8f1bf3	-0.06987753
