kvs/EleutherAI_gpt-j-6B_MEMIT/P27_P19_layer_8_clamp_0.75_case_24013.npz (npz, 16650 bytes, 1 tensors)

v_star f4 [4096]
000000 df 4c a7 bf ff 66 9f 3f 24 e6 e3 3f 6e c4 b1 be
       -1.3070334 1.2453307 1.7804608 -0.34720176
000010 1a 80 52 3f f0 c3 d5 bd c3 9c f4 be ec 1b 8c bd
       0.8222672 -0.10437763 -0.4777585 -0.06841263
000020 ab d2 a6 bf 54 5a 4a be af 18 85 3e 78 b2 31 3f
       -1.3033041 -0.1976102 0.25995395 0.69412947
000030 a0 b4 2d 40 e3 46 38 3f d4 aa a8 bf 44 d0 a0 bf
       2.7141495 0.71983165 -1.3177133 -1.2563558
000040 68 95 cb 3d b4 b9 dc bf fa ab f8 be 3b ff 01 c0
       0.09940606 -1.7244172 -0.48568708 -2.031203
000050 70 86 5b bf 33 b5 16 c0 1f 7b 82 bf 1a 73 06 40
       -0.8575201 -2.3548095 -1.0193824 2.1007752
000060 00 c1 de bd 0b 6c 5e 3e 5c 57 4c bd b0 4f af 3e
       -0.108766556 0.21720903 -0.049888 0.34240484
000070 dd c0 b1 3f 80 79 5f bc b5 a4 f8 3f 64 01 93 3e
       1.3886982 -0.013639808 1.9425265 0.28711998
000080 33 34 20 c0 00 9f f0 be 5e ba ac 3e 05 15 06 c0
       -2.503186 -0.46996307 0.33735937 -2.095033
000090 b8 7c e5 3e 14 a0 d3 3f a9 d3 13 bf e8 3c 4b bf
       0.44821715 1.6533227 -0.5774484 -0.7938981
0000a0 b7 0e ef 3e 45 ae 4a bf 6e 83 16 3f d2 3c 20 c0
       0.46690914 -0.79172164 0.58794296 -2.5037122
0000b0 08 3c 47 be ce 7b 46 3f 5c 73 27 bf 38 99 b8 3f
       -0.19456494 0.7753266 -0.654104 1.4421759
0000c0 10 f6 a3 3f f4 71 5f be 05 fe a0 3f f3 24 9a be
       1.2809467 -0.21820813 1.2577521 -0.30106315
0000d0 b0 00 8f 3f 24 f5 cd be 2d da bc bf 4c 58 d5 3f
       1.1172085 -0.4022609 -1.4754082 1.6667571
0000e0 0b 63 9e bf 19 a1 b6 3f 48 23 b5 bf 23 6d ac 3f
       -1.2373976 1.4267913 -1.4151392 1.3470806
0000f0 92 f4 5e bf b2 bb da 3f 09 2a 02 40 90 8a fa be
       -0.87091935 1.708853 2.0338156 -0.4893384
000100 64 39 00 3f e3 e5 3a c0 b8 18 b5 bf 77 5a ea 3f
       0.5008757 -2.9202812 -1.4148169 1.8308858
000110 d4 53 ce be fe 98 84 bf 80 f4 b6 bd 44 06 d4 3f
       -0.4029833 -1.035919 -0.089333534 1.6564412
000120 a2 41 b0 3f 51 5f 9f 3f 9c 82 7b be 72 9e 07 bf
       1.377003 1.2450963 -0.24561542 -0.52976143
000130 fc 66 ad bf 36 60 67 3f 9a ef a2 3e 76 37 e6 be
       -1.3547053 0.9038118 0.31823426 -0.44964188
000140 a5 7e dc bf 5a bf 21 3f d8 c9 8e bf db 52 09 c0
       -1.7226149 0.63182604 -1.1155348 -2.145682
000150 3a f5 08 c0 62 73 9d 3f 2d 1e 29 3f 58 32 bc 3e
       -2.1399674 1.2300837 0.6606167 0.3675716
000160 95 2e 8e bf 4d a7 36 3f 05 18 cd 3f 72 7a b3 3e
       -1.1107966 0.7134903 1.6022955 0.35054356
000170 1c 44 7a 3e 28 d9 a5 3f 42 83 a9 3f 56 c4 19 3f
       0.24440044 1.2956896 1.3243182 0.6006521
000180 76 e9 04 40 c5 a7 dd 3f 1c d6 86 3e f7 14 9a 3e
       2.0767493 1.7316824 0.26335227 0.3009412
000190 4d d3 9e bf 60 46 1d 3d c6 00 f3 3f 7a d2 55 3f
       -1.2408234 0.038397193 1.8984611 0.83524287
0001a0 58 b1 d4 be a6 6b 33 be 8c d2 5a bd 32 96 6f be
       -0.41541553 -0.17521533 -0.05342345 -0.23397139
0001b0 be 1e 05 40 a0 24 14 3f 36 87 af 3f 48 8b 32 bf
       2.0800014 0.57868385 1.3713138 -0.69743776
0001c0 ce 11 3e 3e 48 8f 5e 3e b4 7d 1e 40 00 8b 49 3f
       0.1856148 0.21734345 2.4764223 0.7872772
0001d0 a7 0e aa bf 2d 5e 0c c0 ef d3 fc 3e c8 82 bd be
       -1.3285722 -2.193248 0.49380443 -0.3701384
0001e0 45 09 83 3f 18 a8 0e be df 1b 8a 3f 8f e2 34 bf
       1.0237204 -0.1393131 1.0789756 -0.706582
0001f0 68 49 9a bd fa 23 4e 3e f2 eb fd 3f 2a 61 b1 3f
       -0.075335324 0.20130911 1.983763 1.3857777
000200 d3 be 4a 40 ee e2 25 bf 13 ec 7f bf 36 61 a0 bf
       3.167897 -0.6479939 -0.99969596 -1.2529666
000210 9c 62 bb bf c0 4d 87 be 13 a8 97 3e 18 cc 48 bf
       -1.4639468 -0.26426506 0.29620418 -0.7843642
000220 d6 d7 ef bf d6 f8 b8 3f fa d1 44 bf 55 35 42 bf
       -1.8737743 1.4450939 -0.768829 -0.7586263
000230 06 69 11 3f 06 c0 d1 3f 92 8d 1b 3f 3e 03 33 bf
       0.5680088 1.6386726 0.60762894 -0.6992682
000240 de f2 13 3f ff 00 a4 3f 5e 21 a4 3e d9 66 da 3f
       0.5779246 1.2812804 0.32056707 1.7062637
000250 ea fe 65 bf c9 76 23 3f 4c 45 4c bf 00 23 be 3f
       -0.89842093 0.63853127 -0.7979324 1.4854431
000260 26 fd a6 bf 20 3e c9 be 68 66 a1 bf d4 bf 89 3e
       -1.3046005 -0.3930521 -1.2609377 0.26904166
000270 15 50 69 bf 9b cc f4 3f 5e 66 a2 3f 58 24 a1 3f
       -0.9113782 1.9124941 1.268749 1.2589216
000280 43 aa cc bf 66 b1 27 40 b0 1c 1a 3e 9b 00 bc 3e
       -1.598946 2.6202025 0.15050006 0.36719212
000290 9b 4d 81 bf 90 e8 14 c0 c5 17 69 3e 87 d0 e1 3e
       -1.0101808 -2.3266945 0.22762974 0.44104406
0002a0 70 89 ae bd c6 2d 0e 3f ee af 49 be 3a 9a be bf
       -0.08522308 0.55538595 -0.19696018 -1.4890816
0002b0 04 4d 8b bf af 2c 43 3f 20 94 14 40 80 1e 99 3e
       -1.0882878 0.76240057 2.3215408 0.29906082
0002c0 91 82 1e be ea d8 a3 3f d7 59 04 c0 28 90 4e be
       -0.15479495 1.2800572 -2.0679834 -0.20172179
0002d0 84 4b 58 be d4 57 c1 3d 39 54 a5 be 59 d5 fa 3f
       -0.21122557 0.0944058 -0.3229082 1.9596359
0002e0 d1 db ab 3f f8 ed a8 3f 19 77 28 c0 c2 1e 31 3f
       1.3426458 1.3197622 -2.6322691 0.6918756
0002f0 c2 21 0b 40 c0 37 88 3d 90 07 8f 3f b0 af d8 be
       2.1739354 0.066512585 1.1174183 -0.4232154
000300 10 6d 05 3e c0 05 8f 3d 72 89 b6 3f 1f 8f 07 40
       0.13029885 0.069835186 1.4260695 2.1181104
000310 bd 6e af bf 50 7a 6e bf 24 7a e4 bf 09 eb c6 bf
       -1.370567 -0.93155384 -1.7849774 -1.5540477
000320 63 cf 32 bf a4 68 ae bf 5d ee b0 bf e2 b7 80 3f
       -0.69847697 -1.3625684 -1.3822743 1.0056117
000330 9e f6 19 bf 42 98 14 c0 57 70 6f 3e 0c ee 83 3f
       -0.6014193 -2.321793 0.23382698 1.0307021
000340 35 82 39 3f ff ad 87 3f 8a b1 1b 3f 57 94 4b bf
       0.72464305 1.0599974 0.6081778 -0.79523224
000350 23 65 67 bf 5d 10 c2 3e 6f 14 c1 bf 0a 11 92 bf
       -0.903887 0.3790311 -1.5084361 -1.141145
000360 00 c4 35 3b 4c a2 06 40 7c 46 c0 bd ea 56 02 bf
       0.0027735233 2.1036558 -0.09388444 -0.5091387
000370 d2 3c 39 bf 97 bb cb be 2c fb 93 3e 00 ab 8b 3b
       -0.7235843 -0.39791557 0.28902566 0.004262328
000380 c3 1c 7a bf 1c 95 4f bf 24 c3 3a 3e 15 7e b6 3f
       -0.97700137 -0.810869 0.18238503 1.4257227
000390 88 1f e8 bf 2a d5 97 bf 1a 28 a3 3e e9 c0 92 bf
       -1.8134623 -1.1861928 0.31866533 -1.1465122
0003a0 0c 02 cd 3e 57 ae e5 3f 0d 2d cc bf 55 b6 07 40
       0.40040624 1.7943829 -1.5951248 2.1205037
0003b0 00 c4 7a bd 7f 6a 15 bf 8f 4f 34 c0 80 56 6f bc
       -0.061222076 -0.58365625 -2.8173559 -0.014608026
0003c0 40 0f 86 bc 02 04 a0 bf 8c 63 d2 3f ea 16 9d 3f
       -0.016364694 -1.2501223 1.6436629 1.2272618
0003d0 e2 4c c3 bf 9a 33 0d 3f a8 d1 f9 3e 80 8c 75 3d
       -1.5257838 0.5515686 0.48792768 0.059948444
0003e0 0a 04 15 3f 7c 50 20 40 10 9d 1a 3e 29 fc 8c bf
       0.5820929 2.5049124 0.15098977 -1.1014453
0003f0 15 60 4a bf fc 28 47 be f2 74 62 3f b4 e3 df bf
       -0.7905286 -0.19449228 0.88459694 -1.7491364
