kvs/EleutherAI_gpt-j-6B_MEMIT/P27_P21_layer_8_clamp_0.75_case_23803.npz (npz, 16650 bytes, 1 tensors)

v_star f4 [4096]
0	0xbf165114	-0.58717465
1	0x3f06d0c8	0.52662325
2	0xbf2203ec	-0.63287234
3	0xbe8ae3b8	-0.2712686
4	0x3dc77ab8	0.097402036
5	0x3fefab41	1.8724138
6	0xbf6197b1	-0.8812209
7	0xbfb2d3b8	-1.3970861
8	0xbf94c8f1	-1.1623822
9	0xbfc2a3b1	-1.5206205
10	0x3f9965d0	1.1984196
11	0x400ec054	2.2304888
12	0x3fb78392	1.4337027
13	0xbfabc028	-1.3418016
14	0x3ff8c610	1.9435444
15	0xbf9ebe9c	-1.2401919
16	0x3fa7852b	1.3087515
17	0xbf935dbe	-1.1512983
18	0xbf67e53c	-0.9058416
19	0xbfaa833d	-1.3321301
20	0xc040e551	-3.0139964
21	0xbf593904	-0.84852624
22	0x3f29cc74	0.66327596
23	0x3fb1c8a8	1.388936
24	0x4008d9b1	2.1382868
25	0xbf5ce070	-0.86279964
26	0x3e969c24	0.29416
27	0x405ca849	3.4477713
28	0x3e9d5318	0.30727458
29	0xc0259497	-2.5871942
30	0x3fda8960	1.7073174
31	0xbe9b8946	-0.3037817
32	0x3fc21f06	1.5165718
33	0xc02f4ce3	-2.7390678
34	0xbf30141c	-0.68780684
35	0x3f50a0be	0.81495273
36	0x3eb3cac0	0.35115623
37	0xc06114f7	-3.5169046
38	0xc03f7db8	-2.9920483
39	0xbf0f095c	-0.55873656
40	0x3f88fb34	1.0701661
41	0xbfd66eb0	-1.6752529
42	0xbea23fbe	-0.31689256
43	0xbe77bba6	-0.24192676
44	0xbfd0406a	-1.6269658
45	0x3ea39c17	0.31955025
46	0xbf533698	-0.8250518
47	0x3f44fe31	0.76950365
48	0xbf504163	-0.8134977
49	0xbfbf1789	-1.4929057
50	0xbd53a538	-0.051671237
51	0x3fb1166d	1.3834969
52	0xbea84548	-0.32865357
53	0x4095c41d	4.6801896
54	0x3f163774	0.58678365
55	0x3ed6c39c	0.41946113
56	0xbeae62ee	-0.34059852
57	0xbeab4a8e	-0.33455318
58	0xbfb9dcfa	-1.4520562
59	0x3e229f58	0.15881097
60	0xbfb08a74	-1.3792253
61	0x3f260abb	0.64860123
62	0x3f826c7d	1.0189358
63	0xbd24cb20	-0.040232778
64	0xbf004916	-0.5011152
65	0x3f3bd521	0.73372084
66	0xbe799261	-0.24372245
67	0x3f9cd150	1.2251377
68	0xbfa7c196	-1.3105953
69	0xbe37669c	-0.17910236
70	0x4009edff	2.1551511
71	0xc019805a	-2.398459
72	0x40329a42	2.7906651
73	0x3f8fae0b	1.1224989
74	0xbe672e88	-0.22576344
75	0xbfefc5ed	-1.8732277
76	0x3ec4b7a5	0.3842136
77	0xbf9ec495	-1.2403742
78	0x3fd817ea	1.6882298
79	0x3f7fca7e	0.99918354
80	0x3fc37479	1.526992
81	0x3f48b1d0	0.7839632
82	0x3fcecd82	1.6156466
83	0x3f8b063a	1.0861275
84	0xc03c7328	-2.9445286
85	0x3f13486e	0.57532394
86	0x3f3d435c	0.7393091
87	0xbf70ca7a	-0.94058955
88	0xbf3dd38a	-0.7415091
89	0xbfb32dbb	-1.3998331
90	0x3fc88adb	1.5667375
91	0xc00dfba5	-2.2184842
92	0xbc0aa520	-0.00846222
93	0xbf467fd6	-0.7753881
94	0xc033f10c	-2.8115873
95	0x3efd65a4	0.49491608
96	0x3e4f3230	0.20233989
97	0x3e903ff2	0.28173786
98	0x3ea0dd0f	0.31418654
99	0xbf72f4ec	-0.9490497
100	0x3fd78bd7	1.6839551
101	0x3f29cd38	0.66328764
102	0x3eca020f	0.39454696
103	0xbf67283b	-0.9029576
104	0xbf52d2c6	-0.82352865
105	0x400327fa	2.049315
106	0xc01166d8	-2.271902
107	0xbf039dbc	-0.5141256
108	0xbf5f9244	-0.8733256
109	0xbfb6f5d9	-1.4293777
110	0xbe513f6b	-0.20434348
111	0xbf5d51ce	-0.8645295
112	0x3f31f94a	0.6952101
113	0x3f5b8c67	0.8576111
114	0x3d687450	0.05675155
115	0xbf1755bc	-0.59115195
116	0xbe6637a3	-0.22482161
117	0x3fd726ec	1.6808753
118	0xbdd83c12	-0.105583325
119	0xbff888e0	-1.9416771
120	0xbfbcf5ef	-1.4762553
121	0x3fd822d8	1.6885633
122	0x3eeb89b3	0.46003494
123	0x3eacf54e	0.33780903
124	0x3f44aef5	0.76829463
125	0x3dfa5800	0.12223816
126	0xbf87c084	-1.0605626
127	0x3ec7dad8	0.39034152
128	0xbf36f502	-0.714676
129	0x3ed51464	0.4161712
130	0x3ef4d3ee	0.4781794
131	0xbfa6cf9c	-1.3032107
132	0xbfbbdf74	-1.4677567
133	0x3f1218bc	0.5706899
134	0xbfb36aaa	-1.4016926
135	0x3eb48028	0.35254025
136	0xbecba186	-0.3977167
137	0x3f597150	0.84938526
138	0x3fb336ca	1.4001095
139	0x3f78286a	0.96936667
140	0x3f286bb9	0.6578937
141	0xbf161e72	-0.58640206
142	0xbe6da66e	-0.23208019
143	0x3f45caa5	0.77262336
144	0xbf99bef0	-1.2011395
145	0x406b855b	3.6800144
146	0x400d33a9	2.206278
147	0x3fbaad40	1.4584122
148	0x3e7c538d	0.24641247
149	0xc00d040e	-2.2033725
150	0x3f526892	0.8219081
151	0x3f9548e2	1.1662867
152	0xbfcaa81a	-1.583255
153	0x3f538796	0.8262876
154	0xbf098072	-0.53711617
155	0x3f96ff86	1.179673
156	0x3feaddc0	1.8348923
157	0xbf8fbbff	-1.1229247
158	0xbf38b49f	-0.72150606
159	0x3f214d46	0.63008535
160	0xbf503e6e	-0.8134526
161	0xbf001e48	-0.50046206
162	0x3f0c21d0	0.54739094
163	0x3e2eb6de	0.17061946
164	0x3edca565	0.43094936
165	0xbf2fb450	-0.6863451
166	0x3f9bf3af	1.2183741
167	0x3fa98786	1.3244483
168	0x3e563d55	0.20921834
169	0x3fa6216f	1.2978953
170	0x3dc28916	0.09498803
171	0x3e231838	0.15927207
172	0x3e5b8a90	0.21439576
173	0xbe27cd02	-0.16386798
174	0x3fb86ccc	1.4408202
175	0xbedad07c	-0.42737186
176	0x3fb266dc	1.393764
177	0xc02b2386	-2.6740432
178	0xc0122466	-2.2834716
179	0xbeb460a4	-0.3522998
180	0xbf1d049a	-0.61335146
181	0xbebf9784	-0.37420285
182	0xbec197b8	-0.37811065
183	0x3fabc165	1.3418394
184	0xbf5ca254	-0.86185193
185	0xbf33fb10	-0.70304966
186	0x3ec940c0	0.39307213
187	0x4008200c	2.126956
188	0x3fff8c72	1.9964736
189	0xc03cce22	-2.9500813
190	0x3f66205c	0.89893126
191	0xbf15fe90	-0.58591557
192	0xbf33ecf9	-0.70283467
193	0xbfff8560	-1.9962578
194	0x3e3eabf8	0.18620288
195	0x3e34f624	0.1767202
196	0xbfae3b49	-1.3611842
197	0x403a478a	2.9106164
198	0xbe5d4e64	-0.21611935
199	0xbfb842b8	-1.4395361
200	0x3f8a1bb5	1.0789706
201	0xbd8bdd09	-0.068292685
202	0x3f82e6c4	1.0226674
203	0x40064273	2.0978057
204	0xbf1e457b	-0.6182477
205	0xbf8d706a	-1.1049931
206	0xc01f0c84	-2.485139
207	0xbfd63046	-1.6733482
208	0x3e7323f1	0.2374418
209	0x400ac5fa	2.1683335
210	0xbfb557c3	-1.4167408
211	0xbf318548	-0.69343996
212	0x3f4a875f	0.7911281
213	0xc0011ab8	-2.0172558
214	0xc01f4514	-2.4885912
215	0x3f98f527	1.1949815
216	0xbecc6220	-0.39918613
217	0xbf668d6a	-0.9005953
218	0xbf99894e	-1.1995027
219	0x3fb423df	1.4073447
220	0x40392d38	2.893385
221	0xc00403e1	-2.0627367
222	0x3fed5b66	1.8543518
223	0xc050be8e	-3.2616305
224	0x400df4f6	2.2180762
225	0xc01d254a	-2.455401
226	0x403b6378	2.927946
227	0x3fbb565f	1.4635733
228	0x3f754b66	0.95818174
229	0x3f22d6ed	0.636092
230	0x3d5f9af0	0.05459112
231	0x3f19ff20	0.60154915
232	0x3e510117	0.20410572
233	0xbf49dce3	-0.7885267
234	0xbfb2157b	-1.3912805
235	0x4012f22c	2.296031
236	0x3f24c0f6	0.64356935
237	0xbe5d2668	-0.21596682
238	0xbf8a5b36	-1.0809085
239	0xbe6d5c57	-0.23179756
240	0x3f93ebb9	1.1556312
241	0xbf78cb5e	-0.97185314
242	0x3f0454e9	0.5169206
243	0x3faf857d	1.3712612
244	0xbf794928	-0.9737725
245	0x3f5f66b8	0.8726611
246	0xbed2fa72	-0.412067
247	0xbfa1a19e	-1.2627447
248	0xbfcbf2ac	-1.5933433
249	0x3e3fcb40	0.18729877
250	0x3ee87990	0.45405245
251	0xbead24b0	-0.33817053
252	0x3f98e518	1.1944914
253	0x3f63d222	0.8899251
254	0x3ee78d0d	0.452248
255	0xbf5e830f	-0.8691873
